OHSHIT (1)/Library/Collab/Download/Assets/nnmodels/2d3.onnx (onnx, 181706 bytes, 11 tensors)

69 f4 [78]
16494.084 18848.139 26.931263 1.4174525 2.2017372 2.3130913 20253.748 7432.494
26.508455 20202.232 19211.133 26.545435 2616.5288 26962.016 26.357706 1845.4774
20849.703 26.339016 21305.416 10668.045 27.093311 15057.446 13898.382 28.660645
20253.424 7431.8623 27.646313 20202.041 19211.285 26.97333 2616.187 26961.664
26.348404 1848.2932 20849.293 26.348406 21305.588 10668.18 26.667536 15057.128
13899.201 27.568949 1.4234471 1.3980907 1.4032514 1.4299616 1.4122194 1.4297727
1.4311763 1.4057772 1.4154377 1.4204614 1.4062762 1.4221107 2.5721498 2.2624733
1.8451844 2.0436583 2.4150794 1.801672 2.5675318 2.3145766 1.7846317 2.0607278
2.368827 1.7669532 2.3552396 2.171483 2.016004 2.5216372 2.5205882 2.096879
2.3809156 2.2471316 1.9783827 2.5512917 2.4825206 2.064235
00000000: 2bdc 8046 4740 9346 3a73 d741 156f b53f
00000010: 43e9 0c40 b009 1440 7f3b 9e46 f443 e845
00000020: 5111 d441 77d4 9d46 4416 9646 0d5d d441
00000030: 7688 2345 08a4 d246 95dc d241 47af e644
00000040: 68e3 a246 4eb6 d241 d572 a646 2eb0 2646
00000050: 1abf d841 c945 6b46 8729 5946 0049 e541
00000060: d93a 9e46 e63e e845 a62b dd41 15d4 9d46
00000070: 9216 9646 61c9 d741 fe82 2345 54a3 d246
00000080: 88c9 d241 6209 e744 96e2 a246 89c9 d241
00000090: 2d73 a646 b8b0 2646 1d57 d541 8344 6b46
000000a0: ce2c 5946 358d dc41 8433 b63f a3f4 b23f
000000b0: be9d b33f fb08 b73f 9bc3 b43f cb02 b73f
000000c0: c930 b73f 82f0 b33f 102d b53f aed1 b53f
000000d0: dc00 b43f b907 b63f 1a9e 2440 5dcc 1040
000000e0: 012f ec3f 4ccb 0240 a990 1a40 309d e63f
000000f0: 7152 2440 0622 1440 d06e e43f f7e2 0340
00000100: dd9a 1740 862b e23f 3fbc 1640 94f9 0a40
00000110: 3606 0140 8162 2140 5151 2140 4433 0640
00000120: ec60 1840 01d1 0f40 a53b fd3f 5d48 2340
00000130: 9ee1 1e40 6d1c 0440

action_model._continuous_distribution.log_sigma f4 [1, 11]
-0.27388492 -0.19128862 -0.16627188 -0.23804635 -0.1633909 -0.26403055 -0.21154588 -0.22599985
-0.3095279 -0.25454718 -0.22367035
00000000: a53a 8cbe 2ae1 43be 2d43 2abe 6cc2 73be
00000010: f24f 27be 032f 87be 7c9f 58be 816c 67be
00000020: 717a 9ebe 0254 82be d709 65be

action_model._continuous_distribution.mu.bias f4 [11]
0.2614499 0.042131003 0.073154695 0.0050297026 0.053045 0.057049137 0.007674217 -0.029561345
0.012713092 0.002551294 0.0197862
00000000: c3dc 853e 8f91 2c3d 21d2 953d 34d0 a43b
00000010: b745 593d 5bac 693d 0078 fb3b a22a f2bc
00000020: 934a 503c 9c33 273b ab16 a23c

action_model._continuous_distribution.mu.weight f4 [11, 128]
-0.060831957 0.061260324 0.03240899 -0.15351422 -0.06680796 -0.16929206 0.040899783 0.046122603
0.16728942 0.032170378 -0.031632558 -0.032765485 -0.004983128 -0.024647063 -0.0929165 -0.0019476454
0.060044345 0.010929841 0.08931081 -0.04421366 0.053445064 -0.04437898 -0.08631452 -0.018340083
0.0750392 -0.10323238 -0.006738516 0.018925117 0.122546196 -0.14760178 -0.014836234 0.022878394
-0.020944653 0.11699312 0.06953863 0.046128668 -0.0030833539 0.1003543 0.14753656 0.0686676
0.0038704535 -0.13199674 0.10370146 -0.13164517 0.034757465 0.02772793 -0.07786413 0.005997302
0.040039938 -0.02261403 0.12638266 -0.060063496 0.07898725 0.13678305 -0.050016962 -0.09595043
-0.21116258 0.13127765 0.10915005 0.027269086 0.072879076 0.028221365 0.052836042 -0.2716
0.042584267 0.035203807 -0.09035543 0.05667074 -0.11550202 0.048382677 0.05854437 0.053807132
0.06293425 0.15850388 -0.015452125 -0.2637459 0.048144143 -0.08789894 -0.052144118 -0.26037517
-0.033468843 -0.11543158 -0.11431622 0.012618659 0.1284126 0.06459598 0.041554216 0.114531256
0.018697277 -0.023076039 -0.012727706 0.051829655 -0.123184465 0.058233786 0.021627067 -0.19745746
0.06323296 -0.19206418 0.113975234 0.07243463 -0.057748254 -0.16084763 0.030388635 -0.0099856835
-0.24393013 -0.1564972 -0.019075276 -0.1165908 0.030386787 0.092367336 0.0548502 -0.025862081
0.02713164 -0.06253221 -0.0770119 0.07323193 -0.22621484 -0.093739755 -0.2361234 -0.1285627
-0.10724469 -0.10983376 0.012270842 -0.0075904094 0.07721498 -0.03431398 -0.05980541 -0.016391331
-0.04043109 -0.028915452 -0.03166846 -0.012310155 -0.014482059 0.027110346 0.122878574 0.012831591
-0.010683693 0.012154492 -0.07438201 0.03181472 0.07197109 -0.038737766 -0.04411816 0.13495228
-0.054010965 0.086259514 -0.04480356 0.032620426 0.07387114 0.012685259 -0.05592013 -0.033411644
-0.07700685 -0.0072189886 -0.04294374 -0.13225633 -0.10360766 0.024778904 -0.039589185 -0.024178224
-0.027928606 -9.323359e-05 0.004070328 0.0030231231 0.010313012 0.111693926 -0.032634094 -0.0367631
0.00014786533 -0.016699975 0.047971144 -0.06376892 -0.068730384 0.065804265 -0.027194446 0.0042928336
-0.13762553 -0.04835137 -0.03121533 0.019677367 -0.0019749494 -0.038377106 0.013136422 -0.0075848373
0.0018468301 -0.018883735 0.023331072 -0.07329321 -0.054760966 -0.029811807 -0.061858706 0.03953088
-0.036619693 -0.06582445 -0.036962442 0.1052191 -0.034903336 -0.107001886 0.0004842385 -0.042530388
0.004980505 -0.057176594 -0.09632182 0.01901335 -0.05695347 -0.0023199527 -0.038330615 0.062458258
0.020121522 0.03878261 0.11365781 0.037525497 0.070955254 0.06075007 -0.06280997 0.046052508
0.08007712 0.042607415 -0.004970553 0.09058094 0.028509675 0.026062863 -0.031394053 0.01606083
-0.048224084 -0.0016751541 0.06205836 -0.078081734 0.0036689867 -0.0356086 -0.05220856 -0.029622806
-0.019290805 0.051268272 -0.10859817 0.04671277 -0.11889306 -0.049039654 -0.037305538 -0.022907918
-0.0599815 -0.064283185 -0.04245617 0.023220196 -0.003356197 -0.046365455 0.0020584022 0.06799868
-0.03011187 0.09403747 -0.10411235 0.037604798 -0.06920779 0.05116475 0.07157186 -0.01644482
00000000: ee2a 79bd 1bec 7a3d 4abf 043d d532 1dbe
00000010: 9dd2 88bd e65a 2dbe 8886 273d 0eeb 3c3d
00000020: eb4d 2b3e 16c5 033d 2491 01bd 1a35 06bd
00000030: 8249 a3bb a3e8 c9bc 024b bebd 2348 ffba
00000040: 0ff1 753d 1313 333c 96e8 b63d 6219 35bd
00000050: 36e9 5a3d bcc6 35bd abc5 b0bd f13d 96bc
00000060: 27ae 993d 7f6b d3bd c5ce dcbb d908 9b3c
00000070: 80f9 fa3d ec24 17be ad13 73bc 786b bb3c
00000080: 1f94 abbc 179a ef3d 456a 8e3d 6af1 3c3d
00000090: 1812 4abb 8e86 cd3d d313 173e 99a1 8c3d
000000a0: 6fa7 7d3b 272a 07be 6e61 d43d fecd 06be
000000b0: d85d 0e3d af25 e33c 3b77 9fbd 0485 c43b
000000c0: eb00 243d 0f41 b9bc 756a 013e 2405 76bd
000000d0: 11c4 a13d db10 0c3e 96de 4cbd a981 c4bd
000000e0: 013b 58be a66d 063e 108a df3d 6b63 df3c
000000f0: a041 953d 7e30 e73c 9b6a 583d 280f 8bbe
00000100: d76c 2e3d de31 103d 450c b9bd 941f 683d
00000110: 538c ecbd ea2c 463d 39cc 6f3d de64 5c3d
00000120: ace3 803d d74e 223e e92a 7dbc b409 87be
00000130: cb32 453d 5c04 b4bd 1295 55bd e54f 85be
00000140: a016 09bd 6467 ecbd 9f1e eabd 7ebe 4e3c
00000150: 987e 033e e64a 843d c134 2a3d 5d8f ea3d
00000160: 082b 993c f609 bdbc de87 50bc 554b 543d
00000170: 2348 fcbd 8d86 6e3d 3f2b b13c 4a32 4abe
00000180: 4880 813d 79ac 44be d96b e93d 9b58 943d
00000190: 6f89 6cbd 3eb5 24be 96f1 f83c fe9a 23bc
000001a0: d2c8 79be cd40 20be c143 9cbc 28c7 eebd
000001b0: b6ed f83c 162b bd3d 9aaa 603d b7dc d3bc
000001c0: 2c43 de3c e310 80bd 6ab8 9dbd 9ffa 953d
000001d0: dda4 67be a1fa bfbd 55ca 71be f1a5 03be
000001e0: 1ba3 dbbd 86f0 e0bd a40b 493c f8b8 f8bb
000001f0: e322 9e3d d18c 0cbd 85f6 74bd 1d47 86bc
00000200: 129b 25bd 19e0 ecbc cab6 01bd 88b0 49bc
00000210: 2846 6dbc 8416 de3c c3a7 fb3d 983b 523c
00000220: a80a 2fbc a223 473c 9855 98bd 2750 023d
00000230: 9465 933d 7eab 1ebd 3eb5 34bd ee30 0a3e
00000240: 9a3a 5dbd d4a8 b03d f083 37bd ff9c 053d
00000250: c149 973d d5d5 4f3c 820c 65bd a6da 08bd
00000260: c4b5 9dbd 448d ecbb c6e5 2fbd 346e 07be
00000270: 4130 d4bd 21fd ca3c 4528 22bd 6911 c6bc
00000280: 88ca e4bc 6786 c3b8 6360 853b 971f 463b
00000290: e8f7 283c c9bf e43d 54ab 05bd e894 16bd
000002a0: 4c0c 1b39 63ce 88bc 647d 443d 4899 82bd
000002b0: 84c2 8cbd 63c4 863d e3c6 debc e6aa 8c3b
000002c0: b5ed 0cbe 160c 46bd 4bb7 ffbc 6e32 a13c
000002d0: 276e 01bb 5031 1dbd 263a 573c 3a8a f8bb
000002e0: 5611 f23a 10b2 9abc ce20 bf3c c01a 96bd
000002f0: 094d 60bd e437 f4bc 8e5f 7dbd 22eb 213d
00000300: 88fe 15bd f8ce 86bd ee65 17bd 1d7d d73d
00000310: cdf6 0ebd ce23 dbbd 64e1 fd39 5834 2ebd
00000320: 8133 a33b 0132 6abd 6044 c5bd e3c1 9b3c
00000330: 0b48 69bd 590a 18bb 9000 1dbd 3bd4 7f3d
00000340: e4d5 a43c 84da 1e3d 6dc5 e83d 56b4 193d
00000350: fd50 913d 11d5 783d 83a2 80bd 8ea1 3c3d
00000360: 79ff a33d 1d85 2e3d 05e0 a2bb 8082 b93d
00000370: 1f8d e93c c981 d53c 0d97 00bd 0092 833c
00000380: 9e86 45bd d890 dbba e830 7e3d 51e9 9fbd
00000390: 6273 703b 53da 11bd a5d8 55bd 87ab f2bc
000003a0: c007 9ebc aefe 513d b868 debd e455 3f3d
000003b0: 347e f3bd cedd 48bd b1cd 18bd 63a9 bbbc
000003c0: 29af 75bd e7a6 83bd 85e6 2dbd 4838 be3c
000003d0: a4f3 5bbb b4e9 3dbd 42e6 063b e442 8b3d
000003e0: 2bad f6bc b896 c03d db38 d5bd 7d07 1a3d
000003f0: d0bc 8dbd 2192 513d 4494 923d 4ab7 86bc

network_body.linear_encoder.seq_layers.0.bias f4 [128]
-0.009957959 0.049115863 -0.0068289684 -0.000498941 0.045832034 -0.006034122 -0.03716161 0.016716925
-0.009102613 -0.012376586 -0.06960259 0.0032934002 0.04110139 -0.033410627 -0.07596113 0.037987944
0.019909045 -0.04113023 0.099360645 -0.011295457 -0.0074793734 -0.04104232 0.033032 0.014162177
-0.005458894 -0.0038517267 0.066553384 0.054795817 0.06121671 -0.027114807 -0.0744806 -0.019831583
0.004523209 0.05869011 -0.052053515 -0.01804007 0.028131766 0.049622856 0.004170451 0.00831865
-0.051580187 0.016976055 -0.07089109 0.050889455 -0.070875 -0.036326732 -0.06486369 -0.08763924
-0.00102907 -0.0020738835 0.056763403 0.02041248 -0.027654966 -0.007300036 0.010279309 -0.0005761826
-0.013920488 0.07572257 0.018731648 0.029616179 0.0036049203 0.032902848 -0.017158829 0.03074464
-0.03604796 -0.018459914 0.01758358 -0.014481863 0.016403364 0.047595512 -0.03119297 -0.0019846815
-0.02315408 -0.029033264 -0.0055086524 0.009487326 -0.0059361537 -0.11229496 -0.022768892 -0.03657658
-0.0017381829 0.08236815 0.06157747 -0.040011916 -0.016963918 0.015443751 -0.0144168055 -0.03373243
-0.010084222 -0.023044748 -0.05988401 -0.019437797 0.042390496 0.0003688251 -0.009700934 0.019071404
-0.015025496 0.0122935735 -0.016499732 0.028491993 -0.009604793 -0.004382046 -0.067906246 -0.026828602
-0.008491043 0.0075227297 0.054622933 0.007423751 0.0770999 0.025880307 -0.045585357 0.11495252
-0.01615571 0.017548196 -0.0028464326 -0.028604483 0.024505293 0.03318327 -0.006164088 -0.041788656
0.06896805 0.092907906 0.018664362 0.06912982 0.056674667 -0.043823976 -0.072228156 -0.029041292
00000000: b526 23bc b72d 493d 8ac5 dfbb 5dcb 02ba
00000010: 5fba 3b3d e2b9 c5bb c636 18bd eff1 883c
00000020: 2023 15bc 2ac7 4abc cd8b 8ebd 16d6 573b
00000030: ee59 283d 95d9 08bd 8291 9bbd 3f99 1b3d
00000040: 4b18 a33c 2c78 28bd 987d cb3d 9510 39bc
00000050: 8815 f5bb fe1b 28bd 904c 073d 7a08 683c
00000060: 86e0 b2bb 406d 7cbb 244d 883d 9471 603d
00000070: 5fbe 7a3d df1f debc 4989 98bd d875 a2bc
00000080: 6d37 943b 0a65 703d 1136 55bd c5c8 93bc
00000090: 9774 e63c 5641 4b3d 47a8 883b f24a 083c
000000a0: bf45 53bd 5e11 8b3c 592f 91bd 7671 503d
000000b0: e926 91bd 57cb 14bd 41d7 84bd 347c b3bd
000000c0: dce1 86ba fee9 07bb be80 683d 1338 a73c
000000d0: ab8c e2bc 2435 efbb 8c6a 283c f60a 17ba
000000e0: c212 64bc 6f14 9b3d 1d73 993c a19d f23c
000000f0: 8740 6c3b 23c5 063d ac90 8cbc 2fdc fb3c
00000100: 07a7 13bd 3f39 97bc 710b 903c 5645 6dbc
00000110: 5960 863c 83f3 423d 6688 ffbc 6e11 02bb
00000120: a0ad bdbc 2bd7 edbc ed81 b4bb bb70 1b3c
00000130: 1184 c2bb e6fa e5bd d485 babc 53d1 15bd
00000140: bdd3 e3ba a2b0 a83d a838 7c3d 89e3 23bd
00000150: eaf7 8abc c907 7d3c 7734 6cbc 042b 0abd
00000160: 4b38 25bc 57c8 bcbc f048 75bd 043c 9fbc
00000170: a8a1 2d3d de5e c139 abf0 1ebc a23b 9c3c
00000180: 7f2d 76bc fc6a 493c 722a 87bc 0a68 e93c
00000190: 6c5d 1dbc 4497 8fbb 6e12 8bbd a8c7 dbbc
000001a0: 041e 0bbc 3b81 f63b 4cbc 5f3d f042 f33b
000001b0: 8de6 9d3d f002 d43c b6b7 3abd 3a6c eb3d
000001c0: fb58 84bc 3cc1 8f3c 378b 3abb f353 eabc
000001d0: 53bf c83c 2eeb 073d 1efc c9bb 952a 2bbd
000001e0: 1f3f 8d3d 8046 be3d 01e6 983c ef93 8d3d
000001f0: b223 683d c580 33bd 5bec 93bd 01e8 edbc

network_body.linear_encoder.seq_layers.0.weight f4 [128, 78]
0.14327344 0.02600766 -0.014942595 -0.16382398 0.05229547 -0.05890447 0.037557196 0.07697309
-0.120287985 0.012331506 0.019413143 -0.025260977 0.07745172 -0.09687261 -0.1331207 -0.02491564
-0.0052609267 -0.061482076 -0.18240443 0.14105508 -0.14214872 -0.083424285 -0.12930799 0.04579982
0.122948095 -0.0695397 0.036511842 -0.076000586 -0.20941071 -0.051545046 -0.14250654 -0.11436727
-0.06740626 0.04580206 0.06196515 0.013666086 0.206615 -0.033094604 -0.22524247 0.040898047
-0.09039698 -0.028121494 0.17486231 -0.16776194 0.26134756 0.13888612 0.04307436 -0.100135356
0.13782343 0.28226528 0.20492543 0.22278486 0.037043218 0.13229984 0.16150801 0.10295091
0.19222443 0.0149055505 -0.2934501 -0.14370582 -0.036809247 0.0068842913 0.089915685 -0.28309482
0.0369514 0.038328424 0.278401 0.004013162 0.029454831 0.21324383 -0.14955013 -0.04611204
0.21318886 0.03679102 0.19859561 0.005159193 0.10901237 0.07366343 0.1628279 0.27211714
0.021698922 0.3272709 0.04031928 0.13807021 -0.023802565 -0.06293049 0.15010084 0.12881193
-0.078291096 0.06628433 0.29721707 -0.070651226 -0.2487314 0.003477974 0.21422216 0.09583562
0.08327055 0.020971019 0.066060424 0.11782252 -0.1984704 0.03229589 0.24999076 -0.048427366
-0.10442979 -0.03505708 0.11456022 0.06957156 0.23427626 -0.13917826 -0.0066675683 -0.060412847
0.22937857 0.06898756 0.13630062 0.13583161 -0.034228764 0.015364215 -0.13301183 0.15313917
-0.1369638 -0.060343012 0.22384463 -0.17124829 -0.117887326 -0.021409394 -0.1335244 0.16696903
-0.11712304 0.063302934 -0.12990206 -0.20419443 -0.07958361 0.020000832 -0.059346337 0.1056094
0.21762325 0.07449569 0.02786782 0.10569741 0.056849286 -0.17993969 -0.23814856 -0.08431479
-0.13224944 0.13650386 0.0004409967 0.025122816 -0.036620703 -0.24611314 -0.11153207 0.0037041677
-0.100358464 -0.08323127 -0.22217217 -0.033313364 -0.21254908 0.029848082 -0.13850126 -0.08985352
0.13930249 0.18264857 -0.13142008 0.14935473 0.0080359895 0.2949787 -0.044552643 -0.09782692
0.055603947 -0.1849006 -0.13822874 -0.27299505 0.06849625 0.016585574 0.039029464 -0.078191996
-0.06221888 0.012597722 -0.041025374 -0.06814326 -0.006311159 -0.083067775 -0.12083959 0.03622307
-0.16588204 0.12729824 -0.007893783 -0.0057245446 -0.067603976 -0.02246957 -0.19226491 0.15357335
-0.12980205 -0.06570399 -0.03537049 0.25587326 0.18008792 0.11685563 -0.0794926 -0.0768549
0.3034376 0.05363381 -0.22127381 -0.064252436 -0.16371767 -0.06806661 0.01691202 -0.041856736
0.1697429 0.21118245 0.036476668 -0.18404523 0.20537268 0.015229596 0.1807409 -0.1552813
0.07569299 0.21841773 0.09290423 -0.08277933 -0.14485675 -0.08551875 0.034305245 -0.025279585
0.12789324 0.037677966 0.032800388 -0.08311265 -0.011800813 -0.3090226 0.083222166 -0.15756321
0.06574054 -0.0467315 -0.08375887 -0.01659938 0.079985745 -0.11091287 0.28833798 -0.047500473
-0.0009780937 0.07014122 -0.035637908 -0.0639019 -0.009747662 -0.12677696 0.008307225 0.045577023
-0.068471685 -0.17365728 0.025363436 -0.06738344 -0.022491407 0.23310558 0.19611348 0.09320846
00000000: 46b6 123e 040e d53c c9d1 74bc 79c1 27be
00000010: c633 563d d045 71bd 93d5 193d 11a4 9d3d
00000020: 8c59 f6bd 160a 4a3c 5008 9f3c 1cf0 cebc
00000030: 029f 9e3d 2665 c6bd cb50 08be e21b ccbc
00000040: da63 acbb a1d4 7bbd 3ac8 3abe be70 103e
00000050: 6f8f 11be 5ada aabd 5069 04be 9898 3b3d
00000060: 36cc fb3d d56a 8ebd 718d 153d 32a6 9bbd
00000070: c36f 56be e620 53bd 3ced 11be 6339 eabd
00000080: 4b0c 8abd f19a 3b3d 2bcf 7d3d b8e7 5f3c
00000090: e292 533e 358e 07bd f6a5 66be b684 273d
000000a0: 0d22 b9bd 0c5f e6bc 1b0f 333e c9c9 2bbe
000000b0: 59cf 853e 2a38 0e3e bd6e 303d c413 cdbd
000000c0: 9621 0d3e 1385 903e f9d7 513e b721 643e
000000d0: a1ba 173d 9c79 073e 5b62 253e edd7 d23d
000000e0: 7bd6 443e 6936 743c 173f 96be 9e27 13be
000000f0: 4bc5 16bd 9f95 e13b b725 b83d cef1 90be
00000100: 5a5a 173d 44fe 1c3d 938a 8e3e d880 833b
00000110: 424b f13c 975c 5a3e ab23 19be fadf 3cbd
00000120: 2e4e 5a3e 2eb2 163d a65c 4b3e 730e a93b
00000130: e141 df3d dadc 963d 5bbc 263e f052 8b3e
00000140: f0c1 b13c 0d90 a73e d425 253d 4762 0d3e
00000150: 99fd c2bc b3e1 80bd 09b4 193e 46e7 033e
00000160: 1557 a0bd 14c0 873d d62c 983e 97b1 90bd
00000170: 72b3 7ebe b9ee 633b 0e5d 5b3e 7745 c43d
00000180: c089 aa3d 6acb ab3c b04a 873d ef4c f13d
00000190: d33b 4bbe b248 043d 94fd 7f3e c65b 46bd
000001a0: 49df d5bd 0398 0fbd 8c9e ea3d 897b 8e3d
000001b0: 1ee6 6f3e bf84 0ebe 9e7b dabb 7673 77bd
000001c0: 37e2 6a3e 5a49 8d3d 6492 0b3e 7117 0b3e
000001d0: 7633 0cbd 30ba 7b3c 4134 08be 84d0 1c3e
000001e0: 3d40 0cbe 3c2a 77bd 8737 653e b65b 2fbe
000001f0: e96e f1bd c162 afbc 9fba 08be eef9 2a3e
00000200: 34de efbd f8a4 813d 0c05 05be 5818 51be
00000210: bbfc a2bd c9d8 a33c 2515 73bd be49 d83d
00000220: a1d8 5e3e 3291 983d 0e4b e43c e277 d83d
00000230: ccda 683d 1c42 38be 37dd 73be 3cad acbd
00000240: 666c 07be abc7 0b3e 9335 e739 5dce cd3c
00000250: 97ff 15bd 1505 7cbe ed6a e4bd 9fc1 723b
00000260: bd88 cdbd 2875 aabd 1a81 63be 9873 08bd
00000270: 77a6 59be f783 f43c 46d3 0dbe 1f05 b8bd
00000280: 50a5 0e3e 3a08 3b3e fc92 06be 72f0 183e
00000290: 62a9 033c 7307 973e d57c 36bd 7b59 c8bd
000002a0: f7c0 633d 9556 3dbe d68b 0dbe 02c6 8bbe
000002b0: c347 8c3d 78de 873c 5cdd 1f3d 2023 a0bd
000002c0: 39d9 7ebd ad66 4e3c 390a 28bd b28e 8bbd
000002d0: d7cd cebb 701f aabd bf7a f7bd a45e 143d
000002e0: fbdc 29be 785a 023e ed54 01bc f694 bbbb
000002f0: f473 8abd 1b12 b8bc 18e1 44be 5542 1d3e
00000300: d4ea 04be d08f 86bd a6e0 10bd d201 833e
00000310: f868 383e 0152 ef3d 04cd a2bd 1a66 9dbd
00000320: 2c5c 9b3e 20af 5b3d 9a95 62be c896 83bd
00000330: 9ba5 27be 8266 8bbd 148b 8a3c f871 2bbd
00000340: 15d1 2d3e 3640 583e 8f68 153d 5a76 3cbe
00000350: 374d 523e 8e85 793c 2414 393e 1002 1fbe
00000360: ed04 9b3d e6a8 5f3e 9344 be3d 3688 a9bd
00000370: 5455 14be 7424 afbd a883 0c3d 2217 cfbc
00000380: 72f6 023e 3654 1a3d b359 063d f736 aabd
00000390: 3258 41bc 3638 9ebe 6270 aa3d 4058 21be
000003a0: faa2 863d 8869 3fbd c589 abbd 6cfb 87bc
000003b0: 91cf a33d 4926 e3bd 09a1 933e db8f 42bd
000003c0: 6133 80ba 33a6 8f3d 0ef9 11bd 00df 82bd
000003d0: a8b4 1fbc d2d1 01be 071b 083c f9ae 3a3d
000003e0: e23a 8cbd 37d3 31be fbc6 cf3c 5400 8abd
000003f0: e63f b8bc 3bb3 6e3e f9d1 483e 14e4 be3d

network_body.linear_encoder.seq_layers.2.bias f4 [128]
0.04421095 0.04589868 0.014232234 0.0065085697 -0.08740381 -0.024707746 -0.0001621374 0.0054019843
0.014540085 0.016428292 0.051883813 -0.056415863 0.023735745 -0.03723899 0.090773724 0.032660678
-0.10015505 0.044974342 0.05187156 0.0076860115 -0.038133442 0.04629206 -0.0872417 0.017556103
-0.126904 -0.14736259 -0.058173195 -0.062479183 -0.0063389153 -0.05556776 -0.063635774 0.04342201
-0.029557085 0.008387513 0.06068853 0.0109902695 0.062287696 -0.0031349417 0.001122793 -0.005806883
-0.021117374 0.011791201 -0.09435245 -0.055604592 0.07342155 0.09903621 0.049266085 0.071086265
-0.06197562 -0.019818407 0.024176668 -0.035953358 0.012759028 -0.009856243 -0.030900797 -0.10085227
0.0304049 0.010899148 0.028106472 -0.009896293 0.060116798 -0.018640425 -0.039513547 0.051568348
0.030956931 -0.012984075 -0.01724596 -0.0177149 -0.051960696 -0.00057452935 0.04481586 0.03110692
-0.0014779794 0.03345421 -0.021881556 -0.042419635 -0.008543326 0.08876335 -0.08115212 0.06198006
0.005101372 -0.04117123 -0.02305941 0.06194848 -0.0055262586 -0.008707035 0.050116133 -0.009396541
-0.0431429 -0.06485738 0.0043875924 0.04091824 -0.08727474 -0.060825456 -0.05995076 -0.03956345
-0.030408908 -0.035720967 -0.042236384 0.059426103 -0.055841997 0.072275884 -0.022426365 -0.045654472
0.031617228 -0.0778545 -0.0130006 -0.025490474 0.019194974 -0.12203622 0.0062444713 -0.020626577
0.056498315 -0.029204715 0.06580547 -0.03687422 0.06029366 -0.06472952 0.031271398 0.031029223
-0.08606121 0.11694415 0.12755749 0.06769785 -0.029170632 -0.0892682 -0.05464882 -0.018697338
00000000: 8b16 353d 4100 3c3d 512e 693c d745 d53b
00000010: c500 b3bd e667 cabc 6d03 2ab9 2103 b13b
00000020: 8939 6e3c a094 863c 1f84 543d 5214 67bd
00000030: 7771 c23c e987 18bd 93e7 b93d 34c7 053d
00000040: 171e cdbd 0437 383d 4677 543d f0da fb3b
00000050: d031 1cbd be9c 3d3d c7ab b2bd d1d1 8f3c
00000060: 1ff3 01be 38e6 16be 0447 6ebd 2cea 7fbd
00000070: adb6 cfbb 059b 63bd 7953 82bd 47db 313d
00000080: b321 f2bc c86b 093c 8994 783d 8810 343c
00000090: 6221 7f3d 9873 4dbb ae2a 933a aa47 bebb
000000a0: 58fe acbc e22f 413c db3b c1bd a4c1 63bd
000000b0: 0a5e 963d 7fd3 ca3d 3ccb 493d ad95 913d
000000c0: 26da 7dbd 365a a2bc 260e c63c d443 13bd
000000d0: 3e0b 513c 147c 21bc ab23 fdbc a38b cebd
000000e0: b213 f93c 5792 323c 8b3f e63c 1024 22bc
000000f0: 083d 763d ceb3 98bc f5d8 21bd 5539 533d
00000100: 6499 fd3c 28bb 54bc 6647 8dbc d71e 91bc
00000110: bdd4 54bd 039c 16ba d690 373d f1d3 fe3c
00000120: c2b8 c1ba 4807 093d f340 b3bc 36c0 2dbd
00000130: 4ef9 0bbc 8fc9 b53d 1533 a6bd cede 7d3d
00000140: 6929 a73b 2aa3 28bd 16e7 bcbc b0bd 7d3d
00000150: 9e15 b5bb f4a7 0ebc 9346 4d3d f3f3 19bc
00000160: 9cb6 30bd f2d3 84bd cbc5 8f3b e299 273d
00000170: 19bd b2bd 1d24 79bd ee8e 75bd 490d 22bd
00000180: 1a1c f9bc 2650 12bd 0f00 2dbd c968 733d
00000190: 94ba 64bd 6105 943d 7fb7 b7bc 2f00 3bbd
000001a0: 1181 013d 2e72 9fbd 7800 55bc 66d1 d0bc
000001b0: c73e 9d3c 20ee f9bd 6c9e cc3b 11f9 a8bc
000001c0: c76a 673d ba3e efbc 05c5 863d 6c09 17bd
000001d0: 7cf6 763d e990 84bd 7016 003d ff30 fe3c
000001e0: dc40 b0bd 6a80 ef3d 6e9e 023e 2ca5 8a3d
000001f0: 40f7 eebc 3fd2 b6bd 71d7 5fbd 292b 99bc

network_body.linear_encoder.seq_layers.2.weight f4 [128, 128]
-0.008285981 -0.14766233 -0.059139747 0.16399965 -0.058024682 -0.05772086 -0.020259602 0.0020154973
-0.24347124 0.08980126 -0.08145415 0.06327614 0.10675488 0.097510554 -0.23136805 -0.08117453
0.14722699 -0.014685987 0.018232947 -0.08311329 0.11100382 -0.13856286 0.07884485 0.0710202
0.25108752 0.1204566 -0.25034836 -0.3004193 -0.012702115 0.17546158 -0.07882941 0.17959829
0.04662459 -0.056081142 0.28941855 0.043856893 0.032217905 -0.021188011 0.08397103 -0.026611779
-0.103537716 -0.0039267913 -0.051422115 0.0010575292 -0.05592651 0.1263605 -0.040676072 -0.06261734
-0.02522873 -0.0009517094 -0.0049068863 0.06927124 -0.051312566 -0.16180198 -0.17256276 -0.011847919
0.18299477 0.16754916 -0.055969432 -0.033453055 -0.023355914 -0.02910092 0.16266295 -0.0777791
-0.01567856 0.028733024 -0.07565616 -0.0098311715 -0.03472798 -0.19155307 -0.029735979 -0.035705037
-0.06512038 -0.1452062 -0.035841443 -0.10703544 0.046465576 -0.011744343 -0.015321571 -0.056074828
0.09436736 0.009505478 0.051501837 -0.22299707 0.049418822 -0.056731354 -0.12806304 0.012550971
0.14495039 -0.0690535 -0.111429326 -0.11211981 -0.043356553 -0.06910723 0.1201529 -0.19940642
0.013749904 -0.088109314 0.12567188 -0.09355112 -0.020751169 0.0070191203 -0.068796955 0.0655268
-0.009028204 -0.08722309 0.056053072 0.0031355028 0.036807626 -0.0708056 0.100245245 -0.086212546
0.036807295 -0.030060021 0.069462225 -0.039889615 0.22822243 0.026611065 0.08489568 -0.13320994
0.2027335 0.04018952 0.089546524 -0.110737234 -0.025562847 -0.08995401 -0.04656306 0.06014933
-0.060011856 -0.025231065 0.026206123 0.18951108 -0.18326963 -0.022484114 -0.16798843 0.15241145
0.084026836 -0.112318166 -0.044016838 -0.17663065 -0.23017377 0.02021311 -0.027371606 0.014034347
0.0015816437 -0.075791664 0.04400332 -0.009916661 -0.1791645 0.100609735 0.12023314 0.157437
-0.13049068 0.11724396 0.117027685 0.2799187 -0.060282767 0.025713073 -0.06841165 -0.049456242
0.0041516344 0.18266107 -0.061230455 -0.011760775 -0.017108377 -0.082734495 0.09671423 0.13560867
-0.18315981 0.09758949 -0.17802033 -0.096631 0.06803763 0.10061473 0.017262226 -0.13288993
-0.099301234 -0.07658574 -0.04051258 0.05330358 0.0897398 0.040894955 0.04803838 0.046522748
-0.08204468 -0.0024361587 -0.06979481 -0.051736366 -0.19108362 0.05925207 -0.06579841 -0.05777736
0.13083214 0.075455144 0.107916236 0.11538619 -0.22027948 0.20261152 -0.21463378 0.059915647
-0.008294267 0.1336642 0.043286975 0.2568967 0.06772158 -0.003513739 -0.05422563 0.0907325
0.14184442 0.05661456 0.051779334 -0.17717879 -0.09674969 0.13089578 -0.011990474 0.04440582
0.09551248 0.19261374 0.17668411 0.055797074 0.051959 0.08746507 -0.13590993 0.02269943
-0.00038056707 0.058908474 0.034150492 -0.031194668 0.06100386 -0.19657724 -0.17711683 -0.041205037
0.12416054 0.12918212 0.08371732 -0.14144392 0.12068837 -0.044460334 -0.005441476 0.19420981
0.2432617 -0.08162727 -0.06551508 0.14121844 0.16044879 -0.055634376 -0.19540887 -0.059908167
-0.07063924 -0.12575698 -0.07672591 0.0813827 0.030377232 0.06921403 0.062225375 -0.15791173
00000000: ecc1 07bc cb34 17be 853c 72bd 86ef 273e
00000010: 4aab 6dbd b56c 6cbd 77f7 a5bc 6f16 043b
00000020: 8650 79be b9e9 b73d 6fd1 a6bd ec96 813d
00000030: 4da2 da3d 9db3 c73d bfeb 6cbe d53e a6bd
00000040: acc2 163e 7e9d 70bc 435d 953c 4d37 aabd
00000050: f955 e33d 6ce3 0dbe 6979 a13d 0a73 913d
00000060: 8b8e 803e f3b1 f63d a92d 80be 8fd0 99be
00000070: 881c 50bc 33ac 333e 5071 a1bd 9de8 373e
00000080: 6df9 3e3d 57b5 65bd ab2e 943e 49a3 333d
00000090: ecf6 033d 7b92 adbc 01f9 ab3d f200 dabc
000000a0: 950b d4bd 50ac 80bb ff9f 52bd cb9c 8a3a
000000b0: 3213 65bd a664 013e f49b 26bd 853d 80bd
000000c0: 7bac cebc 237c 79ba f2c9 a0bb 14de 8d3d
000000d0: 202d 52bd 6baf 25be 4bb4 30be c61d 42bc
000000e0: fb62 3b3e 0292 2b3e 3440 65bd 1206 09bd
000000f0: e754 bfbc 0d65 eebc 1e91 263e a64a 9fbd
00000100: 5370 80bc 8561 eb3c 9ef1 9abd ec12 21bc
00000110: ed3e 0ebd 7d26 44be de98 f3bc 723f 12bd
00000120: d55d 85bd efb0 14be 7ace 12bd 6635 dbbd
00000130: b052 3e3d 586b 40bc 5407 7bbc b8ae 65bd
00000140: ad43 c13d ddbc 1b3c 97f3 523d 5859 64be
00000150: 646b 4a3d 235f 68bd f522 03be 96a2 4d3c
00000160: e06d 143e ec6b 8dbd 0f35 e4bd 129f e5bd
00000170: a496 31bd 1788 8dbd b912 f63d 3231 4cbe
00000180: 4747 613c a872 b4bd 21b0 003e bb97 bfbd
00000190: 5bfe a9bc a600 e63b 6be5 8cbd ea32 863d
000001a0: 08eb 13bc 05a2 b2bd e897 653d 027d 4d3b
000001b0: 98c3 163d 8702 91bd 614d cd3d 3490 b0bd
000001c0: 3fc3 163d 6f40 f6bc 3642 8e3d 4b63 23bd
000001d0: 24b3 693e 73ff d93c c9dd ad3d 3068 08be
000001e0: 5f99 4f3e c49d 243d 2b64 b73d 34ca e2bd
000001f0: 2d69 d1bc cf39 b8bd e8b8 3ebd 255f 763d
00000200: fece 75bd 61b1 cebc 39ae d63c 310f 423e
00000210: 09ab 3bbe 9b30 b8bc 2905 2cbe bf11 1c3e
00000220: 4316 ac3d 1107 e6bd 004b 34bd aade 34be
00000230: acb2 6bbe f795 a53c 6b3a e0bc 51f0 653c
00000240: 284f cf3a a938 9bbd d33c 343d 7e79 22bc
00000250: e676 37be 7a0c ce3d cb3c f63d 2a37 213e
00000260: 599f 05be 9a1d f03d 36ac ef3d 8151 8f3e
00000270: 10eb 76bd 39a4 d23c 681b 8cbd a192 4abd
00000280: 6f0a 883b 810b 3b3e c9cc 7abd 44b0 40bc
00000290: de26 8cbc b470 a9bd 1c12 c63d 00dd 0a3e
000002a0: 3f8e 3bbe 00dd c73d f64a 36be 79e6 c5bd
000002b0: 5057 8b3d 180f ce3d 8369 8d3c 4c14 08be
000002c0: 725e cbbd fcd8 9cbd 85f0 25bd db54 5a3d
000002d0: 80c9 b73d 7881 273d e4c3 443d a38e 3e3d
000002e0: 0b07 a8bd f6a7 1fbb 95f0 8ebd 83e9 53bd
000002f0: 6dab 43be 4cb2 723d 51c1 86bd f4a7 6cbd
00000300: dcf8 053e 3a88 9a3d 3003 dd3d 984f ec3d
00000310: f290 61be 6579 4f3e f5c8 5bbe 1c6a 753d
00000320: ade4 07bc 45df 083e af4d 313d f787 833e
00000330: 9db1 8a3d c246 66bb b21b 5ebd f6d1 b93d
00000340: aa3f 113e abe4 673d 9116 543d 5b6e 35be
00000350: b424 c6bd 8b09 063e b173 44bc e1e2 353d
00000360: 0c9c c33d 893c 453e aeec 343e 798b 643d
00000370: f6d2 543d e320 b33d f92b 0bbe 28f4 b93c
00000380: d986 c7b9 034a 713d 63e1 0b3d f68b ffbc
00000390: 2fdf 793d 8b4b 49be 1d5e 35be 9dc6 28bd
000003a0: e247 fe3d 5148 043e fc73 ab3d add6 10be
000003b0: 772b f73d 0a1c 36bd 694e b2bb f0de 463e
000003c0: 9819 793e 332c a7bd c52c 86bd 919b 103e
000003d0: b04c 243e dfe0 63bd 4319 48be 4462 75bd
000003e0: 4eab 90bd 70c6 00be 7922 9dbd f9ab a63d
000003f0: acd9 f83c 16c0 8d3d 09e0 7e3d 9db3 21be

network_body.linear_encoder.seq_layers.4.bias f4 [128]
-0.08306003 0.049132 0.029852044 -0.13039453 -0.10087301 -0.122916 0.0009273119 0.008111803
0.110656865 0.040392183 -0.021106033 -0.04874614 0.042875666 -0.06467502 -0.040092975 0.019356545
0.06894713 0.04765378 0.023499578 -0.043873988 0.0025289978 -0.0045264205 -0.057631373 -0.057809614
0.09666833 -0.11844657 -0.060419615 -0.0045323116 0.07638596 -0.09352113 -0.047017474 0.05397538
-0.034694977 0.06031595 0.090557836 0.037110176 -0.07345165 0.060206726 0.10345356 0.05193495
0.00085853593 -0.13851841 0.054515902 -0.06726904 0.044083193 -0.029059334 -0.057330053 0.00014165076
0.004862652 -0.0045298487 0.13361283 -0.03936973 0.023338629 0.07209679 0.032839738 -0.09205511
-0.08873518 0.082093574 0.106319845 -0.009019801 0.007722943 0.01854646 0.06807737 -0.14545387
0.042653315 0.029337898 -0.06739511 0.05425623 -0.17104174 0.08699934 0.003947886 0.024701962
0.07277852 0.13232356 -0.0043281578 -0.117975935 -0.020970441 -0.10488435 -0.07563928 -0.18532152
-0.026547667 -0.10596908 -0.065302506 0.0710056 0.074935585 0.08119972 0.027677223 0.11355411
-0.021195382 0.024322541 -0.0072392286 -0.0007023103 -0.13578214 0.04896212 -0.030244231 -0.19380221
0.02827118 -0.13195717 0.11023374 0.04853536 -0.11585849 -0.14296776 0.02434635 -0.013319208
-0.14700837 -0.1364563 -0.005732106 -0.070699625 0.018073006 0.05457611 0.052382052 -0.008269368
0.015285615 -0.101931535 -0.1089757 0.06194127 -0.15533248 -0.11448041 -0.13780038 -0.096226186
-0.14101377 -0.084655136 -0.013761186 0.014283204 0.054771982 -0.004724758 -0.0192064 -0.026634378
00000000: 611b aabd a33e 493d 468c f43c 2586 05be
00000010: 8296 cebd 62bb fbbd d916 733a 5ee7 043c
00000020: 11a0 e23d 4672 253d 8fe6 acbc 08aa 47bd
00000030: 659e 2f3d 5674 84bd 8838 24bd 9e91 9e3c
00000040: 2734 8d3d 9c30 433d 3082 c03c 36b5 33bd
00000050: 8bbd 253b 5e52 94bb e00e 6cbd c6c9 6cbd
00000060: 0cfa c53d 1e94 f2bd 8f7a 77bd c983 94bb
00000070: 3e70 9c3d 0288 bfbd 6595 40bd 4a15 5d3d
00000080: 521c 0ebd dc0d 773d 6376 b93d d700 183d
00000090: d26d 96bd 549b 763d 76df d33d beb9 543d
000000a0: 5f0f 613a c5d7 0dbe 114c 5f3d 5ac4 89bd
000000b0: 9490 343d d70d eebc ebd2 6abd 1688 1439
000000c0: e256 9f3b 206f 94bb cdd1 083e 2742 21bd
000000d0: a730 bf3c 7ba7 933d f682 063d 6487 bcbd
000000e0: caba b5bd ad20 a83d 38be d93d cac7 13bc
000000f0: be10 fd3b bfee 973c 266c 8b3d dcf1 14be
00000100: 3eb5 2e3d 0856 f03c 7306 8abd c83b 5e3d
00000110: 9125 2fbe b62c b23d 455d 813b c55b ca3c
00000120: e80c 953d d47f 073e 38d3 8dbb 5e9d f1bd
00000130: 34ca abbc 9bcd d6bd c4e8 9abd edc4 3dbe
00000140: 7e7a d9bc 5106 d9bd 52bd 85bd 626b 913d
00000150: d477 993d 0a4c a63d 58bb e23c 0f8f e83d
00000160: f0a1 adbc 1140 c73c 0d37 edbb 3f1b 38ba
00000170: 790a 0bbe 818c 483d c0c2 f7bc 1674 46be
00000180: f698 e73c c81f 07be 3ac2 e13d 03cd 463d
00000190: 3747 edbd 2466 12be ff71 c73c cf38 5abc
000001a0: 5d89 16be 33bb 0bbe 64d4 bbbb f7ca 90bd
000001b0: d70d 943c 338b 5f3d 908e 563d 3e7c 07bc
000001c0: 8470 7a3c 7bc1 d0bd a72e dfbd 21b6 7d3d
000001d0: 7a0f 1fbe b574 eabd 8b1b 0dbe 3c12 c5bd
000001e0: ea65 10be ac5f adbd 9976 61bc 1a04 6a3c
000001f0: 9658 603d 25d2 9abb bd56 9dbc 5730 dabc

network_body.linear_encoder.seq_layers.4.weight f4 [128, 128]
0.01159539 -0.15676448 -0.024477854 -0.08191867 0.003394129 -0.09358778 0.035885226 0.21327463
-0.086704105 -0.09046217 -0.028629582 0.04063813 -0.07838277 -0.10627426 -0.030599808 -0.26450586
0.26667273 0.036266115 -0.0014005431 -0.08214441 0.07833149 -0.06763955 -0.19812982 0.07637552
-0.049680993 -0.0023289886 -0.110716864 0.012660491 0.12311872 0.078054294 0.023014413 -0.112167224
0.017592473 -0.009134778 -0.032466035 -0.0803005 -0.102699205 0.05095023 0.018941056 0.064032376
0.04076672 -0.120736234 0.11835438 0.14551345 0.052615844 -0.15652257 0.11902861 -0.057909142
0.06993391 0.028470343 -0.13744727 0.020937782 0.22494838 -0.10773612 0.19086263 0.13631032
0.037427213 -0.009587495 -0.08463693 -0.00205368 -0.00077575626 0.1489761 -0.017181072 -0.11393149
-0.024336802 -0.0106852725 0.021967689 0.0028625494 -0.098447375 0.138811 0.15122657 0.020040756
-0.20387098 -0.19901048 0.121385284 0.14128348 -0.05016281 -0.036487147 -0.068705015 -0.1611987
-0.046310123 0.13658544 -0.17297482 0.18816693 0.14266333 0.007942916 0.039504085 -0.10358117
-0.0044573536 -0.09752222 -0.03376895 -0.30018732 0.03679908 0.09605353 -0.047867514 0.12552609
0.116624616 0.069290645 -0.091742426 0.06929638 -0.3403604 0.0981628 -0.018746128 0.001457154
-0.11940402 -0.039520565 0.17621465 0.01686833 -0.084881835 0.040858716 0.0069056815 0.14100976
0.06419554 0.14871188 -0.012390209 -0.054885563 0.18195942 0.021465307 0.25109068 -0.03722342
0.09573782 0.03367311 -0.021988032 0.02369193 0.09425771 0.085798904 -0.12649465 0.23519535
0.064334184 0.07265859 0.025431754 -0.084967926 -0.14082688 -0.1379275 0.01275851 -0.22698353
0.054920226 -0.030419767 0.06492218 -0.15526754 -0.08137578 -0.038012967 0.088705555 0.07066348
-0.11372432 0.21362779 0.16089831 0.014239778 -0.0052530905 0.11768922 -0.12201236 -0.036695078
0.028909577 -0.077272385 0.042803947 0.005865276 4.0586456e-05 -0.034419402 -0.1158662 0.0815336
0.097648196 0.11367363 0.11325607 -0.07237288 -0.08399625 -0.07823551 0.00971297 -0.106424265
-0.057888247 -0.032703772 -0.20536008 0.023526238 0.04149403 -0.05394664 -0.14829178 -0.033011332
-0.05378527 0.16787837 0.12107218 -0.06724438 0.20189382 0.078472495 -0.1280202 0.061095808
0.0003832131 -0.19647521 -0.06087655 0.08412512 0.026607485 -0.033141624 6.94752e-05 0.018327583
0.12735195 -0.093965925 -0.05286533 -0.05233709 -0.032129064 -0.15622026 -0.121176906 0.044747356
0.13245578 0.016165912 0.16583852 -0.14409876 0.002257654 0.011582206 0.10824381 -0.15418234
0.06798327 -0.10201544 -0.08990986 -0.07401293 0.08654889 -0.0776812 -0.006469779 0.060299892
0.04093952 -0.022559013 -0.022981083 0.010174103 -0.12390911 0.100854956 -0.20721471 0.09363422
-0.11643642 -0.028176498 -0.13605033 -0.0151303345 -0.18318063 -0.032148235 0.06452027 -0.03165923
0.08865489 -0.012623634 -0.0066176318 -0.04530006 -0.047647867 -0.12248472 -0.08493464 0.069818966
-0.10619591 -0.09560022 -0.14054441 -0.21009497 -0.151751 0.078731894 -0.020474857 -0.044809163
-0.13206445 -0.016787514 0.06170927 -0.071970895 -0.07971224 -0.054792304 -0.06833131 -0.006394278
00000000: 97fa 3d3c de86 20be c885 c8bc fac4 a7bd
00000010: 0970 5e3b f3aa bfbd 63fc 123d aa64 5a3e
00000020: ec91 b1bd 3b44 b9bd 9688 eabc 2b74 263d
00000030: 2587 a0bd 52a6 d9bd 73ac fabc 506d 87be
00000040: 5489 883e c78b 143d 6e92 b7ba 543b a8bd
00000050: 436c a03d 9b86 8abd 8be2 4abe c56a 9c3d
00000060: 4c7e 4bbd f2a1 18bb 86bf e2bd f36d 4f3c
00000070: ab25 fc3d eeda 9f3d b988 bc3c eeb7 e5bd
00000080: 171e 903c 09aa 15bc 1bfb 04bd 9774 a4bd
00000090: f653 d2bd 30b1 503d 462a 9b3c 6823 833d
000000a0: 01fb 263d 8f44 f7bd c863 f23d 7a01 153e
000000b0: b683 573d 7447 20be 46c5 f33d 2332 6dbd
000000c0: 8339 8f3d a33a e93c fabe 0cbe b685 ab3c
000000d0: de58 663e c1a4 dcbd 7e71 433e ef94 0b3e
000000e0: 474d 193d de14 1dbc 2056 adbd 0897 06bb
000000f0: 1f5c 4bba 318d 183e 52bf 8cbc ea54 e9bd
00000100: f95d c7bc 4811 2fbc 95f5 b33c 9c99 3b3b
00000110: c79e c9bd 7924 0e3e 23db 1a3e 832c a43c
00000120: 8ec3 50be 67c9 4bbe d998 f83d 9eac 103e
00000130: 8577 4dbd 8c73 15bd 37b5 8cbd 4611 25be
00000140: afaf 3dbd 0edd 0b3e 5020 31be d5ae 403e
00000150: 5616 123e 0123 023c 09cf 213d 5d22 d4bd
00000160: fe0e 92bb bbb9 c7bd 4f51 0abd 27b2 99be
00000170: a2ba 163d b7b7 c43d ba10 44bd e989 003e
00000180: e3d8 ee3d 41e8 8d3d 74e3 bbbd 43eb 8d3d
00000190: b843 aebe 9409 c93d 7b91 99bc fafd be3a
000001a0: 188a f4bd 51e0 21bd 9d71 343e 742f 8a3c
000001b0: 87d6 adbd 785b 273d 0e49 e23b dd64 103e
000001c0: f478 833d ed47 183e 4e00 4bbc afcf 60bd
000001d0: 9253 3a3e 03d8 af3c f58e 803e 9677 18bd
000001e0: 3112 c43d d1ec 093d 3f20 b4bc 9415 c23c
000001f0: 300a c13d 56b7 af3d d087 01be 0dd7 703e
00000200: a4c1 833d 07ce 943d 4156 d03c aa03 aebd
00000210: ec34 10be de3c 0dbe 1209 513c 5f6e 68be
00000220: 08f4 603d e032 f9bc ebf5 843d 74fe 1ebe
00000230: 58a8 a6bd 7cb3 1bbd 42ab b53d 04b8 903d
00000240: 4ce8 e8bd 3ec1 5a3e 87c2 243e f54d 693c
00000250: 1e22 acbb 0c07 f13d 9ee1 f9bd 944d 16bd
00000260: c7d3 ec3c fc40 9ebd 3153 2f3d 8031 c03b
00000270: 603b 2a38 5cfb 0cbd 424b edbd 17fb a63d
00000280: c7fb c73d b8cd e83d ccf2 e73d 3c38 94bd
00000290: 3a06 acbd f039 a0bd 2623 1f3c f7f4 d9bd
000002a0: 3a1c 6dbd 64f4 05bd ea49 52be 19ba c03c
000002b0: a5f5 293d 27f7 5cbd cdd9 17be e436 07bd
000002c0: f14d 5cbd 4fe8 2b3e b1f4 f73d 6cb7 89bd
000002d0: 41bd 4e3e 30b6 a03d ba17 03be 993f 7a3d
000002e0: fee9 c839 cc30 49be b059 79bd ca49 ac3d
000002f0: f1f7 d93c 83bf 07bd 37b3 9138 ba23 963c
00000300: 8d68 023e 3571 c0bd 5189 58bd 6b5f 56bd
00000310: c499 03bd 34f8 1fbe 992b f8bd 0149 373d
00000320: 7da2 073e 606e 843c 93d1 293e a08e 13be
00000330: 26f5 133b 4bc3 3d3c eeae dd3d fae1 1dbe
00000340: d03a 8b3d 79ed d0bd a922 b8bd 1794 97bd
00000350: 8b40 b13d 5217 9fbd 7100 d4bb 05fd 763d
00000360: 33b0 273d aecd b8bc d342 bcbc 48b1 263c
00000370: 0fc4 fdbd 0b8d ce3d 1830 54be 4cc3 bf3d
00000380: 3876 eebd 66d2 e6bc c750 0bbe 39e5 77bc
00000390: b493 3bbe dead 03bd 3423 843d 1cad 01bd
000003a0: b290 b53d 5cd3 4ebc b8d8 d8bb 8e8c 39bd
000003b0: 692a 43bd 45d9 fabd 36f2 adbd 3ffd 8e3d
000003c0: 3e7d d9bd 0cca c3bd e0ea 0fbe 2323 57be
000003d0: 9d64 1bbe 303e a13d e3ba a7bc d089 37bd
000003e0: e73b 07be f885 89bc dcc2 7c3d 7a65 93bd
000003f0: 2c40 a3bd e56d 60bd 49f1 8bbd 1787 d1bb

network_body.vector_processors.0.normalizer.running_mean f4 [78]
-2379.1375 -875.9704 178.99078 1.7646493 3.0717967 3.544714 -6461.2163 -2625.4502
179.11534 -6469.28 6124.1284 179.10464 -643.04407 8662.788 179.15857 784.3192
-9005.074 179.16408 -6789.5835 -3546.518 178.94373 5299.3657 -4935.8594 178.46353
-6462.1924 -2628.4236 178.77975 -6469.873 6123.7246 178.97879 -640.02374 8663.849
179.16113 781.3033 -9006.167 179.16113 -6789.0205 -3546.0872 179.06866 5300.347
-4932.856 178.80197 1.8339369 1.6888114 1.6720777 1.7932776 1.7876859 1.8113387
1.8233764 1.7486135 1.7408178 1.7245457 1.7278914 1.8218974 3.4205158 3.359072
2.489604 3.3651464 2.9290986 2.866752 3.531517 3.3382802 2.4111052 3.443704
2.9498649 2.7555766 3.9576802 2.9759612 3.4904058 3.2998164 3.826832 3.7188668
3.9850733 3.0711868 3.490089 3.3001537 3.7317555 3.6914132
00000000: 33b2 14c5 1bfe 5ac4 a4fd 3243 07e0 e13f
00000010: 5198 4440 98dc 6240 bbe9 c9c5 3417 24c5
00000020: 871d 3343 3d2a cac5 0761 bf45 ca1a 3343
00000030: d2c2 20c4 275b 0746 9828 3343 6e14 4444
00000040: 4cb4 0cc6 012a 3343 ab2c d4c5 4aa8 5dc5
00000050: 98f1 3243 ed9a a545 e03e 9ac5 aa76 3243
00000060: 8af1 c9c5 c746 24c5 9ec7 3243 fc2e cac5
00000070: cc5d bf45 92fa 3243 8501 20c4 655f 0746
00000080: 4029 3343 6953 4344 abb8 0cc6 4029 3343
00000090: 2a28 d4c5 65a1 5dc5 9411 3343 c7a2 a545
000000a0: d926 9ac5 4ecd 3243 72be ea3f f92a d83f
000000b0: a406 d63f 1f8a e53f e4d2 e43f f2d9 e73f
000000c0: 6664 e93f 91d2 df3f 1ed3 de3f eabd dc3f
000000d0: 8c2b dd3f ef33 e93f bbe9 5a40 09fb 5640
000000e0: ac55 1f40 8f5e 5740 5a76 3b40 dd78 3740
000000f0: 6004 6240 62a6 5540 8c4f 1a40 a565 5c40
00000100: 96ca 3c40 5e5b 3040 a24a 7d40 2676 3e40
00000110: cf62 5f40 3130 5340 d1ea 7440 ea01 6e40
00000120: 710b 7f40 538e 4440 9e5d 5f40 b835 5340
00000130: 15d5 6e40 1d40 6c40
