Assets/nnmodels/BusAgent.onnx (onnx, 139231 bytes, 9 tensors)

62 f4 [133]
000000 4c 0a 83 3a ae 46 fa 3e 4e 01 96 3e e3 c2 8c 3e
       0.0009997576 0.4888205 0.2929787 0.27492437
000010 4c 0a 83 3a a9 19 f5 3e c2 96 9c 3e f5 74 93 3e
       0.0009997576 0.4787114 0.3058377 0.2880017
000020 4c 0a 83 3a 57 2f fb 3e 82 ac 89 3e e7 3f 81 3e
       0.0009997576 0.49059555 0.26889426 0.25244066
000030 4c 0a 83 3a f5 94 e1 3e df 53 91 3e 36 a6 8a 3e
       0.0009997576 0.44058958 0.283843 0.27079934
000040 4c 0a 83 3a d9 b4 f3 3e 15 58 85 3e af 14 80 3e
       0.0009997576 0.47598913 0.26043764 0.2501578
000050 4c 0a 83 3a 36 61 98 3e ef 44 95 3e 05 ac 8e 3e
       0.0009997576 0.29761666 0.29154155 0.27865615
000060 4c 0a 83 3a 90 b3 e8 3e 90 c8 61 3e a2 2f 60 3e
       0.0009997576 0.45449495 0.22049165 0.2189317
000070 4c 0a 83 3a 7e 38 37 3e 4f cd 87 3e 34 13 83 3e
       0.0009997576 0.17892644 0.26523826 0.25600588
000080 4c 0a 83 3a 62 b8 d3 3e 6b 29 41 3e 11 85 41 3e
       0.0009997576 0.4135161 0.18863456 0.18898417
000090 4c 0a 83 3a 08 95 bd 3d bc 81 7c 3e c1 6e 74 3e
       0.0009997576 0.09256941 0.24658865 0.23870374
0000a0 4c 0a 83 3a 8f fb be 3e f3 0b 36 3e 0a ce 35 3e
       0.0009997576 0.373013 0.17777996 0.17754379
0000b0 4c 0a 83 3a 49 10 7a 3d 6e d5 76 3e 02 ea 70 3e
       0.0009997576 0.061050687 0.24104854 0.23526767
0000c0 4c 0a 83 3a 85 89 9e 3e fd 66 4b 3e 3f fc 48 3e
       0.0009997576 0.30964294 0.19863506 0.19627474
0000d0 4c 0a 83 3a 40 1a 5b 3d f9 3c 6b 3e 69 f9 65 3e
       0.0009997576 0.05349183 0.22972478 0.22458424
0000e0 4c 0a 83 3a a7 79 5f 3e 49 a8 2e 3e 9b 26 2b 3e
       0.0009997576 0.2182375 0.17056383 0.16713946
0000f0 4c 0a 83 3a 4a fd 40 3d 70 96 62 3e 1e 24 61 3e
       0.0009997576 0.047116555 0.221277 0.21986434
000100 4c 0a 83 3a 50 ce 1e 3e 94 b9 29 3e 86 24 27 3e
       0.0009997576 0.1550839 0.16574699 0.16322526
000110 4c 0a 83 3a a5 b0 15 3d 54 62 55 3e 4f 19 53 3e
       0.0009997576 0.036545414 0.2083829 0.20615123
000120 4c 0a 83 3a 92 ee d3 3d 2a 74 29 3e 87 05 26 3e
       0.0009997576 0.10348238 0.1654822 0.16213046
000130 4c 0a 83 3a e5 80 dd 3c d9 c8 47 3e 5e 52 42 3e
       0.0009997576 0.027039 0.19510211 0.18976733
000140 4c 0a 83 3a ba 22 74 3d 0b a1 24 3e 1a e3 1f 3e
       0.0009997576 0.05960343 0.16077058 0.15613976
000150 4c 0a 83 3a 3f bf d6 3c 4c dd 46 3e 21 da 40 3e
       0.0009997576 0.02621424 0.19420356 0.1883321
000160 4c 0a 83 3a b6 5a 0f 3d ff b1 24 3e 04 68 1f 3e
       0.0009997576 0.034998618 0.16083525 0.15567023
000170 4c 0a 83 3a 71 87 0f 3d 33 2e 53 3e 33 d2 4b 3e
       0.0009997576 0.035041276 0.20623092 0.19904403
000180 4c 0a 83 3a ad e7 b6 3c 61 3b 29 3e f1 f1 2a 3e
       0.0009997576 0.022327268 0.16526558 0.16693856
000190 4c 0a 83 3a f4 61 fb 3c 97 58 55 3e 73 51 52 3e
       0.0009997576 0.030686356 0.20834576 0.20538883
0001a0 4c 0a 83 3a 46 6a b0 3b 83 62 2b 3e 78 0f 40 3e
       0.0009997576 0.0053837625 0.16736798 0.18755901
0001b0 4c 0a 83 3a 7d 76 66 3c bc 74 46 3e 0e 96 46 3e
       0.0009997576 0.014066336 0.19380468 0.19393179
0001c0 4c 0a 83 3a 8c 7d 20 3b b3 ad 28 3e be 34 3c 3e
       0.0009997576 0.0024488894 0.16472511 0.18379495
0001d0 4c 0a 83 3a f8 01 02 3c b1 f6 2a 3e 5d cf 31 3e
       0.0009997576 0.00793504 0.16695668 0.17364259
0001e0 4c 0a 83 3a f8 01 02 3c b1 f6 2a 3e 5d cf 31 3e
       0.0009997576 0.00793504 0.16695668 0.17364259
0001f0 c0 d3 13 41 44 23 0e 3e 5d 99 d4 41 02 77 90 3b
       9.239197 0.1388064 26.574884 0.004408718
000200 b1 a5 7d 3c 66 66 1f 3d 8a 5b 03 40 92 c1 d0 3e
       0.015481398 0.038916014 2.052462 0.40772682
000210 8a f6 21 40
       2.5306726

action_model._continuous_distribution.log_sigma f4 [1, 2]
000000 68 34 b1 be 06 f6 48 be
       -0.34610295 -0.196251

action_model._continuous_distribution.mu.bias f4 [2]
000000 b7 77 2c 3c cb 92 4a 3d
       0.010526589 0.0494564

action_model._continuous_distribution.mu.weight f4 [2, 128]
000000 c0 b8 c8 3c a1 8b 91 bc d1 c8 76 3d b3 b1 85 bc
       0.024502158 -0.017766776 0.060250107 -0.016320085
000010 59 2b 75 bd 3d 68 33 3d 21 c7 ee 3c 19 56 13 bd
       -0.059855793 0.04380058 0.029147686 -0.03597078
000020 d5 e6 2c 3d 9f d6 28 bd 1e 6b 98 3c 96 21 d3 3c
       0.042212326 -0.041220304 0.018605765 0.025772851
000030 cc aa 64 3d da 19 2e 3c 5e f0 4e bd af 48 1e bd
       0.055826947 0.010626281 -0.0505222 -0.038643535
000040 46 e7 95 3d f1 0d b6 bb 09 7a 27 3d 7a 80 d7 bb
       0.073195025 -0.005555861 0.040887866 -0.006576595
000050 45 8c 31 3d ef 6b 02 3c ad 6b ec bc 7d 57 26 bd
       0.043346662 0.007960304 -0.028859938 -0.04061078
000060 e3 78 df bc 5f 12 80 3d 40 60 38 bd 6b 6b 5b 3c
       -0.027279323 0.06253504 -0.045013666 0.01339231
000070 ce 25 9e bd 41 f4 30 3c 86 8d 34 3d 7b bd 44 3d
       -0.077220544 0.010800422 0.04408028 0.048032265
000080 54 2f 31 bd 5f 37 4f 3d ba 6f bb bd aa c4 0f bd
       -0.043258026 0.050589915 -0.091521695 -0.035099663
000090 9b c3 6a 3c 2f eb 5c 3c 0e df 3c bc b9 a0 14 3d
       0.014328863 0.0134838065 -0.01152779 0.03628609
0000a0 65 31 eb bd ab d5 d9 bd 40 b7 1a bd 0a ac f8 bb
       -0.11484031 -0.10636457 -0.037772417 -0.007588868
0000b0 9f 1a ae 3c 36 ff 32 bc b1 c9 62 3d e3 78 65 bd
       0.021252928 -0.010925105 0.05536813 -0.05602349
0000c0 16 14 49 3d ec 69 00 3d 97 08 8e 3a ff 3d 7d 3d
       0.04909142 0.031351015 0.00108363 0.061826702
0000d0 20 a9 c4 3c 17 92 dc bd 2d bc e8 ba 52 cb ad bc
       0.024006426 -0.10770052 -0.0017756276 -0.021215115
0000e0 17 fd 07 3d f7 1a cc bc 64 94 54 3d be 16 1c 3d
       0.03320035 -0.024915202 0.05189933 0.038107626
0000f0 30 3c c7 3c 6c 2a 60 bd d9 9f d6 3c 76 a7 f3 3c
       0.024320692 -0.054727957 0.026199268 0.029742938
000100 24 7b ac 3d ee c1 0f 3d 6f 87 85 bc 57 fe 19 bd
       0.08421925 0.035097055 -0.016299931 -0.037596073
000110 16 1c f4 3c aa 8c da bd 6e 01 e7 3c 3a 36 c2 3c
       0.029798549 -0.10671361 0.028198924 0.023707498
000120 81 bd d5 bc 98 41 7d bd 2b 47 42 bd d4 b9 52 3d
       -0.026091339 -0.061830133 -0.047431152 0.05144675
000130 cd 4b 3f 3d 7b 73 bc 3c 6e ae e4 bc 39 34 1b 3d
       0.04670315 0.023004284 -0.027915206 0.0378916
000140 a3 24 bf bc 46 d6 1f 3d 01 e4 e2 3b 20 4f 13 bd
       -0.0233329 0.039022706 0.006924153 -0.03596413
000150 0a 9f 1e 3b 61 43 38 bd 44 33 4e 3d ed a7 02 3c
       0.0024203681 -0.044986133 0.05034186 0.007974607
000160 49 b6 e0 bb bd a6 9a bc e2 6d 54 3c df 37 20 bd
       -0.0068576676 -0.018878335 0.012965651 -0.039115783
000170 0b 50 10 3d 99 5d 96 bd 58 7b 72 3c b8 d9 97 bc
       0.035232585 -0.07342071 0.014799915 -0.018536434
000180 8a c0 7e 3d eb 6a 70 3c dd 72 25 bc a0 27 8e bd
       0.06219534 0.014673929 -0.010098186 -0.069411516
000190 93 bf 33 bd 9f 45 b1 bc 40 f7 b9 bc 71 21 69 3d
       -0.04388387 -0.021639643 -0.022700906 0.056916658
0001a0 89 3b ac bd 19 0a 4a bd 5f b4 f7 bc 63 5c 58 bd
       -0.08409793 -0.049326036 -0.030237375 -0.05282248
0001b0 a3 63 7e bd 32 e7 fd 3c 40 a5 0d 3d fe df 0d 3d
       -0.06210674 0.030994032 0.034581423 0.034637444
0001c0 18 3d 67 bd 23 cd b7 bc f8 7e c1 bd dd 38 c2 bc
       -0.056454748 -0.022436684 -0.094480455 -0.023708755
0001d0 62 77 00 bd cd e9 96 3c cf 82 38 3d 8e 0d d3 3a
       -0.031363852 0.018422032 0.045046624 0.0016102062
0001e0 5f 9f c8 3c cf c8 ad ba 76 8c 0d 3d 1b a2 95 3a
       0.024490057 -0.0013258698 0.034557782 0.0011416109
0001f0 f0 1a 01 3d ce 3c 40 3d 93 12 e3 bc ac 9c 4d bc
       0.03151983 0.046932988 -0.027718818 -0.0125495605
000200 53 22 b1 3b a2 52 9a bb 0a e2 78 3c 3d a5 f6 3c
       0.005405703 -0.0047095576 0.015190611 0.030108089
000210 36 36 bb bd f8 4d 26 3d 50 ba 66 3b 61 18 72 3d
       -0.09141199 0.0406017 0.0035206266 0.05910528
000220 f2 5e 31 3c 94 f7 27 3d 18 d1 aa 3b 64 22 80 3d
       0.010825859 0.041007593 0.005212914 0.062565595
000230 b0 24 0c 3d 75 31 98 3b f9 34 8c 3d ee 2a 09 bb
       0.034214675 0.0046445676 0.06846041 -0.002093013
000240 6a 74 2e ba 57 95 20 3d 1f 58 af bc ea bf 53 bd
       -0.000665492 0.03920492 -0.021404324 -0.051696695
000250 a9 68 e4 3b 1b b3 1a bd ad dd 93 3d dc 94 0a 3d
       0.0069704843 -0.037768465 0.07220016 0.03383337
000260 55 f8 63 bd 9d 84 6d bc 97 1b b3 bb d0 ee 2c bd
       -0.05565675 -0.0144969495 -0.0054659355 -0.042219937
000270 7c af 6d 3d 8b f0 0b 3d 55 ee 1a 3d 7b dc 49 3c
       0.058028683 0.034164947 0.037824947 0.012320633
000280 a4 6d 6b 3d bb d1 a3 bc a4 48 67 3d ea 75 01 bc
       0.05747761 -0.019997468 0.05646576 -0.007901648
000290 d6 70 06 3d 74 35 b3 bc dc 30 14 3d b8 3b 0a 3d
       0.032822452 -0.021876074 0.03617941 0.03374836
0002a0 57 33 ab 3d 3c 10 fa bc c9 7b 84 3c a2 71 e9 3c
       0.08359402 -0.03052532 0.016172307 0.028496567
0002b0 90 e0 63 3c a1 0c 0e bc 8a 1f 8f bd 9f 5d 9d 3c
       0.01390852 -0.008670003 -0.069884375 0.019209681
0002c0 6c 25 81 3c 1f 4c 80 3d c3 55 08 3c 83 2c 84 3c
       0.015764914 0.06264519 0.008321228 0.016134506
0002d0 d9 1a c8 ba 47 48 12 bc 00 74 d9 3c b3 99 dc bc
       -0.001526679 -0.008928365 0.02654457 -0.026928758
0002e0 57 f8 2d bc 10 48 08 bc 37 69 bb 3c c4 ed 55 3c
       -0.010618291 -0.008317962 0.022877319 0.013057176
0002f0 cc 82 3d ba e2 ac d0 3c 85 0d 97 bb 70 79 e2 bc
       -0.0007229268 0.025473062 -0.004609766 -0.027645797
000300 8b 74 82 bb 27 d6 3e bc ec 0d b6 bc 52 14 2b 3c
       -0.003981178 -0.011647738 -0.022223435 0.010441856
000310 f0 c7 49 3d 22 73 c7 3c 3b e5 9a 3a 0d f2 d2 3c
       0.04926294 0.024346892 0.0011817584 0.025750184
000320 b6 8e 05 bc 23 70 56 3c a8 ae 98 bc b4 a9 42 ba
       -0.008151701 0.013088259 -0.01863797 -0.00074258004
000330 8d ea bf 3b bd 7a 0a 3d 39 b9 61 bd 94 4c e9 bb
       0.005856818 0.03380846 -0.055108283 -0.0071197245
000340 aa c6 e6 3c 4c 90 e2 bc 63 26 80 bc 9f 2c 4a 3b
       0.028170902 -0.027656697 -0.015643304 0.003084935
000350 df 06 8e bd 26 22 92 3c 2a 48 12 bd 52 7c 15 bd
       -0.06934904 0.017838549 -0.035713352 -0.036495514
000360 1f d7 3c 3d 90 14 2b ba 03 1f 50 bd ca 54 0a 3c
       0.046103593 -0.00065261964 -0.050810825 0.008443067
000370 9f e6 54 bc 25 53 38 bd 0e 61 f4 3c 12 26 68 bc
       -0.0129944375 -0.045001168 0.029831436 -0.014169233
000380 51 74 91 3d 4a 2a 1d bd 84 0d d2 3b 95 10 1d bb
       0.07102264 -0.038370408 0.0064103026 -0.0023966182
000390 18 89 0f 3c 73 46 92 bb 08 b3 33 bc c8 b7 e2 3c
       0.008760713 -0.0044639646 -0.010967977 0.027675524
0003a0 63 8a 71 bc 1d 47 c8 3c 07 49 f9 bb 7e cc d0 3c
       -0.014742467 0.024447972 -0.0076075825 0.025488134
0003b0 c2 1e 60 3b e7 f3 be bc b7 21 32 3c a9 5c 2e 3b
       0.003419802 -0.023309661 0.010872296 0.0026605523
0003c0 a8 75 fc 3b cf 3d ac bc 9a 4c 03 bc aa d8 2d bd
       0.0077044554 -0.021025566 -0.008013869 -0.042442955
0003d0 80 d6 cf bc b6 8c 05 bd 0e fe 3e 3c 88 95 63 3d
       -0.025370836 -0.032604896 0.011657251 0.055562526
0003e0 e7 1f 49 3d 6d 5c 90 3d 4b 06 e4 bc bd b1 78 3d
       0.04910269 0.07048879 -0.027835032 0.06071638
0003f0 77 e7 bf 3b 62 fb 87 bc be 42 ba bc f6 d5 1d bd
       0.00585645 -0.01659936 -0.022736903 -0.038534127

network_body.linear_encoder.seq_layers.0.bias f4 [128]
000000 a1 47 38 3d b2 02 46 bd 33 a4 8d 3d 92 5f 93 bd
       0.044990186 -0.048342414 0.06916084 -0.07195963
000010 69 60 28 bb 76 b0 5d bd 68 4d 7f bd ff 94 e1 b9
       -0.002569223 -0.054123364 -0.06232968 -0.00043026355
000020 e9 8d 9a bd a4 32 b7 3d 31 be e9 bc 82 d8 36 bc
       -0.075465985 0.08945206 -0.028533073 -0.011160018
000030 ff 64 a6 bc d6 b5 bf bd c2 de 60 bd 47 33 3e bd
       -0.02031183 -0.09360854 -0.05489994 -0.04643562
000040 37 ae 3c bd 6a 35 75 bd 71 a2 67 bd cf ee e1 3c
       -0.04606458 -0.059865393 -0.0565514 0.027579693
000050 2a 8e 70 3a e3 db af 3c 97 0e 33 3d c8 fd 9a bd
       0.00091764575 0.021467155 0.043715086 -0.07567936
000060 b9 36 8a bd 07 07 93 bd 49 77 ab 3c e8 ce ce bb
       -0.06748719 -0.07179075 0.020930903 -0.0063112862
000070 1c 2a 5c 3d 23 8e 82 bd 64 db e8 3c e0 7d 6c 3d
       0.053751096 -0.06374767 0.028424926 0.05773723
000080 14 b8 53 3b 8a bd ff bc 9d 35 0b 3c 72 de 42 3d
       0.0032305764 -0.031218309 0.008496669 0.04757542
000090 58 ba 93 bd e0 c2 62 bc 2d 54 0e bd 68 4d d4 bb
       -0.072132766 -0.013840407 -0.034748245 -0.006478954
0000a0 83 c4 f4 bc b7 2b bb 3c 8c d1 6a bd c0 19 b9 bc
       -0.02987886 0.022847993 -0.057328746 -0.022595286
0000b0 a2 c4 0e 3d b0 b0 b4 bd e5 df 90 bd 75 f2 99 3c
       0.034855492 -0.08822763 -0.070739545 0.01879237
0000c0 38 e6 a6 bd 4c 1a c9 3a 03 c7 b8 bc 86 14 5a bd
       -0.081493795 0.001534292 -0.022555834 -0.05324223
0000d0 99 b5 19 bc 95 f5 f2 3c 77 d7 af bd 09 1c c3 3c
       -0.009381675 0.029658118 -0.085860185 0.02381708
0000e0 5e 21 a3 bb c2 c7 85 bc 47 fa b2 bc 0c 69 ca bd
       -0.004978343 -0.016330604 -0.021847857 -0.09883317
0000f0 68 a7 44 3d 72 24 56 3d 45 6b 82 3d ef 65 0c bd
       0.048011214 0.05228085 0.06368116 -0.0342769
000100 57 8f 85 bd 39 f6 a6 bd 49 61 0e bb 61 9e fd 3c
       -0.065214805 -0.08152432 -0.0021725467 0.03095931
000110 11 d7 94 bd 63 d4 f1 bb 7f 17 70 3d 2f 7e c5 bd
       -0.07267583 -0.007380055 0.058616158 -0.09643208
000120 c5 2e 0b bd f0 87 28 3d 4c de 1e bd b5 c4 95 bd
       -0.03398015 0.041145265 -0.038786218 -0.073129095
000130 f6 06 9d bc d4 e0 c6 38 31 cb 4f bd 9f 46 74 bc
       -0.019168358 9.483253e-05 -0.050730888 -0.0149094155
000140 07 76 1c 3d c2 c9 77 3a 3f d2 a4 bd 8b d5 4d 3d
       0.038198497 0.00094523665 -0.08047914 0.05025248
000150 13 1d ed 3c 3a 5e ce 3c d7 e2 75 bd e9 a2 2e 3c
       0.028944528 0.025191415 -0.060030784 0.010658958
000160 08 40 f7 3c d0 57 16 3d 5b 99 75 bd d7 a4 0b 3d
       0.0301819 0.03670484 -0.059960704 0.03409275
000170 17 b8 dd bd 26 5c 40 be b1 49 92 bd 06 ab 54 bd
       -0.10826128 -0.18785152 -0.07142962 -0.051920913
000180 20 98 03 3d ea 5e ee bc 20 b2 98 bd ee cb 4b 3c
       0.0321275 -0.029097993 -0.0745585 0.012438757
000190 dd 0c 8f 3d 3d 32 33 bd 1e 17 0c bd 84 f7 a9 bd
       0.06984875 -0.043749083 -0.034201734 -0.08299163
0001a0 03 a7 09 bd 3f c5 f7 bd d9 e0 ca bd 32 59 2d 3d
       -0.03360654 -0.120981686 -0.099061675 0.04232139
0001b0 49 93 b3 bc ad cd 8b 3b 89 f2 07 bd 57 ec 16 3d
       -0.021920817 0.004266462 -0.033190284 0.036846485
0001c0 42 e6 a7 bc 89 95 22 bd 87 3b b9 bd 4a 4d 1a bd
       -0.020495538 -0.03969339 -0.09044557 -0.037671365
0001d0 71 96 01 bd 1e 14 59 bd a8 d1 ff 3b 66 7a 95 bd
       -0.031637613 -0.0529977 0.0078069754 -0.07298736
0001e0 96 03 c8 bc ca 23 97 bd 72 ad e3 bc f9 93 8b 3b
       -0.024415772 -0.07379873 -0.027792666 0.004259583
0001f0 d6 a5 20 3d 95 38 37 bd 4e cf d0 bd 57 f4 13 bd
       0.039220653 -0.044731695 -0.1019579 -0.036121693

network_body.linear_encoder.seq_layers.0.weight f4 [128, 133]
000000 84 4d 01 3d e5 e7 ba 3d 5a 0d 2e 3d b3 b3 79 3c
       0.031568065 0.091262616 0.0424932 0.015240598
000010 73 7a 74 bd 41 39 ca 3c f3 39 02 bd 0b 8b 0c be
       -0.05968709 0.024685504 -0.031793546 -0.13724916
000020 ac 70 3a 3d 36 f5 2c 3e cc fb 1c bd ef f8 a0 3d
       0.04551761 0.16890416 -0.03832607 0.0785998
000030 ae 6f 02 3e 78 24 76 3d 6d e4 9e bb e2 97 c7 3c
       0.12737915 0.060093373 -0.004849008 0.024364416
000040 e7 ae 84 bd 07 38 db 3c 82 1d aa bd 90 90 9e 3d
       -0.064786725 0.026760114 -0.083064094 0.07742417
000050 c9 44 21 be a5 ea f3 3d 9d e7 08 3e b2 f6 d9 3d
       -0.15748896 0.11909989 0.13369603 0.106427565
000060 33 05 37 bd e1 d3 b5 bc 58 f0 d8 3d 04 b9 0c 3e
       -0.044682693 -0.022195758 0.10592717 0.13742453
000070 61 f4 f9 bd 71 c1 38 bd 1e 41 be 3c 03 95 e0 bd
       -0.12204815 -0.045106355 0.02322441 -0.10965922
000080 d2 59 ac 3d d4 79 15 bd 00 fb 85 3c 2a c3 0f be
       0.08415569 -0.036493137 0.016355038 -0.14039293
000090 5d 47 fc bc 01 89 d7 3d 65 d5 c3 3d 31 d5 29 3d
       -0.030795747 0.10524178 0.09562186 0.04146308
0000a0 23 57 85 3d 5d c3 ef 3d b2 28 8c 3d 63 ae ce 3c
       0.06510761 0.117071845 0.068436995 0.025229638
0000b0 7c 47 0e bd 38 ae 70 3d 1e 07 b6 bd 43 12 80 3d
       -0.03473614 0.058759898 -0.08888076 0.06253483
0000c0 2d 81 b1 3d f4 63 b5 bd 24 2c 9a bd df 1e e8 3d
       0.086672164 -0.08856955 -0.075279504 0.11334013
0000d0 1f ef b2 3d b5 c4 45 bd fd b3 8a be 97 b9 a3 3d
       0.08737015 -0.048283298 -0.27090445 0.07994383
0000e0 3c 57 2d bd 15 3d f0 3c d8 f2 e6 bd fa ab 14 be
       -0.04231952 0.029326001 -0.112767875 -0.14518729
0000f0 19 c3 5d bd 62 0d 37 3c ed 55 2b bd 87 42 04 be
       -0.054141138 0.011172624 -0.041829992 -0.12916003
000100 ad e4 bc bd ae c1 43 bc 08 bf b7 3d 5e 81 2b 3e
       -0.09223304 -0.011948032 0.08971983 0.16748568
000110 1f fe 7f 3d ec dd f5 bd 38 1d 67 bd 0f 89 30 3d
       0.062498208 -0.12005219 -0.05642435 0.04309946
000120 19 d9 74 3d c9 36 27 3e c5 6b a9 3c 26 da 73 bd
       0.059777353 0.16329493 0.020681271 -0.059534214
000130 3d 16 9b ba 2e 1d 0e be a5 3f 23 bc 37 50 cd bc
       -0.0011832189 -0.13878319 -0.0099639045 -0.025062663
000140 73 dd a8 3d 28 47 c1 bd 83 7c de bc a2 12 18 3e
       0.08245363 -0.094374 -0.027158981 0.14850858
000150 03 7e a7 bd dc 9f 62 3c f6 53 57 3c 38 ef 84 bd
       -0.08178332 0.013832059 0.013142576 -0.0649094
000160 c1 06 72 bd c7 73 66 3e 38 2f 1a 3e e6 89 fa 3b
       -0.059088472 0.22505103 0.15057075 0.0076458333
000170 15 d9 b2 bd 90 2e e2 3b 4d 0d de 3d 60 a6 40 3d
       -0.08732811 0.0069025233 0.10842381 0.047033668
000180 84 77 74 bc 47 f1 34 bc 7a 08 f1 bc b4 ef f0 3d
       -0.014921073 -0.011043853 -0.029422987 0.1176447
000190 a0 73 23 be f8 c5 22 3e 6e 81 64 bd 24 a4 06 be
       -0.15962076 0.15895832 -0.055787496 -0.13148552
0001a0 82 ed 26 bc 3f 2b 4a 3d 10 f4 03 bd c5 52 f7 bd
       -0.010188462 0.04935765 -0.032215178 -0.12076334
0001b0 ba e9 6e bc 30 4f 3c bd 8f fd 98 3d 06 1d 9f 3d
       -0.014582092 -0.045973957 0.074702375 0.07769208
0001c0 91 71 91 bd 39 d5 c5 3d 53 e9 19 3e 6d 84 ba bd
       -0.07101739 0.096598096 0.15030412 -0.091072895
0001d0 aa 59 31 be 13 df c5 3d e8 2d a3 bd b4 6e cf 3d
       -0.1731936 0.09661689 -0.0796774 0.10128537
0001e0 70 88 7d bd 9a 3e 15 3e 58 17 ce 3d d5 36 5b 3e
       -0.061897695 0.14574662 0.10063046 0.21407636
0001f0 f6 96 ae bd d0 75 f9 3c 54 8d ff bd 91 1b 2c 3e
       -0.08524887 0.030451685 -0.12478128 0.16807391
000200 ee b5 82 bc 39 06 c9 bc 78 4c a3 bd 6e 60 52 be
       -0.015955891 -0.0245391 -0.0797357 -0.20544598
000210 3a d7 a2 bd 31 81 86 bd ce 50 33 bd e0 43 f0 3d
       -0.079512075 -0.0656761 -0.043778233 0.11731696
000220 c3 52 28 3e 4e 73 98 bc f9 7d 04 be 91 d3 69 3e
       0.16437821 -0.018609669 -0.1293868 0.22834612
000230 c0 9b 91 bc f3 5e c4 bc fc ef 71 bb d4 01 09 3e
       -0.017774463 -0.023971057 -0.0036916723 0.13379604
000240 42 0f b2 3d b6 43 51 bd d8 b3 42 bd 6e 2f 0c bd
       0.086943164 -0.051089965 -0.047534794 -0.03422492
000250 d6 9e 57 bd 78 1a 00 be f2 5c 01 3d e6 8c 99 3c
       -0.052641712 -0.12510097 0.03158278 0.018743943
000260 2b ca 03 bd b0 80 02 bd 3a ea da 3d 14 a8 f9 3d
       -0.032175224 -0.031861007 0.106892064 0.121902615
000270 11 76 4f 3d a8 6d 1c 3d 43 45 2e bd 5b 31 52 be
       0.050649706 0.038190514 -0.042546522 -0.2052664
000280 e3 c7 9a 3c ab 66 37 3d 21 f3 8f 3c 0c 6a ab 3d
       0.018894142 0.044775646 0.017571988 0.08369836
000290 21 90 50 3d c1 46 19 3e 9e 2b 34 3d 76 42 04 3e
       0.050918702 0.14968397 0.04398691 0.12915978
0002a0 c7 ef c5 3d 3a 5f 9b be 0e 62 ae 3b 23 49 99 3d
       0.096648745 -0.3034609 0.0053217476 0.07484653
0002b0 fb ec fa bc 95 bc bf bb 4e a5 6f bd f4 ee 04 3d
       -0.03063058 -0.005851338 -0.058507256 0.032454446
0002c0 42 e0 58 3c 62 b1 01 3e da 69 64 bd 46 49 ab bc
       0.013237061 0.12665322 -0.05576501 -0.020908963
0002d0 ec 33 3d bd 52 0f 5b 3e ae a3 c6 3d b7 b7 cc 3d
       -0.046192095 0.21392563 0.09699188 0.09995978
0002e0 b5 a0 ee bd 5a c4 e0 bd 65 f1 9a bd 4a 4c 28 bc
       -0.11651746 -0.10974951 -0.075655736 -0.010272095
0002f0 f0 3b 00 3d 30 8f 38 3d e3 fc 39 3d 1f 75 05 3c
       0.03130716 0.04505843 0.045407187 0.0081456
000300 3b 74 9d bc 82 0a a8 bd bb 51 e2 bd ea be 32 3c
       -0.019220462 -0.08205129 -0.11050745 0.010909775
000310 47 c2 a4 3b 67 f9 d5 3d e8 a3 9d 3d bb 0c 92 bd
       0.0050280425 0.1044796 0.07697278 -0.071313344
000320 62 10 da 3d a6 c8 3b 3c c5 d5 68 bd a9 6e c2 3d
       0.10647656 0.0114614125 -0.05684449 0.09493763
000330 5c 0c c1 bc 99 1a 93 3b 65 bd c8 3d 43 b6 38 bd
       -0.023565464 0.0044892547 0.09801749 -0.045095693
000340 2a 52 4f 3e 33 78 28 3d 57 34 00 be 65 90 5d bd
       0.20246187 0.041130256 -0.12519966 -0.054092783
000350 28 de cf 3d 2e 49 2a bd 93 a4 e6 bc e4 40 02 3e
       0.10149795 -0.041573696 -0.028154647 0.12720066
000360 eb 04 f0 3d 5c da 68 be 56 9c dd 3d a5 5e d3 bc
       0.11719688 -0.22739547 0.10820834 -0.025801966
000370 68 43 39 3e 5d 29 56 3d bc 47 41 3e ef b5 31 3d
       0.1809212 0.05228554 0.1887502 0.043386396
000380 24 22 b2 3d 97 ca 05 3e 6b 20 a3 3d 12 5a ab bd
       0.08697918 0.13065563 0.079651676 -0.08366789
000390 5b 5f b7 3d 4f ed 23 3e e4 79 8a 3d f2 42 07 3b
       0.089537345 0.16008495 0.0676153 0.0020639268
0003a0 42 a3 47 3e a6 c7 f7 bd bf 5c 25 3d ac 42 8e 3d
       0.19495872 -0.12098627 0.040371653 0.069463104
0003b0 b9 af bb 3c d7 ea 20 3d 47 f6 5f bb c7 45 32 3e
       0.02291094 0.03928646 -0.0034173892 0.1740943
0003c0 05 1b ed bc 57 5c 43 bc 7a 50 03 be cb f4 ab 3d
       -0.028943548 -0.011923871 -0.12823668 0.083963
0003d0 11 20 f9 bd 58 fa 13 bc 65 20 18 3e d7 e8 b0 3c
       -0.12164319 -0.009031855 0.14856108 0.021595402
0003e0 15 dc 46 bd ab 6e 90 3d af 59 d8 3c fb 6d 4f 3d
       -0.04854973 0.07052358 0.026409952 0.050641995
0003f0 6e e2 76 3d cf 11 c8 3c b4 b1 9e bd b5 90 e8 ba
       0.060274534 0.024422554 -0.07748738 -0.0017743321

network_body.linear_encoder.seq_layers.2.bias f4 [128]
000000 f8 86 ee bc be 09 e5 bc cc f0 3b 3c a7 02 59 3d
       -0.029117092 -0.027958747 0.011470985 0.052981045
000010 c5 e7 05 3c 86 f9 2d 3d 7e 18 86 bd fe 2e 2a 3d
       0.008172934 0.042474292 -0.0654764 0.04154872
000020 d8 4b a4 3c ca cb af 39 be f1 04 bd da e0 2d 3d
       0.020055696 0.00033530436 -0.032457106 0.042450763
000030 c6 4e 4d 3d c6 df 03 3d 8c 4b 8a 3d 23 1b 2d bd
       0.050123952 0.03219583 0.06752691 -0.042262208
000040 46 dc d4 bc f2 cf 1e 3d 5e 71 4d 3b 7f 8a 2f bd
       -0.02598394 0.03877253 0.003134809 -0.04285669
000050 c0 e7 a0 bc b1 2a 94 bd 11 aa 61 3d 55 da 96 3b
       -0.019641757 -0.07234705 0.05509383 0.004603664
000060 bd 0c 15 bd d4 38 90 bd 4e e5 d3 bc 2c fb 19 bd
       -0.0363891 -0.07042089 -0.025866177 -0.03759305
000070 4f 2f a1 3d a8 58 d1 bb 04 20 50 3c e9 43 97 bc
       0.078703515 -0.0063887425 0.012702946 -0.018465
000080 54 86 b0 3d b6 d1 60 bd fd 15 4d 3d 60 11 de bc
       0.08619371 -0.054887496 0.050069798 -0.027107894
000090 26 51 36 3d 0b 0f af bd 94 34 78 3c 55 d8 ac 3c
       0.044510983 -0.08547791 0.015149254 0.021099249
0000a0 33 d7 85 3d ab cd d6 bb 7a 3c 90 3c 4e f5 3e 3d
       0.065351866 -0.0065552793 0.017606962 0.04662066
0000b0 47 e2 92 b9 b8 68 88 bd d3 49 e6 bc 26 f0 3a 3c
       -0.0002801588 -0.066605985 -0.028111374 0.011409795
0000c0 47 bd 22 3c aa 5b 50 3d a1 bb f2 bc 22 cc 0a 3c
       0.009932823 0.050868668 -0.029630484 0.008471521
0000d0 74 50 fc bc e4 ea 6a 3c 02 03 38 3c d2 f9 22 bd
       -0.030800082 0.014338229 0.011231186 -0.03978903
0000e0 82 91 21 bd 68 50 da bc 6f 69 19 3c 3d 24 0f 3d
       -0.039445408 -0.026649669 0.009363516 0.03494667
0000f0 7d 4b a4 bc fc 4d 5b 3c 9a 21 05 bd 08 44 07 bd
       -0.020055527 0.013385292 -0.032502748 -0.033023864
000100 9e c7 b8 bc 42 0e 89 bd 5f 9a 3d bc b7 8b 41 bc
       -0.022556122 -0.066921726 -0.0115724495 -0.011813096
000110 37 1f 92 3d 03 73 bb bb a9 3d b9 3c ad 37 a4 bb
       0.0713486 -0.0057204976 0.02261241 -0.00501152
000120 03 bb ff bc fa 6f 7d bc fd fa d3 bc 6d 1b a7 bc
       -0.031217104 -0.015468592 -0.025876516 -0.02039882
000130 f5 aa 0d bd b8 24 ad 3b 4c b2 d9 bc 67 f9 b8 3b
       -0.034586865 0.005283918 -0.026574276 0.0056449655
000140 97 10 b5 bc d6 21 7f bd f8 a1 b3 bd 6e 40 97 3b
       -0.022102637 -0.062288128 -0.087711275 0.004615835
000150 31 81 66 bd 6d b4 78 3b a9 37 03 bd f7 3a 58 bd
       -0.05627555 0.003794934 -0.032035504 -0.05279061
000160 3a 19 6d 3d 95 29 34 bd 79 bf 7c bd 0e 36 af 3c
       0.057885386 -0.04398497 -0.06170604 0.02138808
000170 11 bc 6b bd 03 f6 a4 3b 07 b2 ea bc 18 54 2a bd
       -0.0575524 0.0050342097 -0.028649343 -0.041584104
000180 d2 14 49 3d 0f 2a c1 bc 2c 4c 25 bc a5 12 b8 3c
       0.04909212 -0.023579625 -0.010088962 0.022469828
000190 56 b8 4c 3c bc 1b da bc b2 77 66 bd b4 bc ca bb
       0.012495121 -0.026624553 -0.056266494 -0.006187046
0001a0 0b c5 18 bd 58 9b 6a 3c 68 22 79 bd 1f 6c d8 3c
       -0.03729729 0.014319263 -0.060823828 0.026418744
0001b0 5e cd 1c bc 66 f1 2b bd 7d 49 ea bc 21 93 63 bd
       -0.009570448 -0.041978262 -0.028599495 -0.055560235
0001c0 8c 99 37 3c fd e7 d9 3c 02 f9 7d 3c 6f 66 47 bd
       0.011206042 0.026599878 0.015501263 -0.048681673
0001d0 92 3c 27 bd 39 2a 29 bd 52 6d b4 3c b7 08 9e 3d
       -0.04082925 -0.041300032 0.022024784 0.07716506
0001e0 cc e2 19 3d a9 e5 7d 3d 8f e6 89 bd a0 b6 1f 3d
       0.037569806 0.0619866 -0.06733429 0.038992524
0001f0 cd 66 0c bd e4 15 7f bd b7 10 12 bd a1 2a 41 bd
       -0.034277726 -0.062276736 -0.03566047 -0.047159795

network_body.linear_encoder.seq_layers.2.weight f4 [128, 128]
000000 af 9d 27 3d 37 d6 d6 bc 09 7b 6d bd 7f d1 43 ba
       0.040921863 -0.026225192 -0.057978664 -0.0007469877
000010 8f d5 05 3e fa f5 de 3b 04 f2 4a 3e 0b 0e 0b be
       0.13069747 0.006804225 0.19818884 -0.13579576
000020 1e c8 ad bc 7b 6e 45 3d 58 b2 fe 3c 3b ec b7 3d
       -0.021213587 0.048201066 0.0310909 0.08980604
000030 d4 f2 b8 bd 50 2d 0a 3e 34 77 9a 3c af 30 cb bd
       -0.09030691 0.13493848 0.018855669 -0.09921395
000040 76 59 59 bd eb ea fd bd 52 17 d9 3d 23 85 c3 bc
       -0.053063832 -0.12398323 0.10600151 -0.023867195
000050 ec d2 8b bd f9 d4 be 3c 4b 51 6e bc a3 f5 96 3d
       -0.068273395 0.023294913 -0.014545749 0.0737107
000060 cd 86 0a bd b8 33 8c 3d 40 a0 6e be 81 16 54 bd
       -0.033819962 0.06845802 -0.23303318 -0.051779274
000070 8a fe 14 3e 94 1a 86 3d a7 a8 c7 3d 66 38 3b bd
       0.14550224 0.06548038 0.09748965 -0.045708083
000080 9a 43 cc 3d 90 a9 10 3e 98 10 ab bd 43 78 81 bc
       0.099738315 0.14127183 -0.083527744 -0.015804416
000090 a7 43 94 3d 2f f8 eb bc 57 c4 52 3d dd aa 80 bd
       0.07239466 -0.028804867 0.051456776 -0.062825896
0000a0 06 a8 4f 3e d8 b1 33 be 02 f8 02 3e 2e 8d f1 3d
       0.2027894 -0.17548311 0.1278992 0.11794506
0000b0 1b 7e 3c 3d b0 c5 53 b9 5f c6 c7 3c c6 df 0c be
       0.0460187 -0.00020196172 0.024386583 -0.13757238
0000c0 f5 86 d9 3c f4 20 ab bd 90 e2 48 3c 7f ea f5 3d
       0.02655361 -0.08355895 0.012261048 0.12007617
0000d0 da f7 9c bd e1 42 0a 3d aa 58 9f bc 55 c6 46 3d
       -0.076644614 0.033755187 -0.019451458 0.048528988
0000e0 ab 72 ea bd 1f bf b2 3d 56 8f e4 3b eb 55 1d 3e
       -0.114476524 0.0872786 0.006975095 0.15364806
0000f0 91 1d 56 bd ae 86 ea 3d 33 84 1a be 95 2e 3a 3e
       -0.05227429 0.11451469 -0.15089492 0.18181832
000100 e9 3d ab 3c a7 47 54 3d 75 85 53 3d e9 4a 53 bd
       0.020903545 0.051826145 0.051640946 -0.05158511
000110 71 a2 e8 3d 3a 23 aa 3c 4f aa d4 bd 4b ac f2 3c
       0.11359108 0.02076875 -0.10384046 0.029623171
000120 66 76 39 3e 96 37 fb 3d 63 ef 3a bd 10 26 06 3e
       0.18111572 0.122664616 -0.045638453 0.13100457
000130 64 10 49 bd 1a 1e 6e bb 9c 24 f9 bd 6e 44 c0 3b
       -0.049087897 -0.003633386 -0.12165186 0.0058675325
000140 cc 0a a8 bd 8d 22 11 3c da 03 18 3d b2 32 06 3d
       -0.08205184 0.008858335 0.037113048 0.03276319
000150 75 35 b8 bd fc ad 01 3e d4 3e 13 3d 02 92 b3 3d
       -0.08994571 0.12664026 0.03594859 0.08768083
000160 59 46 6c bd 90 1d d0 bd 54 ca a8 3d 37 1d 15 bc
       -0.057684276 -0.101618886 0.08241716 -0.009101204
000170 6b 59 3d bd 81 ef 83 3d 17 b5 36 3b 72 1e 5f 3d
       -0.046227854 0.06442166 0.0027878934 0.054472394
000180 91 9b 99 bd 9f 32 b3 3c 64 15 73 3d 08 39 60 bd
       -0.07500375 0.021874724 0.05934657 -0.05474189
000190 34 de 09 be af 42 99 bc 47 b2 3c bd f7 47 7a 3d
       -0.1346367 -0.018708555 -0.046068456 0.061103787
0001a0 84 c2 79 3d d6 76 0b 3d 8a cc 81 3c 02 b0 da bd
       0.06097652 0.034048878 0.015844602 -0.10678102
0001b0 f9 97 30 3d 9c 2e 06 3e ec fe e3 3c f2 03 b6 bc
       0.043113682 0.13103718 0.027831517 -0.022218678
0001c0 a0 e9 ee 3c 66 1c 53 bb 29 86 30 3c c5 7c ee 3c
       0.029164135 -0.0032212972 0.010774174 0.02911223
0001d0 b4 5d 82 bd 58 2b 4e 3e 6f 96 0b 3e 38 3f ee bd
       -0.06365529 0.20133722 0.13631605 -0.11633152
0001e0 86 26 b0 bd da 81 ca bc ed cd c1 bd 6b 32 3e bd
       -0.08601098 -0.024720121 -0.09463105 -0.0464348
0001f0 55 31 42 3e cf f1 80 3b b8 46 7c bd 73 fb 84 3c
       0.18964131 0.003935076 -0.06159088 0.016233182
000200 25 03 b4 3d df 33 cb 3c b1 32 19 bb bd 00 cf 3c
       0.08789662 0.024805008 -0.0023376162 0.025268907
000210 b0 e2 7b bd 3f 88 7c bc df c8 87 bb 8f 7b a5 bd
       -0.061495483 -0.015413343 -0.0041438187 -0.080802076
000220 0c f5 52 3e b0 50 b7 3d 83 01 ee bd 25 4e e5 3c
       0.2060129 0.08950937 -0.11621382 0.027991364
000230 1e 5f 7e bd 90 51 fe 3d 47 3b 96 bc 6e b0 df 3c
       -0.06210243 0.124179006 -0.018338813 0.027305808
000240 91 8b 0c bc 74 c1 cd bb b5 77 b7 3b 1d 0b 52 3d
       -0.008578197 -0.006279165 0.005598987 0.05128013
000250 38 f6 c4 bd 11 07 0e 3d 85 01 93 ba b1 bb 00 be
       -0.09617275 0.034674708 -0.0011215663 -0.12571599
000260 ba ef dd 3b bd 51 07 3c c9 a1 8f 3d dd b1 cb bc
       0.0067729624 0.008259234 0.0701328 -0.024865085
000270 ec 42 05 be 96 7c 17 3c 60 44 bc bd f5 4a f7 bc
       -0.1301381 0.009246012 -0.09192729 -0.03018711
000280 5f 7a 6c 3d 0a 53 c1 3d 8b 7d a6 bc a4 5c c4 3d
       0.05773389 0.094396666 -0.020323535 0.09587982
000290 0c 32 f0 bd 9e 92 c0 39 21 8e ac bd 55 dc 8b 3d
       -0.11728296 0.00036730332 -0.084255464 0.068291344
0002a0 38 66 38 bd 94 45 06 3b b7 84 dc bd 8c bd 2c be
       -0.04501936 0.002048825 -0.10767501 -0.16869181
0002b0 55 db f7 3c 7d 94 da 3c cc 83 9c 3d 07 f6 28 be
       0.030255953 0.026682133 0.07642326 -0.16500102
0002c0 bb 92 b3 3b 15 75 41 bd 56 c9 0c be cd db 15 3e
       0.005480138 -0.0472308 -0.13748679 0.14634629
0002d0 98 23 ff bd 74 88 18 be 95 bd 0e 3e b5 d6 df 3d
       -0.12457961 -0.14895803 0.13939507 0.10929624
0002e0 81 6c 50 3b 9e 48 9a 3d eb 79 49 3e 53 a8 97 3d
       0.0031802955 0.07533382 0.19675414 0.07405152
0002f0 15 7f c0 bd c4 e4 72 3d 4e ff e1 bd 06 83 e0 bd
       -0.09399239 0.0593002 -0.11035024 -0.10962491
000300 e2 4a 3c 3c b8 3b 6b b9 5d 80 89 bd be bb fc bd
       0.011492463 -0.00022433593 -0.067139365 -0.123404965
000310 94 97 57 3e 83 4a 13 3c 70 f6 1b 3c fa 0d ef 3c
       0.21053916 0.008989933 0.0095192045 0.02918147
000320 f6 37 29 3d 3d d2 20 bd 3a 22 c4 3d 3b 9a cd 3d
       0.041313134 -0.039263 0.09576841 0.10039183
000330 89 c2 87 bb 60 a9 62 be 22 11 c7 bd f4 1d 9d bd
       -0.0041430634 -0.22134924 -0.09720065 -0.07671729
000340 41 66 f5 3d a9 3e 41 bd 58 6c 05 3e e6 4d 1b 3d
       0.11982394 -0.047178898 0.13029611 0.037916087
000350 49 87 8e bd 73 bf a6 3d ad e3 c5 3d 7b 71 91 bd
       -0.06959397 0.08141985 0.09662566 -0.07101723
000360 95 e8 89 3d c5 26 9b 3c 84 bb bc 3d b9 5e 7a 3c
       0.067338146 0.018939385 0.09215453 0.015281373
000370 57 b4 5a 3d af 73 88 3c f1 e8 f7 3d 0d 4b 7a 3d
       0.05339464 0.016656725 0.12104977 0.06110673
000380 4c d0 85 3d d5 71 0f be 3b 02 1c bd 7d 11 41 3e
       0.0653387 -0.14008267 -0.038088065 0.18854327
000390 04 34 08 bd d9 5a 96 3d b0 ef 94 bb 8f b9 53 bd
       -0.03325273 0.073415466 -0.0045451745 -0.051690634
0003a0 c9 88 4c 3d 64 5d d2 bd 84 2c bb 3c 88 b1 19 3e
       0.049935136 -0.10271719 0.022848375 0.15009129
0003b0 08 2f 3a bd 4d 97 dd bc bd e7 56 3d 07 45 2b be
       -0.04545501 -0.027049685 0.052467097 -0.1672555
0003c0 b5 c6 0b bd 27 d5 c5 bd c2 49 44 3d a6 22 29 bd
       -0.03412505 -0.09659796 0.047921903 -0.04129281
0003d0 4d 48 e7 bd 31 7c a1 bd 9e e2 d0 bc 43 43 36 3d
       -0.11293087 -0.07885016 -0.025498684 0.04449774
0003e0 35 32 71 bd 2e 0b 5e 3b 0d 9d d1 bd 4f 1a b6 bd
       -0.05888577 0.0033881175 -0.10235033 -0.08891737
0003f0 ed 07 78 3d e4 27 ea 3d 0d 6a 3d bd 00 16 d0 bd
       0.060554434 0.1143339 -0.046243716 -0.10160446

network_body.vector_processors.0.normalizer.running_mean f4 [133]
000000 00 00 00 00 29 2a ca 3e 22 35 c2 3d e1 3d 34 3e
       0.0 0.3948529 0.094827905 0.1760173
000010 00 00 00 00 0d 18 b6 3e ef e6 d5 3d 81 a8 3a 3e
       0.0 0.35565224 0.10444438 0.18228342
000020 00 00 00 00 70 94 ce 3e 20 af a0 3d 64 0d 23 3e
       0.0 0.40347624 0.078459024 0.15923077
000030 00 00 00 00 92 f7 86 3e 7a fe b4 3d ba 8b 22 3e
       0.0 0.26360756 0.088376 0.15873614
000040 00 00 00 00 89 9e b1 3e bd e0 95 3d 13 cc 1a 3e
       0.0 0.34691265 0.07318256 0.1511691
000050 00 00 00 00 c3 28 c9 3d 5e 16 c0 3d 50 30 19 3e
       0.0 0.09822228 0.09379266 0.14959836
000060 00 00 00 00 16 4b 95 3e 41 e2 51 3d fa 6a 00 3e
       0.0 0.2915885 0.051241163 0.12540808
000070 00 00 00 00 4c 9e 07 3d 0b f4 9b 3d 0c 81 fe 3d
       0.0 0.033109948 0.07614907 0.124269575
000080 00 00 00 00 dc 2c 60 3e db 55 17 3d f5 1f d3 3d
       0.0 0.21892112 0.036947113 0.1030883
000090 00 00 00 00 8a 9a 0d 3c dd 30 85 3d e8 00 de 3d
       0.0 0.008642802 0.065034606 0.108400166
0000a0 00 00 00 00 8f 0c 2b 3e 3a d3 05 3d 91 a5 be 3d
       0.0 0.1670401 0.032672144 0.09308923
0000b0 00 00 00 00 f1 1d 75 3b ba b4 7d 3d 6a 34 d6 3d
       0.0 0.003740188 0.061939932 0.10459216
0000c0 00 00 00 00 d2 fc db 3d cf 8a 28 3d 81 71 c7 3d
       0.0 0.10741581 0.041148003 0.09738446
0000d0 00 00 00 00 48 ff 3b 3b 0f f4 64 3d 32 7e c8 3d
       0.0 0.0028686095 0.055896815 0.09789695
0000e0 00 00 00 00 4f 60 4d 3d 84 ae f5 3c 01 be a6 3d
       0.0 0.050140675 0.029990442 0.08141709
0000f0 00 00 00 00 3f bf 11 3b e5 77 53 3d 6a ef c5 3d
       0.0 0.0022239236 0.051628012 0.09664805
000100 00 00 00 00 a0 ff c9 3c 2d 97 e7 3c 77 af 9e 3d
       0.0 0.024658024 0.028270328 0.07748311
000110 00 00 00 00 96 28 af 3a ca 55 3a 3d c7 d5 bc 3d
       0.0 0.0013363536 0.04549197 0.09220462
000120 00 00 00 00 32 5a 31 3c 35 d4 e6 3c fa 8d 9e 3d
       0.0 0.010824727 0.02817736 0.07741924
000130 00 00 00 00 c2 88 3f 3a 0e 58 22 3d 83 10 b7 3d
       0.0 0.000730645 0.039634757 0.08938696
000140 00 00 00 00 85 96 69 3b c8 81 d9 3c ce 2a a0 3d
       0.0 0.0035642695 0.026551142 0.07820664
000150 00 00 00 00 73 01 34 3a d3 c9 20 3d 74 19 c9 3d
       0.0 0.0006866671 0.039254975 0.09819308
000160 00 00 00 00 cb 9d a0 3a e4 af d9 3c 3f 17 ae 3d
       0.0 0.0012254057 0.026573129 0.085005276
000170 00 00 00 00 6b 02 a1 3a 9e 51 36 3d a6 16 f4 3d
       0.0 0.0012284046 0.04451143 0.11918382
000180 00 00 00 00 0a 7c 02 3a e0 34 e6 3c 5f 47 db 3d
       0.0 0.00049775897 0.028101385 0.10706972
000190 00 00 00 00 d7 d1 76 3a 03 44 3a 3d 09 5f 1c 3e
       0.0 0.0009415424 0.045475017 0.15270628
0001a0 00 00 00 00 57 c4 ea 37 30 48 ec 3c 25 5c 20 3e
       0.0 2.7986402e-05 0.028843015 0.1566015
0001b0 00 00 00 00 30 78 4e 39 bd 19 20 3d 7a 37 39 3e
       0.0 0.00019690464 0.039087046 0.18087569
0001c0 00 00 00 00 da b0 a7 36 b0 a8 e4 3c f8 b4 40 3e
       0.0 4.997576e-06 0.027912468 0.18819034
0001d0 00 00 00 00 d6 f5 81 38 20 16 eb 3c cc 3e 49 3e
       0.0 6.19699e-05 0.028697073 0.19652861
0001e0 00 00 00 00 d6 f5 81 38 20 16 eb 3c cb 3e 49 3e
       0.0 6.19699e-05 0.028697073 0.1965286
0001f0 11 96 4a 41 e1 d4 70 41 c3 d1 1e 41 72 71 89 40
       12.661637 15.051972 9.926211 4.2950983
000200 ff 40 77 41 31 a1 1b 42 38 94 8a 3e a1 36 c2 bd
       15.453368 38.907413 0.27066207 -0.09483076
000210 e5 ba e8 3f
       1.8182036
