Assets/nnmodels/BusAgent_disc2.onnx (onnx, 336986 bytes, 15 tensors)

93 f4 [127]
000000 1f c6 ee 3e c4 7c d4 3e 65 0e 98 3e e3 f3 9e 3e
       0.4663553 0.4150144 0.29698482 0.31045446
000010 33 c5 cd 3e 88 ac 99 3e 4c d5 9a 3e 8b 44 98 3e
       0.40189514 0.30014443 0.30240858 0.29739794
000020 7b 8b e4 3e 7c 39 c5 3e 26 de 94 3e 6e cc 9b 3e
       0.44637665 0.3852042 0.29075736 0.30429405
000030 df 7d b4 3e 17 8b 4c 3e 4b 04 9c 3e c5 23 97 3e
       0.35252282 0.19974934 0.30472025 0.29519477
000040 01 4b cc 3e 44 26 99 3e 11 02 99 3e 78 b5 8d 3e
       0.39900973 0.29912007 0.2988439 0.27677512
000050 27 7b a7 3e 3c de 0c 3e c4 4b 9b 3e 3a e1 95 3e
       0.32711145 0.1375665 0.30331242 0.29273397
000060 44 8c ac 3e 6f 01 4b 3e 6d 34 92 3e dd bc 86 3e
       0.33700764 0.19824766 0.28555623 0.26315966
000070 c6 81 9e 3e 0e e1 b5 3d 4f 33 99 3e b2 db 93 3e
       0.30958384 0.088808164 0.29921958 0.28878552
000080 15 d6 9f 3e f6 4f e8 3d f3 13 97 3e 00 f4 89 3e
       0.3121802 0.11343376 0.29507408 0.2694397
000090 02 9d 98 3e a6 32 95 3d f5 dc 94 3e f3 bb 90 3e
       0.29807287 0.07285051 0.29074827 0.28268394
0000a0 7a 54 9a 3e 65 10 87 3d 09 4b 97 3e 75 0a 8c 3e
       0.30142576 0.06594924 0.29549435 0.27351728
0000b0 ea 8b 91 3e fa 61 a1 3d e9 cd 8c 3e 22 12 8b 3e
       0.28427058 0.07880016 0.27500847 0.27162272
0000c0 09 08 97 3e ae 07 31 3d 57 b5 95 3e 99 13 8c 3e
       0.29498318 0.043220215 0.29239914 0.27358702
0000d0 e2 85 81 3e 67 51 ba 3d e9 e3 73 3e 32 b9 7a 3e
       0.25297457 0.090975575 0.2381741 0.24484709
0000e0 44 8f 90 3e ff d6 f1 3c c4 e6 8f 3e 2b fa 89 3e
       0.28234303 0.029521463 0.28105748 0.26948676
0000f0 b7 0a 61 3e f7 3c b9 3d 61 e3 4e 3e 33 dc 66 3e
       0.21976744 0.09044831 0.20203926 0.22544937
000100 43 f5 85 3e 1d c2 2d 3d 1e 70 84 3e e6 08 82 3e
       0.26163682 0.04242145 0.2586679 0.25397414
000110 e2 89 62 3e 0e 41 0d 3e 6a c4 34 3e ff 82 4e 3e
       0.2212291 0.13794348 0.17653051 0.20167159
000120 b4 85 44 3e bb f8 1b 3d bc e7 40 3e 6e 29 41 3e
       0.19191629 0.038079005 0.188384 0.1886346
000130 b0 e6 42 3e 6f 1d c5 3d 11 c9 29 3e 32 36 39 3e
       0.19033313 0.09624755 0.16580607 0.1808708
000140 24 d0 3f 3e d6 e9 3f 3d eb 23 3a 3e 16 72 37 3e
       0.18731743 0.046853863 0.18177764 0.17914614
000150 95 89 3f 3e 30 37 c5 3d ee cd 25 3e d7 b8 2e 3e
       0.18704827 0.09629667 0.16191837 0.17062698
000160 32 2c 3b 3e c3 7f 50 3d 8f 40 34 3e 23 f2 36 3e
       0.18278578 0.050903093 0.17602752 0.17865805
000170 c4 f4 5e 3e 7a 85 1b 3e 67 c7 23 3e 23 b9 29 3e
       0.21773058 0.15187636 0.15994035 0.1657453
000180 a9 23 46 3e 45 ff 8e 3d c8 bb 39 3e 70 ff 42 3e
       0.19349541 0.069822825 0.18138039 0.19042754
000190 ef c7 60 3e f0 cc 20 3e 88 4e 21 3e 74 a1 32 3e
       0.21951269 0.15703177 0.15752614 0.17444402
0001a0 c1 3b 48 3e 6b 14 9c 3d 71 86 39 3e b4 03 58 3e
       0.19554044 0.07621082 0.18117692 0.21095163
0001b0 a7 d4 55 3e 91 68 12 3e f6 4a 1f 3e a1 02 55 3e
       0.20881902 0.14297701 0.15555939 0.20801784
0001c0 b8 7e 46 3e 86 58 bd 3d 9b 06 30 3e 85 ef 7e 3e
       0.19384277 0.092454 0.1719002 0.24896057
0001d0 7c 32 40 3e 50 57 f5 3d ad 32 16 3e a1 31 82 3e
       0.18769258 0.11979544 0.14667769 0.2542849
0001e0 7c 32 40 3e 50 57 f5 3d ad 32 16 3e 9f 31 82 3e
       0.18769258 0.11979544 0.14667769 0.25428483
0001f0 3d e2 3f 40 2b 1f fe 3e 16 28 33 40
       2.9981835 0.49633154 2.7993217

action_model._continuous_distribution.mu.weight f4 [1, 128]
000000 db ea df bc 45 5a dd bb 27 15 03 bd 94 3b 1a be
       -0.027333668 -0.0067551457 -0.032002594 -0.1506179
000010 d6 f1 60 bd 7d 9e 58 bd 45 43 5c bb 09 66 eb 3c
       -0.054918133 -0.05288552 -0.0033609432 0.028735178
000020 65 d9 a1 3c 2b 44 d6 3d 6f 40 e4 3c c6 bc 5f bd
       0.019756982 0.10462221 0.027862756 -0.054623388
000030 96 6c a4 3b 31 0a f6 bc 44 4f 07 be a8 60 40 3d
       0.0050178273 -0.030034157 -0.13213831 0.04696718
000040 57 86 01 bb ec 96 ac bc e2 0b 4d 3c 3a 2f fd 3a
       -0.001976391 -0.021068059 0.01251504 0.0019316443
000050 0b 4f af bc 53 35 07 bd cd eb f3 3b ff 3c 6c bd
       -0.021399995 -0.03300984 0.007443881 -0.057675358
000060 a9 d3 50 3c 89 f4 7e bc 0a 6d a7 3b 75 09 18 bd
       0.012745776 -0.015561231 0.005109434 -0.037118394
000070 d6 49 76 bd 77 ae 8f bd 58 93 01 bd 08 71 9a bc
       -0.06012901 -0.070156984 -0.03163466 -0.018852726
000080 4e d3 f0 3c c0 c6 1d be 89 8f 67 3c 23 6d 8a bd
       0.029397633 -0.15407848 0.014133343 -0.067590974
000090 f7 e2 cb bd 46 37 cb 3a 53 90 c8 bd 9d 88 e8 bc
       -0.099553995 0.0015504144 -0.09793153 -0.028385455
0000a0 b8 6c 37 3d 18 73 3c bc d3 d0 2b bd 59 43 91 bc
       0.044781417 -0.01150205 -0.041947197 -0.01773231
0000b0 77 ea 1c bd 70 27 3b bd e2 ef 6e bd 3c 05 4f bd
       -0.03830954 -0.045691907 -0.05833424 -0.0505421
0000c0 af db 59 3b b1 8f f9 bd 83 22 62 bc c7 19 07 bb
       0.0033242514 -0.1218561 -0.013802174 -0.002061473
0000d0 08 f9 3d 3d d4 c2 ef bc 07 9e 97 3c 44 0b ec bc
       0.046380073 -0.029267706 0.01850797 -0.028813966
0000e0 66 00 f9 bb e0 63 1a be 77 49 8f bd 25 b0 c6 bc
       -0.0075989245 -0.15077162 -0.06996434 -0.024253914
0000f0 21 9b 5f bc f6 a4 eb bc a7 1e 0b bd a8 b2 1b 3d
       -0.013647825 -0.028765183 -0.03396478 0.038012177
000100 8b d9 01 bc 49 90 28 be ec 05 34 bd b5 84 e0 bd
       -0.007925401 -0.1646129 -0.04395096 -0.10962812
000110 9a 57 35 bc 0a 32 c4 bc 31 30 71 3b d3 c8 44 3c
       -0.011068249 -0.023949642 0.0036802406 0.012010771
000120 49 82 47 bd 22 a5 92 bc 5f b1 e4 bc 0b b2 fc bc
       -0.048708234 -0.017901007 -0.027916608 -0.030846616
000130 69 2c 81 3b 7f c3 01 3c 40 ca 87 bd 5a af 1c 3d
       0.0039420617 0.007920145 -0.06630373 0.038253166
000140 34 a6 a8 bd 52 f6 e4 bd 27 93 ac bb 04 39 06 be
       -0.08234826 -0.11179794 -0.0052665654 -0.13107687
000150 34 a1 33 bd 1b aa ce bd 3f ad 58 bd 7f 44 73 bc
       -0.043854907 -0.10091039 -0.052899595 -0.014847874
000160 3c 97 2e 3d a1 5e bc bd b9 56 23 be c7 be f6 3c
       0.042624697 -0.091977365 -0.15951051 0.030120267
000170 ef a3 79 bc 61 77 b9 bc bf 15 31 be 00 7f 74 bd
       -0.015236839 -0.022639932 -0.17293452 -0.05969143
000180 d7 6a ab bd 07 f8 4d bb 85 74 0a bd dd b2 61 bd
       -0.083699875 -0.0031428353 -0.033802528 -0.055102218
000190 76 2c d1 bd 36 22 2b bd 5c 02 79 bb 3f 05 46 bd
       -0.102135584 -0.041780673 -0.003799579 -0.048344847
0001a0 b1 ec 8c bc 38 12 37 bd d7 f6 ee bc 58 f0 59 bc
       -0.017202707 -0.04469511 -0.029170437 -0.013301931
0001b0 0a 47 11 be 4a f8 c7 3b 79 4a 98 bd fa 1f f6 bd
       -0.14187256 0.0061025964 -0.074360795 -0.12017818
0001c0 6f 81 03 bd 99 d6 e1 3c 20 7e ad bc 0a 94 42 bd
       -0.03210586 0.027568148 -0.021178305 -0.047504462
0001d0 26 f4 bf 3c 0e b6 26 bd b7 f9 0d bb 51 ba b0 bd
       0.023431849 -0.040700965 -0.0021663734 -0.08629287
0001e0 b3 6d 3e 3d 69 85 7a 3c f0 ea 15 bd 87 b4 dc bc
       0.046491336 0.0152905965 -0.036601007 -0.02694155
0001f0 31 41 b6 bd 42 90 52 bd 4a 1a 2f be 7d 03 60 bd
       -0.08899153 -0.051407106 -0.17099872 -0.054690827

action_model._discrete_distribution.branches.0.bias f4 [3]
000000 3e ca 3e bd 39 04 e8 3d fc 0e 6c bd
       -0.046579592 0.113289304 -0.057631478

action_model._discrete_distribution.branches.0.weight f4 [3, 128]
000000 30 4c 12 be cf 32 85 3c 51 1a 9f 3c e9 9d 03 3b
       -0.14286876 0.016259579 0.019421728 0.0020083135
000010 b7 27 06 3b 93 28 0f bd 72 c7 da bc 08 83 ba 3d
       0.002047045 -0.034950804 -0.026706431 0.091070235
000020 12 d2 73 bd 12 90 6d bd 82 90 b7 bc 91 ee 31 3b
       -0.05952651 -0.057998724 -0.022407774 0.0027150253
000030 22 46 63 bd 4a 5a 3a 3d 02 50 04 bc 3d 5b dc 3d
       -0.055486806 0.045496263 -0.008075716 0.1075959
000040 af 32 29 3b 4e f6 a0 bb a0 ce fb bb df e7 0a 3e
       0.0025817563 -0.0049121743 -0.0076845437 0.13565014
000050 d9 2f 3a 39 df f8 e5 bb 1a d7 4d be 2b 82 35 bd
       0.00017756167 -0.007018193 -0.20101586 -0.04431359
000060 02 0b 10 3e 29 6f f2 bc 2c 9c 38 bb 1a 26 9d bd
       0.14066699 -0.02959402 -0.0028169258 -0.07673283
000070 4c 48 7f bc 97 38 1d bc 2d 2a c8 bc 96 5f 12 bd
       -0.015581202 -0.009596012 -0.024434173 -0.03573569
000080 7c b9 8a bc 59 6a 28 bd 5d 6a cf bd db 37 c9 3c
       -0.016934149 -0.041117046 -0.10127709 0.024562767
000090 dd 39 79 bd 29 28 82 bc 88 9d db 3c 78 e0 e4 ba
       -0.0608462 -0.01588829 0.026808515 -0.0017461916
0000a0 b5 0d cc 3d 66 b2 0d bd 82 3d 84 3c b2 a7 97 bc
       0.09963552 -0.034593962 0.01614261 -0.01851258
0000b0 a7 3f 3d bd b6 31 b5 3c 5a b8 55 3d 3f 69 13 3d
       -0.04620328 0.02211843 0.052177764 0.035989042
0000c0 48 ba 04 3c 23 f7 95 3c 8a 2e 32 3d 62 65 02 3e
       0.008101054 0.01830632 0.043501414 0.12733987
0000d0 2d 2b 6a 3d b5 dd 42 bb 32 51 a6 bc 0c 12 15 bc
       0.057170082 -0.0029734198 -0.020302389 -0.009098541
0000e0 bd be d1 bd 96 49 66 bc 3b ba 43 bd b0 10 dc 3d
       -0.102414586 -0.01405563 -0.047785025 0.107453704
0000f0 c9 19 e6 3c 09 07 1f bb a2 be 6e 3d b8 c2 c5 bd
       0.028088467 -0.0024265668 0.05828727 -0.0965628
000100 41 d7 44 3d fe 66 b7 bc 87 a5 05 bb a1 c2 36 3d
       0.048056845 -0.022387978 -0.0020392851 0.044619206
000110 8b 4e 5f 3d f1 e0 7e bd 82 d7 d6 bc 1f ae 0c be
       0.054518264 -0.06222624 -0.026225809 -0.13738297
000120 19 42 60 bd 99 a0 7c bd b0 8c 8e 3d 2b 8e 87 bc
       -0.054750536 -0.061676595 0.06960428 -0.016547283
000130 f0 ba 1c 3c 5d 6f 91 3d 7b 42 0a 3c 0d 47 c8 bc
       0.009566054 0.07101319 0.008438702 -0.024447942
000140 36 a5 97 3c ae 5c bf 3c db 2a 04 3e 3d 2e fc 3c
       0.018511396 0.023359623 0.12906973 0.030783767
000150 da b5 d5 3c ca c3 89 3c f9 63 a5 3b 49 1d f5 bb
       0.02608769 0.016816992 0.005047318 -0.0074802977
000160 a4 c6 e0 3b 44 f1 d6 ba 14 6d 04 3d 9d 42 24 be
       0.0068596173 -0.0016398807 0.032330588 -0.16041036
000170 86 6e 55 bd bd 58 1a bd 51 cf 4a 3d 08 ef 99 bc
       -0.052107356 -0.037682284 0.04951412 -0.018790737
000180 dd a7 ab 3c c9 16 59 3c 19 3a da bc 62 ed 06 bd
       0.020954067 0.013250061 -0.026639031 -0.03294123
000190 4c 93 15 3c 14 8c 47 3d 18 c2 bd bd 52 96 96 3c
       0.009129357 0.048717573 -0.09265536 0.018382225
0001a0 d9 74 f3 bb d7 e2 d2 bc 4a 76 cf 3c 54 d5 95 bd
       -0.007429701 -0.025742931 0.02532496 -0.0731608
0001b0 2d 9a 0d 3c 5d 32 22 3d c4 fd ed 3c 87 66 e1 bc
       0.008642715 0.03959881 0.029051669 -0.02751471
0001c0 ae 60 ed 3c 27 29 20 3d 21 88 7b bc 3d 8a cb bc
       0.028976765 0.039101746 -0.01535228 -0.02484619
0001d0 aa c8 f0 3c 51 74 74 3c 17 21 cc 3b fd 2c 90 bc
       0.02939256 0.01492031 0.0062295306 -0.017599577
0001e0 13 a1 64 3b 3a 35 26 3e 92 d2 5a bd 13 24 ac bb
       0.0034886047 0.16231242 -0.05342347 -0.005253324
0001f0 ce c6 6b 3d cf 22 13 bd 21 df 03 3c 96 da a0 3c
       0.05756264 -0.035921868 0.008048804 0.01963548
000200 b4 0e 09 3e 88 92 f8 bb 35 56 21 3d 6a b5 b1 bd
       0.13384515 -0.0075858273 0.039388854 -0.0867718
000210 0c c0 0d 3b cc 81 08 3b 3f e0 89 3d 91 85 3f 3d
       0.0021629361 0.0020829318 0.06732225 0.04675824
000220 d3 ad 70 bc ff 04 eb 3d cf 71 ef 3d b5 7c 47 bd
       -0.01468988 0.11475562 0.11691629 -0.048702914
000230 64 8b 2e 3d e5 0c ab 3b 62 58 e2 bd 79 67 54 bd
       0.042613402 0.005220043 -0.11052014 -0.05185649
000240 1e 33 dd bc 90 07 ff 3c ec 75 81 3c 42 3e 66 bd
       -0.027001914 0.031131536 0.0158033 -0.056211717
000250 53 b9 f1 3c f5 a0 b0 3c 2e 3b b7 3d 4e 90 96 3a
       0.029507315 0.021561125 0.089468345 0.0011487098
000260 bd f6 4f bd 09 ff 55 3c 30 23 24 bd 9a 21 ab 3d
       -0.050772417 0.013061293 -0.04007262 0.08356018
000270 b9 9c 58 3c c1 32 49 bc 08 dd 6a 3d 37 37 0a bd
       0.013220959 -0.012280167 0.057339698 -0.033744063
000280 01 67 81 bd 29 44 8f bd 5f fd 1a bc 68 5e 5e bd
       -0.063184746 -0.069954224 -0.009459822 -0.05428925
000290 9b 60 ed 3b 6e c9 19 bd 9c 61 dd 3c 95 24 5a bc
       0.0072441823 -0.037545614 0.027024083 -0.013314386
0002a0 9b b7 31 bd 0a 21 48 3d 42 c6 c9 3d b9 41 98 3b
       -0.04338799 0.048859634 0.09852268 0.0046465066
0002b0 86 6a c3 3c 17 9c e0 bd bc 3b 59 bd 1e 94 02 bd
       0.023854505 -0.10967272 -0.053035483 -0.031879537
0002c0 b2 46 6a 3d 69 ca 90 bd 14 90 8f bd b7 4a 8d bd
       0.057196327 -0.07069857 -0.070099026 -0.06899016
0002d0 4c 17 77 bc 77 0e 21 bc b1 cc bb bc 9d 6c 25 3b
       -0.015081238 -0.009830109 -0.022924753 0.002524174
0002e0 0a 11 72 3d 21 44 56 bd fc 39 2a 3d d6 9e 84 bd
       0.05909828 -0.052311067 0.041559204 -0.06475608
0002f0 5b 70 3a bc ff 80 68 3d fc f0 94 3c 5d 4b 1c 3e
       -0.011379327 0.056763645 0.018181317 0.15263124
000300 b7 90 27 3d 52 8b ad bd 68 cb 25 bd 0a 77 24 bd
       0.040909495 -0.08473839 -0.040477186 -0.040152587
000310 05 ec 08 3c 97 43 94 3d 62 cc 8d bc 63 f8 fb 3d
       0.008357053 0.07239454 -0.017309371 0.123032354
000320 81 1e 05 3c d8 83 38 3e a9 e0 09 be 37 9f 3c 3c
       0.0081249485 0.18019044 -0.13464607 0.011512569
000330 95 a3 a8 bd 25 99 d1 3d 26 41 ae bc 92 a4 34 bc
       -0.08234326 0.10234288 -0.0212713 -0.011025565
000340 16 a3 11 bd d9 eb d3 bd 0b a2 50 bd db 57 9b bd
       -0.03555592 -0.10347719 -0.050935786 -0.075851165
000350 e3 ab 4e bd e2 d3 79 bd 10 31 da 3c 01 23 9a 3c
       -0.050456893 -0.060993083 0.026634723 0.01881552
000360 97 4c 5e bd 34 02 0e ba 7e 82 db bd 14 43 51 3d
       -0.05427226 -0.00054171984 -0.10718249 0.05108936
000370 8c 31 34 bb 84 c3 8a 3c a4 a4 f7 bd d8 6b a1 3c
       -0.0027495353 0.016938932 -0.120919496 0.019704744
000380 07 c4 92 bd 5e 69 02 3d 6e ba 85 3d ab 89 b6 3c
       -0.071662955 0.031838767 0.06529699 0.022282442
000390 2f 94 c4 bd e0 2e 6d bd 9d ea 78 3d 8d af d0 bb
       -0.09598576 -0.05790603 0.06077062 -0.0063685835
0003a0 14 90 b7 bc c6 46 d8 bc 58 50 2a bd 3c b4 b6 3c
       -0.022407569 -0.026400935 -0.041580528 0.02230274
0003b0 1e fa 85 bd 48 3e bb bd 15 25 12 bd bf 86 14 3a
       -0.06541847 -0.091427386 -0.035679895 0.00056658307
0003c0 b4 64 ed bd 2d d2 c7 3d 77 82 54 3d 81 ab b7 bb
       -0.11591473 0.09756885 0.051882233 -0.0056051617
0003d0 4e c9 48 3b 78 f4 01 3c d1 80 52 3c 85 76 3e bd
       0.0030637565 0.007931821 0.012848095 -0.046499748
0003e0 a0 5c 80 bd 67 94 59 bd b1 16 17 3d 25 ce 6c bc
       -0.06267667 -0.053120043 0.036886875 -0.014453446
0003f0 cd 2d 02 be 26 60 f1 3c 50 95 b3 bd f9 69 00 3c
       -0.12712784 0.029464792 -0.087687135 0.007837766

network_body.linear_encoder.seq_layers.0.bias f4 [128]
000000 0d 35 4b bd ae 65 35 bd 23 c7 1c 3c 3f d1 47 bd
       -0.04961114 -0.044286422 0.009568962 -0.048783537
000010 fd 7d 2c 3d de 38 3b be 5f ef 0c be 65 2b 39 bc
       0.04211234 -0.18283412 -0.13763188 -0.01130185
000020 b1 9a e4 3c 46 ef 27 bd 79 7b 44 3d 0b 03 45 be
       0.027905794 -0.040999673 0.047969315 -0.19239442
000030 0f e7 d5 bc 64 3a 27 bd 69 61 dd bc 20 8d 8b bd
       -0.026111154 -0.04082717 -0.027023988 -0.06814027
000040 58 2a c4 3c c9 00 cf bd a6 0f 88 bc b4 8b bd bd
       0.023945972 -0.10107572 -0.016609024 -0.09255162
000050 ac 76 88 3d f2 09 08 3c 2e 7d 5c bc 14 7d 77 bd
       0.0666326 0.008303152 -0.01345758 -0.06042202
000060 f9 17 eb bd 37 18 de 3b f9 61 a1 3c 58 c3 b6 3d
       -0.11479182 0.006777789 0.019700037 0.089239776
000070 53 e3 01 be 6b 85 a7 3c 4e 8f 8e bc 14 54 62 bd
       -0.12684374 0.02044936 -0.017402317 -0.055255964
000080 ee 99 d6 3d f1 7d da bd 8a 43 cb bd b1 44 89 be
       0.104785785 -0.10668553 -0.099249914 -0.2681022
000090 23 aa 26 bd 78 6e 34 bd 2a 72 cd bc 94 e1 87 3d
       -0.0406896 -0.044050664 -0.025078852 0.066348225
0000a0 b9 35 eb bd f4 63 b9 bd 73 39 9c bd 22 4a 02 be
       -0.11484856 -0.09052268 -0.07628145 -0.12723592
0000b0 b0 fa a7 3d 44 ac 83 bd 8a f3 ef bd 91 55 f1 3c
       0.08202112 -0.064293414 -0.11716373 0.029459747
0000c0 41 bd 8c bd 53 44 01 bc 01 8b a2 bd af d8 dc bd
       -0.06872035 -0.007889825 -0.07936669 -0.107835166
0000d0 6d d4 f0 bc b3 b5 4b be 51 08 b2 bc 9c cb fc bd
       -0.029398168 -0.19893532 -0.021732481 -0.12343523
0000e0 71 49 63 3d 59 b9 c1 3c 5d cb 97 bd b5 da a4 3c
       0.05548996 0.023647951 -0.07411835 0.020123819
0000f0 65 cc 51 3d 41 6c d6 bd 04 64 10 3d a9 c4 d9 bc
       0.051220316 -0.104698665 0.035251632 -0.026583033
000100 b0 c6 92 bd 50 f5 5d bc 0f 2d dc 3c 50 aa fe 3c
       -0.07166803 -0.013547257 0.026876954 0.03108707
000110 2b 8c 26 be 2a 4e 23 be 8a 0f a6 bb da 98 9c bd
       -0.16264407 -0.15947786 -0.0050677704 -0.076463416
000120 e1 3e c2 bd 43 a0 27 be 86 57 e4 bd 3e e4 41 bd
       -0.094846494 -0.16369729 -0.11149506 -0.04733681
000130 fe e4 0a 3d 6a af 05 be 28 12 d0 3d 44 77 d7 3c
       0.03390979 -0.13055196 0.10159713 0.026301987
000140 5c e2 c6 3c 67 3e 2b bd 73 4d ae bc 60 89 51 3c
       0.024277858 -0.04180756 -0.021277165 0.0127891
000150 7b dd 73 bd b2 80 85 bd 04 ae cc bd cc 58 9d bd
       -0.059537392 -0.06518687 -0.09994128 -0.07682952
000160 5e e3 38 3c 14 ef 2a 3d cc 25 c4 bd ca f3 f6 bd
       0.011284677 0.04173191 -0.09577522 -0.12058218
000170 bf 9c e8 bd 67 a3 e6 bd 47 7d 38 bc 14 05 63 bd
       -0.11358022 -0.11261635 -0.011260337 -0.055424765
000180 af 05 e4 3c 7f e4 57 bd 45 c3 04 bd 75 7a 6d bd
       0.027834741 -0.052708145 -0.032412786 -0.057978112
000190 46 66 e0 3c e3 44 a3 bd 01 cf ab bc 44 76 fc bb
       0.027392518 -0.079721235 -0.02097273 -0.007704528
0001a0 73 2a b2 bd ff 99 45 bd cc 56 5f bd e0 0d d9 bc
       -0.08699503 -0.048242565 -0.054526135 -0.026495874
0001b0 66 89 22 be 77 de 1c bd 80 d1 8b 3c d9 f0 35 bd
       -0.15872726 -0.038298097 0.01706767 -0.044419143
0001c0 38 aa d3 3b cd 7f 52 bd 9a 77 a2 bd 87 67 96 bd
       0.0064595006 -0.05139141 -0.079329684 -0.07343965
0001d0 c4 ca 66 bd e8 48 fe bd b2 16 8e 3d f1 9a a7 bd
       -0.056345716 -0.124162495 0.069379225 -0.081838496
0001e0 65 40 25 b9 45 fa a8 bc 09 df 95 3c 45 ca 8c bd
       -0.00015759615 -0.02062715 0.018294828 -0.06874517
0001f0 56 8c 23 bd 33 a0 cf bc 31 a0 6e bd 9f 91 83 bc
       -0.039928757 -0.025344944 -0.05825824 -0.016060648

network_body.linear_encoder.seq_layers.0.weight f4 [128, 127]
000000 e3 b8 9a bd d3 fb 2f 3e 95 fd b8 3d 80 29 81 3d
       -0.075547956 0.17185907 0.09032742 0.063067436
000010 ea 7e fa bd 75 c9 8a 3d 64 56 f9 bd 32 fa 69 bd
       -0.12231238 0.06776706 -0.12174681 -0.05712337
000020 c3 7b 18 be fb 13 86 3d 9c fc 56 be df 36 a0 3d
       -0.14890961 0.0654678 -0.209948 0.07822966
000030 c3 8e ca 3d 72 e6 d3 bc ea 61 bf bd a9 da ab bd
       0.09890511 -0.02586672 -0.093448475 -0.083913155
000040 b0 aa 42 3e a1 a1 0d bd fa 23 82 bd e7 28 92 bb
       0.19010425 -0.03457797 -0.06354518 -0.0044604423
000050 df d3 da 3d ef db bc 3d 5f ba 47 3b 43 af ce 3c
       0.106849425 0.092216365 0.0030476076 0.025230056
000060 10 a5 1c be 51 ee c8 3e 86 95 70 3d 15 37 c2 bd
       -0.15297341 0.3924432 0.058736347 -0.09483162
000070 10 e6 41 3d 89 17 26 be 2b da d8 bd 18 db a5 bd
       0.047338545 -0.16219915 -0.10588487 -0.080984294
000080 ff e2 b2 3d 14 db 88 3d 40 da f8 bd 0b f0 0c be
       0.08734702 0.06682411 -0.12151003 -0.13763444
000090 08 89 84 3c de f7 1e be 69 07 ab bd 2d 08 5f bb
       0.016178623 -0.15524241 -0.08351023 -0.0034031973
0000a0 15 2f d2 3b 9a cc e5 3d e5 b8 01 be ad 94 ba bc
       0.006414304 0.11220665 -0.12668188 -0.022775972
0000b0 b2 bb f7 3c c6 25 19 3e e6 ce b8 bd 4a 17 b7 3d
       0.030240867 0.14955816 -0.09023838 0.08939989
0000c0 33 26 7d 3e a6 09 c4 bd 3e e5 75 be d3 3f 1f 3a
       0.24721603 -0.09572153 -0.2401323 0.0006074879
0000d0 4d de 2e be d2 f3 ba 3d 90 a4 3d 3d 5c bd 80 3d
       -0.17076989 0.09128536 0.046299517 0.062861174
0000e0 fe d0 18 3d 89 56 4e bb 0c 01 5d bc eb b5 e4 3d
       0.037308685 -0.0031484684 -0.013489019 0.111675106
0000f0 c4 68 27 bd a1 b5 4a 3e f8 44 57 bd 40 aa a3 3d
       -0.040871397 0.19795848 -0.052556008 0.07991457
000100 f3 95 cc 3d 5b 9b 3f be 00 2c 51 3d 1c ba d4 3d
       0.09989538 -0.18711607 0.051067352 0.1038706
000110 14 04 01 bc 2d 01 32 bd 44 1e 13 3d a7 ca f9 bd
       -0.007874507 -0.043458153 0.035917535 -0.12196856
000120 bd 7b 80 3d 03 a0 a5 bc 65 c7 69 3d 56 0e 25 3e
       0.06273601 -0.020217901 0.057074923 0.1611875
000130 4f 6c 29 3d 98 a9 99 3d 8d b2 32 bd ef ea 8b bd
       0.041363057 0.075030506 -0.04362731 -0.068319194
000140 ef 4d ff bc a8 14 0a bc 5b 79 46 3e 59 13 cd 3d
       -0.031165091 -0.008427776 0.19382231 0.10013456
000150 63 9c 50 3e 23 d5 ad 3c 16 0c fa bd 95 6f e5 bd
       0.20372157 0.021219796 -0.122093365 -0.11202923
000160 18 99 4c be bd b8 e5 3d e7 ae 72 3d ca b4 50 bc
       -0.19980276 0.11216877 0.05924883 -0.012738416
000170 8b 0c 29 bd 14 ed ce 3d 0c c2 65 be 1e 89 3e be
       -0.041271728 0.10103813 -0.22437304 -0.18606994
000180 c8 db 04 3e ba 96 a7 3b 7f 71 c8 bd b2 96 14 bd
       0.12974465 0.0051144036 -0.09787273 -0.036276527
000190 15 d5 07 3d 48 f9 db 3d 10 14 74 be ae f2 8d bd
       0.033162195 0.10740906 -0.23835778 -0.06931053
0001a0 d8 06 d0 3d 9c c8 55 bb 59 2b 40 3e 5e d6 62 3e
       0.10157555 -0.0032620793 0.18766536 0.22152087
0001b0 98 3d 0a 3e bf cd d3 3d 9f 67 44 bd ae 5b 89 be
       0.13500059 0.10341977 -0.047950383 -0.2682776
0001c0 7d 4b de bd 5f 1d 1c 3e e5 8c 49 3e 58 38 47 3e
       -0.10854242 0.15245579 0.19682653 0.19455087
0001d0 69 7a 7a 3c 39 b2 b6 b5 8d f5 1c be aa 57 0c be
       0.015287974 -1.3611926e-06 -0.15328045 -0.13705316
0001e0 55 0f 0c 3e 56 84 4c 3e 0b bd 29 be 74 82 6d bd
       0.13677724 0.19972357 -0.1657602 -0.057985738
0001f0 7a c6 24 be 53 46 c9 bd b3 81 6b bc 84 d6 d9 3d
       -0.16091338 -0.098278664 -0.014374184 0.10636619
000200 33 4d 3c be 68 74 dd bd 2c b8 a2 3d cb 4d cf 3d
       -0.18388824 -0.10813218 0.07945284 0.1012226
000210 13 0e 59 bc b3 d2 1a be 0d d1 3a be ca 5d ba bd
       -0.013247984 -0.15119438 -0.18243809 -0.0909992
000220 46 dd 3e 3e 82 6b 80 bd 3f e0 88 bd 52 6e a1 3e
       0.18639097 -0.062705055 -0.066833965 0.3152948
000230 09 e9 2b be 32 17 bb 3d b8 03 45 bd 87 bc 97 bd
       -0.16788115 0.091352835 -0.04809925 -0.074090056
000240 dc d9 1f 3e 66 16 b2 b9 70 c9 9a 3d 6a 16 e2 3d
       0.1561045 -0.00033967494 0.075579524 0.110394314
000250 6a 0f d4 3d 48 8b 18 be e7 19 b8 bb 20 6c 1f 3e
       0.103545025 -0.14896882 -0.005618322 0.1556859
000260 c7 94 b1 3c 4a 3b 1c be b7 8a ed 3c ea 71 66 bd
       0.021677388 -0.15256992 0.028996808 -0.05626098
000270 f3 e1 63 3e 8b d6 ee bb fc 17 df 3d f4 5f 13 be
       0.22254162 -0.007288759 0.108932465 -0.14392072
000280 85 93 c7 bb 45 2c 64 bc 79 c1 38 3d e3 89 0c 3e
       -0.0060905837 -0.01392657 0.045106385 0.13724475
000290 2e b6 81 3c a6 90 2a be c5 d6 82 3d 28 d4 a3 bd
       0.01583394 -0.16656741 0.0638862 -0.0799945
0002a0 cf 59 25 3d 2b ea 2c be 12 79 2e 3d 1b 31 e6 bc
       0.04036885 -0.16886203 0.04259593 -0.028099587
0002b0 43 76 7e bd f8 09 02 3c 20 74 a7 bc a9 27 46 3e
       -0.062124502 0.007936947 -0.020441115 0.19351067
0002c0 2f 9b b0 3d c9 1e cf bd 92 ab 9f 3c b0 19 00 3d
       0.08623349 -0.10113294 0.01949099 0.031274498
0002d0 d5 fa a4 3d 2c af 8d 3e 0d 38 38 3e a4 d4 5d 3e
       0.08055655 0.27672708 0.17990132 0.21663147
0002e0 bb 0b 8e 3d 0e d5 1e be ea 42 27 be 34 89 bb bd
       0.06935831 -0.15510961 -0.1633412 -0.09157029
0002f0 fb d0 a4 3e cf 07 bf 3c da d3 ef 3d a8 ba a9 bb
       0.3219069 0.023319153 0.11710329 -0.005179722
000300 4f 76 d1 bd c6 bb 0c 3b 29 61 a6 bc e1 e8 a3 bd
       -0.10227644 0.0021474226 -0.020310001 -0.080034025
000310 d2 f0 5d 3d 79 f4 03 3e 44 45 59 3e 34 26 93 bd
       0.054184742 0.12886228 0.21217829 -0.07185021
000320 62 bc 31 3c ce 5a 55 3c db fb 3e be d9 c3 43 3c
       0.010848137 0.013022138 -0.18650763 0.011948549
000330 02 68 ad bd 1e eb d5 3d be 6c 52 3d 31 78 5b bd
       -0.084671035 0.10445236 0.051373236 -0.05358142
000340 7a 09 77 bd 2e 9e 15 3d 83 62 0b be 28 2c a0 3e
       -0.060311772 0.036527805 -0.13611798 0.3128369
000350 0e 84 f0 3c ad 35 00 3d 71 7e 81 3d 16 86 5f be
       0.029359844 0.03130119 0.06322945 -0.21828493
000360 d3 be d2 3d 8f 55 0f 3e 03 14 b4 bd 83 15 97 bd
       0.10290303 0.13997482 -0.087928794 -0.0737715
000370 38 84 c9 3a bc 20 04 3c c8 47 e4 3d 11 31 c3 bd
       0.0015374487 0.008064445 0.11146504 -0.09530843
000380 8a f5 8a 3e 29 06 fb 3d 58 4e 87 bd f5 45 0f be
       0.27140456 0.12257034 -0.0660674 -0.1399153
000390 32 b4 1a 3e 39 da 76 3e 53 a4 37 be 9e 86 6a 3d
       0.15107802 0.24106683 -0.17933778 0.057257287
0003a0 ae c4 08 3d e5 4f 0d 3e 46 e4 27 3e 0f de 91 bd
       0.033390693 0.13800009 0.16395673 -0.071224324
0003b0 b2 37 19 3e ba e2 8e 3d 5d 33 37 be f2 c3 31 3e
       0.14962652 0.069768384 -0.17890687 0.17359903
0003c0 ec a0 06 3d a1 16 f8 bd 07 31 5d bd 66 b5 35 3c
       0.03286831 -0.12113691 -0.054001834 0.011090612
0003d0 ff cc 61 bc b4 88 0a 3e eb d9 37 be d6 26 cd 3d
       -0.013781785 0.1352871 -0.17954223 0.10017173
0003e0 18 99 62 3d d6 0f dc 3d 78 ff 81 be 54 69 e6 3c
       0.055321783 0.10745208 -0.2539022 0.028126396
0003f0 94 11 88 3d 4b da 9c be c4 e6 8c 3e b1 94 45 be
       0.06643978 -0.30635294 0.2751981 -0.19295003

network_body.linear_encoder.seq_layers.2.bias f4 [128]
000000 de b2 08 be 6d 80 0f bd 4b 3d e4 bd c4 0a 65 bd
       -0.13349482 -0.035034586 -0.11144503 -0.05591847
000010 bd 13 a3 3d 37 03 86 3d 6c a3 92 bd c6 01 83 bc
       0.07962749 0.06543582 -0.071600765 -0.015992057
000020 2b f7 3b bd de 23 ae bd 26 f4 a1 bd f1 d9 2f bd
       -0.045890015 -0.08502935 -0.07907896 -0.042932454
000030 8a f8 22 bc f2 8e 06 bd 24 5b a4 3c 03 71 0c bb
       -0.009946952 -0.032851167 0.02006299 -0.0021429665
000040 51 f8 a9 bd 8a 34 62 bd 3c 80 df bd 09 a7 66 bc
       -0.08299316 -0.055225886 -0.10913131 -0.01407791
000050 c0 26 26 bc 7e 4d e1 bd 9a 42 fb bd 4d 6a b4 bd
       -0.010141075 -0.110011086 -0.122685626 -0.08809338
000060 dd 69 5a bd 0a 1f 03 bd 89 50 03 be 07 9e f8 3c
       -0.053323615 -0.032012023 -0.1282369 0.03034879
000070 64 c2 ab bd 7f 4c 55 bd 86 73 d6 bd de 01 bf bd
       -0.083866864 -0.052074905 -0.10471253 -0.09326528
000080 05 ad 94 3d 77 52 c0 bd 78 8d 10 be 4b 16 25 bd
       0.07259563 -0.09390729 -0.14116466 -0.040304463
000090 77 c1 20 bd 6e 7a 67 3b 60 79 53 bd 0a 16 f3 bd
       -0.039247002 0.0035320777 -0.051629424 -0.11869438
0000a0 c5 f9 3e 3b b3 fd b9 bd cc f4 1c bd 0e 28 8e bd
       0.0029140573 -0.090815924 -0.038319394 -0.069412336
0000b0 82 28 88 bd 0c da 49 3d b4 11 04 be 0e 40 7d bd
       -0.06648351 0.04928021 -0.12897378 -0.061828665
0000c0 6e 5e dc 3c 20 93 37 3d 3c 31 07 3d 32 3e 13 be
       0.026900496 0.044818044 0.033005938 -0.14379194
0000d0 41 24 69 bc 16 1e 91 bd 37 08 eb bc 4a 0f 93 bd
       -0.014229835 -0.070858166 -0.02869044 -0.071806505
0000e0 fe 49 29 be b0 10 3e 3d da b8 fc bd e9 be 02 3c
       -0.16532132 0.046402633 -0.12339945 0.007980087
0000f0 95 79 f0 bc 3a e8 7a bd af e8 f8 bc 2b 5a cc bb
       -0.02935485 -0.061256625 -0.03038439 -0.006236335
000100 5c 72 0d be 8c 30 9a bc 33 0d 06 bd 7d 40 ed 3b
       -0.13813156 -0.018821977 -0.03272743 0.0072403536
000110 e3 29 bb bd 5a 08 85 3d da 43 13 3b 92 d0 66 bd
       -0.09138849 0.064957336 0.0022470863 -0.056351252
000120 d0 89 28 be 1c 00 fb bc 79 40 96 3d 63 fa 7b bc
       -0.16458821 -0.0306397 0.07336516 -0.015379521
000130 50 c2 38 bc 37 d1 47 be 72 63 c1 bd 26 3f 5a bd
       -0.011276796 -0.19513403 -0.09442796 -0.05328288
000140 02 fc 7a bd b5 6b 15 bd 3d ea f0 bb 2c a2 0a be
       -0.06127549 -0.03647967 -0.007352142 -0.13538426
000150 10 70 2d bd d0 03 95 bd 04 c1 86 bd 5d ec 81 bd
       -0.0423432 -0.07276118 -0.065797836 -0.06343911
000160 c8 0c 0f be d8 5d 1f bc 44 5b 55 bc af 5e 27 bd
       -0.1396972 -0.009726964 -0.013022248 -0.04086178
000170 75 e4 5f be 86 f7 1d 3c 44 b5 7b bd 79 24 c2 bc
       -0.21864493 0.009641534 -0.061452165 -0.023699032
000180 13 f4 e2 bc 36 a1 db 3c 54 bf 12 be c4 6e e3 bc
       -0.027704274 0.02681027 -0.14330798 -0.027762778
000190 0e 7f 82 bd f5 9d 02 be 72 0a f0 bc 6b ca 74 bd
       -0.0637189 -0.12755568 -0.029301856 -0.059763353
0001a0 85 5e c0 bc 4f 48 38 3d a0 2a e7 3c 64 d1 3f 3b
       -0.02348257 0.044990834 0.028218567 0.0029269094
0001b0 df 96 8e 3a dd a9 e8 bd b8 dd 09 be b1 8d ec bd
       0.0010878703 -0.11360524 -0.13463485 -0.11550463
0001c0 3f 5a f4 bc 9d 89 f2 bd 0c c4 fb bd e8 cd 0e be
       -0.029828189 -0.11842654 -0.12293252 -0.13945735
0001d0 e0 00 f4 bd 6a d8 98 bc 3a 9b a1 3c 19 5e 71 be
       -0.119142294 -0.018657882 0.019727338 -0.23571052
0001e0 a4 2b b5 bd a4 d0 48 bd 8a 73 66 3c 75 96 3c bb
       -0.088462144 -0.0490271 0.014065633 -0.0028776203
0001f0 9a 74 30 bc d0 d0 76 bb f6 7a fd 3c 4b 1e be bb
       -0.0107699875 -0.0037661083 0.030942421 -0.005801951

network_body.linear_encoder.seq_layers.2.weight f4 [128, 128]
000000 1b 08 3a 3e 07 fb c7 3d 3f 07 97 3d db d3 9f 3d
       0.18167154 0.097646765 0.07374429 0.0780408
000010 9c 2c 14 3e 67 78 e3 3d f2 95 8e bc 57 f7 d2 bd
       0.14470142 0.11106949 -0.017405484 -0.103010826
000020 6e 4e 1d bd cd f6 57 3e 2b bd 94 be a1 fb 98 3d
       -0.038404875 0.21090241 -0.29050574 0.074698694
000030 e9 c7 e8 bd 68 c2 3b 3d 7c b6 2a be 0a 12 af 3d
       -0.11366255 0.045839697 -0.16671175 0.085483626
000040 6b 6d e7 bb f2 05 ce bd 41 6a f9 3c 31 8e f6 3d
       -0.007062604 -0.10059728 0.030446174 0.120388396
000050 e3 56 34 be 9f be 9f 3d 70 e1 0f bd fe d2 fc bd
       -0.1761127 0.0780003 -0.035127103 -0.12344931
000060 c5 ae 06 3d 2a 58 07 3e 71 ce 0c bd 68 3f 5d bd
       0.032881517 0.13217226 -0.034376565 -0.054015547
000070 50 23 0f be a6 db 58 be 6c 97 27 bd ae 90 81 bc
       -0.13978314 -0.21177539 -0.04091589 -0.015816059
000080 7f e9 2a 3e fd d1 17 be 75 aa 5d be a6 ed e7 bd
       0.16690634 -0.14826198 -0.21647055 -0.11324625
000090 da ab 85 3d 22 52 7b bd ac 7b 9d bd 0e c0 ae bd
       0.06526919 -0.061357625 -0.07689604 -0.08532725
0000a0 72 d3 9f bd 00 4d 1f 3d 76 93 45 bd 24 98 89 bd
       -0.07804002 0.038891792 -0.048236333 -0.06718472
0000b0 4d 1a b3 bd c0 29 dd 3d 03 4e f0 bd e8 3d f8 3c
       -0.08745251 0.10798979 -0.117336296 0.030302957
0000c0 6b 7b 82 3d 24 98 bf 3d 42 97 93 3b ca 5d 95 be
       0.06371196 0.093551904 0.0045041153 -0.29173118
0000d0 ed b6 98 3d d7 4f 6a 3c 85 e8 9e 3d ed 59 ea 3c
       0.07456765 0.014301262 0.07759193 0.028607333
0000e0 47 23 0f bd f2 92 70 3c 8d bc 34 3e da 19 c9 3b
       -0.034945752 0.014683472 0.17650051 0.006137115
0000f0 7a 1d 5f be 25 a2 b5 bd 48 e2 8a bd 7f 0c 11 be
       -0.21788588 -0.08868817 -0.06781441 -0.14164923
000100 41 62 ff bd 43 8f 18 be 73 6b 39 be 41 d1 d3 be
       -0.12469912 -0.148984 -0.18107395 -0.41370586
000110 41 b8 ec ba ad 9c 21 bd b1 e7 4a bd b6 89 72 3d
       -0.0018060283 -0.03945606 -0.049537364 0.059213363
000120 81 57 44 bd 7b 0a 4e bc 8d ea 05 3d 55 14 98 3d
       -0.047935013 -0.012575741 0.03269439 0.07425753
000130 2c dd 6b 3c 3b 8e 69 be dd c4 49 bd 31 02 c4 3d
       0.014395993 -0.22808163 -0.04926001 0.095707305
000140 3b 24 8f bd 90 12 40 3d b5 2f b3 bd ac c9 9b 3d
       -0.06989332 0.046892703 -0.08749334 0.07606825
000150 f7 49 b0 bd 8c 05 78 3c c5 ca 06 bd 79 83 b7 bb
       -0.08607858 0.015138041 -0.03290822 -0.0056003896
000160 78 d4 b8 bd 13 7d 64 be 1c ff 39 3d ab 0b e6 bd
       -0.090249 -0.22313337 0.045409307 -0.11232694
000170 fb 92 9c bd 4f e7 10 be 21 25 12 3e 14 f0 b1 bc
       -0.07645222 -0.14150737 0.14271976 -0.021720923
000180 10 b0 08 bd e1 cb 74 bd 9e 39 f3 3b d9 13 6e bd
       -0.03337103 -0.059764747 0.00742264 -0.058124397
000190 79 07 77 be ac a2 b6 3d c5 6a 86 be 0d 00 0c be
       -0.24123944 0.08917746 -0.26253334 -0.13671894
0001a0 5d a9 ad bd 56 a9 96 3d 61 dc b9 be 47 ef 71 3d
       -0.08479569 0.07356517 -0.36300948 0.059066083
0001b0 fe 8e ae 3b 6b 79 67 be fc f5 1a 3d ba 4d 1e be
       0.0053271046 -0.22604911 0.037832245 -0.15459338
0001c0 d9 94 88 3d eb af f7 bc fb c2 97 bd 9e 13 74 bd
       0.066690154 -0.030235251 -0.074102364 -0.05958902
0001d0 77 15 2f be c1 cd 69 bd 8a 6e 3a 3d 4f a9 60 3d
       -0.17098032 -0.057080988 0.045515575 0.054848965
0001e0 d3 97 c6 bd a7 0d 27 3c b5 0a 64 be 25 e3 0e 3c
       -0.09696927 0.010196126 -0.2226971 0.008721148
0001f0 49 ee 6e be a1 f2 28 3d 22 75 9d bd ec d0 b5 bd
       -0.23333086 0.041247014 -0.07688357 -0.08877739
000200 0a c6 98 bd 38 41 9e 3d 96 a4 58 be c1 b3 0e be
       -0.07459648 0.07727283 -0.21156535 -0.13935758
000210 50 d9 c7 3c f9 79 b3 3d 5e 9a 28 be 43 28 9c 3c
       0.024395615 0.08763499 -0.16465136 0.019062167
000220 91 91 0f 3c be 6c 05 be 7f 0a c6 3d 6c e8 3f 3e
       0.008762733 -0.13029763 0.09669971 0.18741006
000230 4d 72 6f 3c 99 78 a4 bd b6 0b d8 bd e7 d8 82 3e
       0.014614654 -0.08030815 -0.10549109 0.25556108
000240 34 e2 1d 3e 16 e5 6c 3d 66 5c de bd a9 6f de bc
       0.15418321 0.05783566 -0.10857467 -0.027152853
000250 5a 83 0d 3e 33 b2 51 3e 05 c8 f2 bc cd 11 dc 3d
       0.13819638 0.20478134 -0.029636392 0.10745583
000260 4e 63 7e be 2e d0 fd bd 86 9e 2c be 0c c3 3b 3e
       -0.24842569 -0.12393223 -0.16857347 0.18336123
000270 af 40 17 bb 2a b2 16 bd 6a f9 83 bd d2 cd d5 3c
       -0.0023079326 -0.036791004 -0.06444056 0.02609912
000280 f7 7d 21 be 3a 67 1f 3d 07 07 2d bd 1f 3c 44 3d
       -0.15770708 0.038916804 -0.04224303 0.0479089
000290 17 9b 7d 3d 4f 8b ac bd 4c b0 bf bd 43 61 e4 3e
       0.061915483 -0.084250085 -0.09359798 0.44605455
0002a0 40 60 3b 3e ba ac 08 be 3b f1 5a bd b3 91 21 bd
       0.18298435 -0.1334714 -0.05345271 -0.03944559
0002b0 d7 dd 6a 3e 16 1f 22 3e 46 ab 5a bd 31 21 52 3e
       0.22936188 0.15832171 -0.053385995 0.20520474
0002c0 60 ad bc 3d b5 53 f5 3d 31 39 32 3c 34 86 42 be
       0.09212756 0.119788565 0.010877893 -0.18996507
0002d0 0c 7e b3 bc 4c 18 02 bd a2 c5 94 be 43 52 2b be
       -0.02191069 -0.031761453 -0.29057032 -0.16730599
0002e0 2e c4 2a be 6c 9c 46 3e 0b 83 13 be 90 fd 19 3e
       -0.16676399 0.19395608 -0.14405458 0.15038133
0002f0 95 d5 1f be 9b 65 9b 3d 7a e5 15 be 07 89 09 3b
       -0.15608819 0.07587739 -0.1463832 0.0020986216
000300 21 8e 14 bd a4 21 74 3c da 7a 23 be f9 e5 de bd
       -0.036268357 0.014900599 -0.15964833 -0.108837076
000310 08 b0 34 be bc 94 5d 3c 25 d4 8e 3d a8 83 11 bd
       -0.17645276 0.013524231 0.06974057 -0.035525948
000320 c8 01 1a bd 4c 99 10 3e 27 67 05 be c8 66 9d bd
       -0.037599355 0.14120978 -0.13027631 -0.076856196
000330 f6 56 ed 3d 0c 55 8b be 42 ee 64 3d 44 9f 75 be
       0.11588852 -0.27213323 0.055891283 -0.23986536
000340 db b3 18 be cd a3 69 be 43 9e b1 3d 8e 61 5f bd
       -0.1491236 -0.22816391 0.08672764 -0.054536395
000350 d4 de 34 be 71 e6 f4 bc d8 a2 de bd 88 5c fa 3b
       -0.17663127 -0.02989504 -0.10870904 0.007640425
000360 6f 3d ba be b9 f6 83 bd 8d 34 6f 3d aa 95 6d bd
       -0.36374995 -0.06443543 0.058399726 -0.05800406
000370 43 ea 00 be dc d5 89 bd 42 90 96 be de 1d 12 bd
       -0.12589364 -0.067302436 -0.29406935 -0.035673015
000380 f3 71 01 3e ba 41 97 3d 76 ec 0d 3e 25 b7 11 bd
       0.12641124 0.07385583 0.13859734 -0.03557505
000390 dc 69 60 bd d2 27 cd bd f9 9f 0d bd 1e de 62 bc
       -0.054788455 -0.10017361 -0.03457639 -0.013846902
0003a0 32 76 fb bd ca 0f f1 3d ac 41 70 3e 4e 4a 90 bc
       -0.12278403 0.1177059 0.23462552 -0.017613556
0003b0 2f 1c 3b 3c 7c b7 38 be 8f 37 12 bd 2f 96 d7 3d
       0.011420294 -0.18038744 -0.035697516 0.10526692
0003c0 15 11 19 bd b3 91 03 3d fd 7a 8a bd 77 aa 2d bd
       -0.037369806 0.03212137 -0.067617394 -0.042398896
0003d0 3f ee 09 be f7 1b 9b be ff c1 a1 3d 83 3d e5 bd
       -0.1346979 -0.30294773 0.0789833 -0.11193373
0003e0 76 84 a0 3c 54 87 98 3d f3 6a 9d 3d 4e 2b 38 3e
       0.019594412 0.07447687 0.076864146 0.1798527
0003f0 27 ba 35 be 59 d4 47 3d a8 1c 80 be 36 1e 09 3e
       -0.17746793 0.048786495 -0.25021863 0.13390431

network_body.linear_encoder.seq_layers.4.bias f4 [128]
000000 29 29 98 3d bb b3 31 be 96 a8 2e bd 7c 93 74 3d
       0.07429726 -0.17353718 -0.042641245 0.059710965
000010 a9 f7 91 bd b3 0a fa 3b 73 ce af bd e9 e7 16 bd
       -0.071273156 0.00763067 -0.08584299 -0.03684226
000020 97 02 cd 3c ee f8 39 3d 16 6c 6f bd 2d 58 8f 3d
       0.025025649 0.045403413 -0.05845269 0.0699924
000030 1f 4a e1 bb 5e d7 88 be 20 19 21 3b 6b 68 fa bd
       -0.006875291 -0.26726812 0.0024581626 -0.122269474
000040 0b e3 98 3a 0e 8d 1a be f6 7f 78 be 96 07 b5 3c
       0.0011664344 -0.1509287 -0.24267563 0.022098344
000050 2d 1f 51 be 00 02 ad 3c 0e b7 7e 3d 28 e8 96 bd
       -0.20422049 0.021119118 0.062186293 -0.07368499
000060 f4 db 5e 3d e8 65 73 3d 19 b5 ec bc c2 dc 1d bd
       0.054408982 0.059423357 -0.028894948 -0.03854061
000070 f0 fe 5a bd f8 7d 82 bd 6c 96 56 bd eb 79 44 bd
       -0.053465784 -0.06371683 -0.052389547 -0.047967833
000080 2e 03 11 3d 4e 3a 0b be a6 ac c2 bd 7f 76 b4 bd
       0.035403423 -0.1359646 -0.09505586 -0.08811664
000090 41 68 1c bd 4d 5f af bd 9a 85 15 be 05 13 91 be
       -0.03818536 -0.08563099 -0.14601746 -0.28334823
0000a0 9c a1 48 bd f1 b7 22 3b fe 9d 8f 3d e3 07 da bd
       -0.048982248 0.0024828876 0.070125565 -0.106460355
0000b0 46 35 eb bd 12 b5 b7 bd 3c da 00 be 83 b9 9c 3d
       -0.114847705 -0.08970083 -0.1258325 0.07652571
0000c0 66 c4 ea bd e7 42 54 3d 63 2a 3d bc ea e7 a1 bd
       -0.11463241 0.051821616 -0.01154575 -0.07905562
0000d0 80 46 b2 bd e3 eb 4a be 4f 6c 0c be c8 47 48 be
       -0.08704853 -0.19816546 -0.13713191 -0.19558632
0000e0 18 2e eb bd a0 49 4a bd 4a c5 4b bd e5 36 b5 bd
       -0.11483401 -0.04938662 -0.049748696 -0.08848361
0000f0 71 ff 77 bd 1d 0c 2a be 04 63 2f ba e8 c4 f1 bd
       -0.060546342 -0.16606183 -0.00066904747 -0.11805135
000100 a4 71 99 3a 8d 1b bf bd 78 b0 74 bd 18 c8 5a bd
       0.0011706841 -0.09331427 -0.059738606 -0.05341348
000110 bc 56 61 bd fd b4 6d be 13 4e 69 bd 99 95 19 bd
       -0.055014357 -0.23213573 -0.056959223 -0.037496183
000120 bb e4 62 ba f0 d8 1d be c4 8d 2b 3c 30 15 de bd
       -0.00086552993 -0.15414786 0.010470811 -0.10843885
000130 2d 31 0f 3d 5b 9a b2 bd d4 d8 8d bc bb c3 09 bd
       0.034959007 -0.08720847 -0.017315306 -0.03363393
000140 b3 70 a0 bd 87 fb 97 bc 44 72 b7 bd 79 f6 00 ba
       -0.07833996 -0.018552555 -0.08957341 -0.000491954
000150 2c 4d 19 be 64 d9 89 bd d0 0d 75 bb 8c 50 c1 bd
       -0.14970845 -0.06730917 -0.0037392266 -0.09439191
000160 4d c5 fa bd 44 47 94 3c 80 ce 10 be 2a 68 24 be
       -0.122446634 0.018100388 -0.14141273 -0.1605536
000170 2e fe 90 3d 2e 98 fb bd 06 b7 2a be 90 cc 3f 3d
       0.07079731 -0.12284885 -0.1667138 0.046825945
000180 2d ef 93 be 59 f5 e2 3c 3f 0d 35 bc 3e c4 5d bd
       -0.28893414 0.027704882 -0.011050521 -0.05414223
000190 48 a8 84 be 8c 14 06 be d6 8c bc bd 9f 45 ab bd
       -0.25909638 -0.13093776 -0.0920655 -0.083628885
0001a0 ad e2 3a be 29 4d 78 bd ae a9 54 bc 46 39 29 be
       -0.18250532 -0.06062046 -0.012979908 -0.16525754
0001b0 16 05 85 bc e1 df 26 bd 1f cd d3 bd ea 20 bd bd
       -0.016237777 -0.04074085 -0.10341858 -0.092347935
0001c0 7c a0 64 bd ce ac 56 3c 76 c7 95 bd e4 00 04 be
       -0.055817112 0.013102723 -0.07313435 -0.12890965
0001d0 27 bf 2a bd ee 9c 48 bd 9d 8c 1b be 9d c9 98 bd
       -0.041686203 -0.048977785 -0.15190358 -0.0746033
0001e0 f1 9f 91 bd 85 85 92 bd 51 cf 68 bd cd 75 c4 3a
       -0.071105845 -0.07154373 -0.056838337 0.0014988721
0001f0 23 96 b1 bd e9 10 84 bd 5c bd 99 bd 47 b1 d5 bd
       -0.086712144 -0.06448538 -0.075068206 -0.104342036

network_body.linear_encoder.seq_layers.4.weight f4 [128, 128]
000000 57 eb 2c bd 5a 31 91 3d 8a 14 94 3d a8 b0 46 3d
       -0.042216625 0.07089491 0.0723048 0.048508316
000010 3f a5 a7 bb 83 91 2d 3d c4 94 91 be 30 85 0f 3d
       -0.0051161344 0.0423751 -0.28433812 0.035039127
000020 fc c4 c5 3d df 4a 31 3e c5 5a 72 3d 20 e7 02 be
       0.096567124 0.17313717 0.059168596 -0.1278348
000030 c1 d2 2b 3e 26 ad 0a 3d c4 93 80 3e 21 7c fe bd
       0.16779615 0.033856533 0.25112736 -0.124260195
000040 de 8e 7f be 06 36 29 be b8 d4 83 bd 6f 07 2a 3e
       -0.24956843 -0.16524515 -0.06437057 0.16604398
000050 a0 cd 80 3d a9 ca 3a 3d f4 6c dc bc 7f a5 20 be
       0.0628922 0.045603428 -0.026907422 -0.15688132
000060 71 9a cf bc eb 2f ed 3c d2 25 08 be 9d b9 8b 3b
       -0.025342198 0.028953513 -0.13295677 0.00426407
000070 b3 49 f7 bd 78 f6 02 3e a6 c8 90 3d ca 55 dd bd
       -0.12074604 0.12789333 0.07069521 -0.108073786
000080 cf 4d 34 3d ce eb b5 3a 97 03 b6 bd c4 fd 02 be
       0.044019517 0.0013879479 -0.088874035 -0.12792116
000090 75 08 15 3e b3 ba 96 3e f2 10 6f bd 92 bb 9e bd
       0.14554007 0.29439315 -0.05836577 -0.0775062
0000a0 27 b0 0c bc b0 5e ab bc 9c a9 6a bd 9f a3 46 be
       -0.00858692 -0.020919174 -0.05729066 -0.19398354
0000b0 42 df e7 3c 4e 8c cf bd 4f a1 c7 bd 07 7f c7 bc
       0.0283047 -0.10134183 -0.09747564 -0.024352564
0000c0 f5 fd 60 3e 64 f8 1a 3d e6 fb f9 bd 1e cc 1c be
       0.21971877 0.03783454 -0.12206249 -0.1531224
0000d0 2b 48 68 3e 15 f2 73 bd 40 d2 f5 3d fe 43 a9 bd
       0.2268378 -0.05955704 0.12002993 -0.082649216
0000e0 de ee d3 bd 30 2a b9 bd 7d 3c 4b 3e d1 7e 08 bd
       -0.10348295 -0.0904125 0.19847293 -0.033324067
0000f0 3c 04 1a 3e 40 d6 e6 bc 15 12 05 bd 6b f0 90 bd
       0.15040678 -0.028178334 -0.032487947 -0.07077106
000100 65 ca 5c bd 4f 96 ba 3d d1 4d 11 3e f2 08 12 bd
       -0.053903956 0.091107 0.14189841 -0.035653062
000110 46 af 4c 3e 52 46 86 bd 59 4b 22 3e e5 f9 53 be
       0.19988737 -0.06556381 0.15849055 -0.20700796
000120 bf 37 f9 bb 96 14 19 be 0a f3 3e bd 87 6b c8 bc
       -0.0076055224 -0.14949259 -0.0466185 -0.024465336
000130 2f a7 43 bd 41 27 ec 3c f0 87 b3 bd bc a0 84 3d
       -0.04776686 0.028827311 -0.087661624 0.0647597
000140 6e 47 68 3d bd af 04 be 90 69 ba bd bc 75 6b 3e
       0.056708746 -0.12957664 -0.09102166 0.22994131
000150 f7 08 a3 bd f5 2a 08 3e 93 ae af bd e0 ea fe 3d
       -0.07960694 0.13297637 -0.08578219 0.124471426
000160 2c a2 02 be 3a 7d 44 3d ca 0c 50 bb 7d 4f 8c bc
       -0.12757176 0.047970988 -0.0031745904 -0.017127747
000170 d4 34 2d be 45 18 9e bd 72 9b d8 3d 4a 58 40 be
       -0.16914684 -0.07719473 0.10576524 -0.1878368
000180 5f 69 11 3e 61 1b 43 3b d1 f4 2b 3d e7 1b 38 be
       0.14200352 0.0029770958 0.041981522 -0.17979394
000190 c7 05 19 3d 50 de 12 bd 73 4c a8 bd 31 3b 82 3c
       0.037359025 -0.035856545 -0.082177065 0.015897365
0001a0 57 24 58 3d 8c 26 1e be e5 b0 4b bd 3d 5e 20 3e
       0.05276903 -0.15444392 -0.049729247 0.15660949
0001b0 eb 9b 29 3e 3b 4d 3f 3d 44 ea 41 be 50 9f 6d bd
       0.16563384 0.046704512 -0.18937021 -0.05801326
0001c0 41 62 e2 3c 97 3c 95 38 83 03 e2 3d 5a af 06 be
       0.027634742 7.1161594e-05 0.11035826 -0.13152829
0001d0 d1 dc 26 be a4 93 da bd 54 1c 74 3e 6b ae 1c be
       -0.16295172 -0.106726915 0.23838931 -0.1530091
0001e0 c6 28 3f bd 39 70 8c 3d 17 33 3b 3e 09 74 f8 bd
       -0.046669744 0.06857342 0.18281208 -0.12131507
0001f0 f8 82 ed 3d 03 08 c7 3b 99 aa 26 3e 10 84 ca bb
       0.11597246 0.006073953 0.16276015 -0.006180294
000200 f6 8e 57 3d ee 3b 9e 3c 25 0c 14 bd d8 31 20 be
       0.052626573 0.019315686 -0.036144394 -0.15644014
000210 de 87 5b be 92 1f 3a 3d 5d 07 24 be 85 63 b5 bd
       -0.21438548 0.045440264 -0.16018434 -0.088568725
000220 04 08 5c 3b d1 77 b0 3c c1 a8 eb 3d 77 41 a1 bd
       0.0033574114 0.021541508 0.11506797 -0.078738146
000230 10 1b 68 bc a4 3b 68 bd 53 24 5c bd 53 58 17 3e
       -0.014166608 -0.056697503 -0.05374558 0.14779787
000240 34 dc cf 3d ef b4 5e bd cc 64 bd 3d 22 03 1d 3e
       0.10149422 -0.05437177 0.09247741 0.15333226
000250 18 e5 5a 3c 4a 8a 6a 3d a2 a8 7c bd 29 e7 45 3e
       0.013360284 0.05726079 -0.06168426 0.19326462
000260 b1 de bc bd d5 3e dd 3d 21 84 05 3e ad 98 43 be
       -0.092221625 0.10803 0.13038684 -0.1910121
000270 9f ff 03 3d 84 27 4e bd 69 e3 8e 3d ac 31 1f 3b
       0.0322262 -0.050330654 0.06976969 0.0024291081
000280 28 f6 3c be 1f 18 49 3e 0b f7 2e 3d d8 41 9b 3d
       -0.18453276 0.19638108 0.042716067 0.07580918
000290 fe 6a 6e 3c 82 a9 1e 3c 25 93 df 3d 9a 23 4d bd
       0.014551876 0.0096839685 0.109167375 -0.05008278
0002a0 b2 32 7e bd ec 0a 28 be 74 bc af bb b6 a3 12 3e
       -0.062060066 -0.16410416 -0.0053630415 0.14320263
0002b0 f4 99 a1 bd 73 e0 48 bd 7a 6b da bd 9f cc a0 bb
       -0.07890692 -0.049042176 -0.10665031 -0.0049072052
0002c0 04 55 aa bd 12 2b 52 be 5c 01 e5 b9 b4 c6 f5 3d
       -0.08316997 -0.20524243 -0.00043679297 0.1200079
0002d0 59 20 a2 3c 9d 8a 5d bd db 28 91 3d e6 04 82 3d
       0.019790815 -0.05408727 0.07087871 0.063485906
0002e0 63 e8 20 be c7 e3 9d 3d 48 a4 02 3e 87 ff f1 bd
       -0.15713648 0.07709461 0.12757981 -0.11816316
0002f0 35 25 e6 bd 5c 6b e6 bc 57 bc 9c 3d 86 11 cb bd
       -0.112375654 -0.028127365 0.076531105 -0.09915452
000300 2e 9f d6 3d 13 6d a5 bb 78 d9 a6 be c7 1c 75 3c
       0.1047958 -0.005048403 -0.3258779 0.014960474
000310 1e 42 f3 bc 04 36 9b 3d b4 75 ab be 65 30 dd bd
       -0.029694613 0.07578662 -0.33488238 -0.10800246
000320 84 94 31 3d aa 6e fa 3c e8 ed 03 bd 13 fd 39 bc
       0.043354526 0.030570347 -0.032209307 -0.0113518415
000330 4e 04 95 3c f3 83 62 3d ae 4c 41 3d 96 02 8d be
       0.01819053 0.055301618 0.047192268 -0.27541035
000340 53 f9 f6 3c 00 86 80 3d 9b 06 55 be 99 73 12 3e
       0.030148184 0.062755585 -0.20803301 0.1430191
000350 15 23 38 3d 96 55 1c 3e 22 98 10 3d 1e e7 13 3d
       0.04495533 0.15267023 0.035301335 0.036109082
000360 87 5f 0f 3e 0c dc 51 bd 6d c7 b5 bc b0 28 32 3d
       0.14001285 -0.051235244 -0.02218982 0.043495834
000370 5d f4 48 3e 5d 36 5d be e9 13 22 3d 68 c8 f9 bc
       0.19624467 -0.21602769 0.03956977 -0.030491069
000380 f6 fc 07 be 94 0e 0c be 9e a7 73 bd e4 84 e3 3d
       -0.1328009 -0.13677436 -0.059486024 0.11109331
000390 5c 01 88 3c 79 86 2d 3e 57 80 fd 3c 15 91 29 3d
       0.01660221 0.16945828 0.030944986 0.041398127
0003a0 98 cf 38 be c0 1e 74 bd 22 ee 71 be 80 e1 16 be
       -0.1804794 -0.059599638 -0.23625997 -0.14734459
0003b0 b0 69 98 bc be a1 47 3d c3 18 a7 3d 2f 8a ed 3c
       -0.018605083 0.048738234 0.0815902 0.028996555
0003c0 5a 41 6a 3c 70 73 94 3c 9e 94 8e 3d a4 cb c4 3d
       0.014297808 0.018121451 0.0696194 0.09609154
0003d0 93 d3 f5 bd 26 e3 5f bc f3 73 e2 3d b2 98 4c 3e
       -0.12003245 -0.013664996 0.11057272 0.19980124
0003e0 ed 76 9b 3d d0 93 a4 bd 17 72 93 bc 0c a2 8b bd
       0.07591043 -0.080360055 -0.017998738 -0.06818017
0003f0 2b 16 bc bd 75 b4 11 be 15 c3 0a 3d 7c 6d 64 be
       -0.09183916 -0.14228995 0.03387745 -0.2230739

network_body.linear_encoder.seq_layers.6.bias f4 [128]
000000 a1 b5 6f be db de f7 bc 89 47 06 be 96 b0 dd 3d
       -0.2340913 -0.030257633 -0.13113226 0.10824697
000010 47 89 09 bd 62 68 77 be 03 2e 41 3d f9 2f 90 be
       -0.033578184 -0.24160913 0.04716302 -0.281616
000020 2f 5c 98 bd 63 78 36 be a9 e0 b4 bc 73 69 79 be
       -0.074394576 -0.17819361 -0.022079783 -0.24356632
000030 ed 34 1a bd ed a0 c2 bd db 8a a6 bd 12 16 cc bd
       -0.03764813 -0.095033504 -0.08131953 -0.09965147
000040 e5 73 9a bc f0 ce 36 3c 81 c5 05 be 70 80 d3 bd
       -0.018854091 0.011157736 -0.13063623 -0.10327232
000050 fb 33 2b bd 0e 69 07 bd a1 84 1f be 22 1f 06 3d
       -0.04179762 -0.033059172 -0.15577938 0.032744534
000060 f4 c2 37 be 51 a3 c4 bd 93 fc 16 be 25 c7 a9 be
       -0.17945462 -0.09601463 -0.14744787 -0.33159748
000070 cc f8 79 3d 45 26 0e be 08 ed 26 3d 58 f3 7a be
       0.061028287 -0.13881786 0.040753394 -0.24506891
000080 8e ee 76 be c1 2b a1 be 41 4c 9a bb 28 e6 4d bd
       -0.24114439 -0.31478694 -0.004708797 -0.050268322
000090 a2 db c2 be d1 4d a1 be 4e 0a 78 bb 84 b4 ef 3c
       -0.38058192 -0.31504682 -0.003784794 0.029260881
0000a0 a6 ee 65 be e9 28 91 bc f4 e1 19 bc e1 7e 4a be
       -0.22454318 -0.017719703 -0.00939225 -0.19774963
0000b0 18 b1 f1 bc 51 1e 19 3c 35 9b 59 bc e3 b2 c8 3d
       -0.02950339 0.009345607 -0.013281633 0.09799745
0000c0 1b 3f 6d bb 56 c5 72 bd 61 c8 5e be 3f e0 8c bd
       -0.0036200944 -0.059270225 -0.21756126 -0.06878709
0000d0 b3 2f 4e be bb 37 a6 bd 2d e5 4e be 62 70 e0 bc
       -0.20135383 -0.081160985 -0.20204611 -0.027397338
0000e0 fa 68 74 bd ee 23 4e be a1 70 26 bd 4e 36 4d be
       -0.059670426 -0.20130894 -0.040634755 -0.20040247
0000f0 5a 85 a2 bc a8 16 50 bd b8 88 da bc 4b ed 3a be
       -0.019838978 -0.050802857 -0.02667652 -0.18254583
000100 b0 71 97 bd eb 5b 2e 3d b5 a3 90 bd 5d d4 91 3b
       -0.07394731 0.04256813 -0.07062475 0.0044503645
000110 31 52 7e be 11 fc 0e bd d7 e1 a0 bc 8b 45 4b bd
       -0.24836041 -0.034908358 -0.019638939 -0.04962687
000120 e3 ea 46 bd 4e fd 38 3d e5 60 2f be c1 e9 67 be
       -0.04856385 0.045163445 -0.17126806 -0.22647764
000130 81 9c 9a bd bc 71 96 3b 3a 9d 10 be 8b 6e 80 be
       -0.07549382 0.004591195 -0.14122477 -0.25084338
000140 a8 26 66 be 4f 26 34 be d7 62 2b be 4f 08 84 3c
       -0.22475684 -0.17592739 -0.16736923 0.016117243
000150 b9 22 25 be 85 16 09 be 3a 3b 06 be 9e a9 70 be
       -0.16126527 -0.13387497 -0.1310853 -0.23502204
000160 76 14 2b be 89 75 ad bd 81 8a 1d bc ed a4 f4 bc
       -0.16707024 -0.08469684 -0.009615541 -0.029863799
000170 49 da ca 3c 72 0d 6d be ad e5 01 be 80 37 05 bd
       0.02476229 -0.2314966 -0.1268527 -0.032523632
000180 d3 72 8a 3d 0a 1f 09 bd f9 7d bf bd 78 e9 ab bc
       0.06760182 -0.033476867 -0.09350199 -0.02098535
000190 1f b1 89 3d fa 70 19 bc 45 36 1a 3d 01 ee b3 3c
       0.06723236 -0.009365315 0.03764941 0.021964075
0001a0 05 ad 89 bd b9 9f 24 3c 6f 1c 25 bd c7 eb 2d bd
       -0.06722454 0.0100478465 -0.04031032 -0.042461183
0001b0 e3 72 86 be 2a 7e 10 3d f2 78 db 3c a5 64 2b be
       -0.26259527 0.03527657 0.02679107 -0.16737612
0001c0 56 99 f0 bc de 50 9a bd a9 7a 22 be 38 d4 04 bd
       -0.029369991 -0.075349554 -0.15867104 -0.03242895
0001d0 50 d2 0e bb 05 bf 14 be df f0 a4 be f1 38 ae 3d
       -0.0021792836 -0.14525993 -0.3221502 0.085069545
0001e0 03 41 0e be d6 17 5d bd 16 ac 16 be 3c 15 c7 bd
       -0.13891988 -0.05397781 -0.14714083 -0.09720847
0001f0 61 a0 be bd 47 12 b9 bc cc c7 21 be fb 35 03 bd
       -0.093079336 -0.022591723 -0.15798873 -0.0320339
