Assets/nnmodels/MoveToGoal.onnx (onnx, 72892 bytes, 7 tensors)

action_model._continuous_distribution.log_sigma f4 [1, 2]
0	0xbc89d227	-0.016823841
1	0xbc835986	-0.016033899

action_model._continuous_distribution.mu.bias f4 [2]
0	0x3c4de974	0.012567867
1	0x3b25828a	0.002525481

action_model._continuous_distribution.mu.weight f4 [2, 128]
0	0x3ccbe645	0.024890075
1	0x3d205a5d	0.039148677
2	0xb9393a0e	-0.00017664602
3	0x3cec7387	0.028863681
4	0x3d0a9b45	0.033839483
5	0xbc1007db	-0.008790935
6	0x3cdcc4ad	0.026949251
7	0x3c82022b	0.015870174
8	0xbd0f126e	-0.034929685
9	0xbd190de2	-0.037366755
10	0xbd2962fa	-0.041354157
11	0xbc788595	-0.015168567
12	0x3c2dbf68	0.010604717
13	0x3c70f568	0.014706947
14	0xbc815949	-0.015789645
15	0xbd314601	-0.04327965
16	0xbc16ecef	-0.009211763
17	0x3d622d07	0.055218723
18	0xbba67fdd	-0.0050811605
19	0x3bf6ca28	0.007531423
20	0xbbb5ec4c	-0.0055518504
21	0xb9b96aec	-0.00035365613
22	0xbc42c4cf	-0.011887743
23	0x3cbeb0f6	0.02327774
24	0x3cab5519	0.020914601
25	0x3c3d74b5	0.01156347
26	0x3cf7d695	0.030253688
27	0x3c7b762d	0.0153479995
28	0x3c54d3bb	0.012989934
29	0xbd378e58	-0.044813484
30	0x3c92f42f	0.017938701
31	0x3d01ea6c	0.031717703
32	0xbcdfe560	-0.027331054
33	0xbc7ea10a	-0.015541324
34	0xbd3baa87	-0.045816924
35	0x3c978f70	0.018501014
36	0x3cbbb751	0.02291456
37	0xbc6c1dd9	-0.014411413
38	0x3caa9e6e	0.020827498
39	0xba679fd5	-0.00088357675
40	0xbc5718ce	-0.0131284725
41	0x3d3b8033	0.045776557
42	0xbc6d3a1e	-0.014479188
43	0xbd6a959f	-0.057271596
44	0x3d1069a2	0.03525699
45	0x3cd1bc63	0.025602525
46	0x3c0ba091	0.008522169
47	0xbc49383b	-0.012281473
48	0x3c650386	0.013977891
49	0x3bf18ccd	0.007371521
50	0xbbecfa50	-0.007231988
51	0x3bdf0d5b	0.006807012
52	0x3ca5a1c1	0.020218732
53	0xbda1a3aa	-0.078925446
54	0x3cacbbe0	0.02108568
55	0xbb86a1f3	-0.0041086613
56	0xbc9f4bc8	-0.019445315
57	0x3d4a937f	0.04945707
58	0xbccaf87c	-0.02477669
59	0xbc092652	-0.008370953
60	0x3c601513	0.0136768995
61	0x3d602b9a	0.05472908
62	0x3c938942	0.018009786
63	0x3cb66c60	0.022268474
64	0x3d0612b2	0.032732673
65	0xbc5f9cb4	-0.013648201
66	0x3a9c569e	0.0011927669
67	0xbd1a4de5	-0.037671942
68	0xbbed3abc	-0.0072396677
69	0xbd3c76c8	-0.046011716
70	0xbc81228c	-0.015763544
71	0xbc85da42	-0.016339425
72	0x3c1c5ab0	0.009543106
73	0xbc81be15	-0.015837708
74	0x3c1b8eef	0.009494527
75	0xbd342c73	-0.043987703
76	0xbc9dda8d	-0.019269252
77	0x3cb1a904	0.021687038
78	0x3bbb40d3	0.0057145148
79	0x3d091541	0.033467535
80	0xbc29ce35	-0.010364105
81	0xbc606790	-0.013696566
82	0x3ccb685a	0.024830032
83	0xbb7c5643	-0.0038503564
84	0x3abeed7a	0.0014566623
85	0xbc7e85c6	-0.015534824
86	0xbce2e25f	-0.027695833
87	0x3ca32ff0	0.01992032
88	0xbc02abf2	-0.007975565
89	0x3bc136a0	0.0058964044
90	0xbd04ba26	-0.032404087
91	0xbd859907	-0.06523328
92	0x3cfcbe9e	0.030852612
93	0xbba88ed9	-0.005143982
94	0xbd474ce8	-0.048657328
95	0x3c9c14b1	0.019052835
96	0xbd1a2eca	-0.037642278
97	0x3ceb9fe6	0.028762769
98	0xbc0fc23e	-0.008774338
99	0xbcf2f46e	-0.029657569
100	0xbd161d2e	-0.03664892
101	0x3b8de2ff	0.0043300386
102	0xbd5df96e	-0.054192953
103	0xbd90bc29	-0.07067139
104	0x3b4612d6	0.003022363
105	0x3cd9e675	0.026599148
106	0xbcadc45d	-0.021211797
107	0xbcda97e6	-0.026683759
108	0xbb55dac4	-0.0032631615
109	0xbc47471e	-0.012162952
110	0xbc4693c5	-0.012120192
111	0x3c3e7599	0.011624717
112	0xbb496210	-0.0030728616
113	0xbc95eaf4	-0.018300511
114	0xbc6fedf2	-0.014644133
115	0x3c9ef39b	0.01940327
116	0x3c84837c	0.016175978
117	0xbc589cf4	-0.013221014
118	0xbca6788d	-0.020321155
119	0x3c408738	0.011750989
120	0x3c5512d2	0.013004975
121	0x3d250646	0.040289186
122	0x3b99857d	0.0046851025
123	0xbc80197a	-0.015637148
124	0xbd29c3c7	-0.041446473
125	0xbd746813	-0.059669565
126	0xbc496cf1	-0.01229404
127	0x3cbd9151	0.023140581
128	0xbc847226	-0.016167711
129	0xbc197b6d	-0.009367806
130	0xbc5d6ff1	-0.013515458
131	0x3d10e352	0.03537304
132	0xbd1b38bc	-0.037895903
133	0xbc8e4e4f	-0.017371325
134	0xbd189d8e	-0.03725963
135	0xbbc59064	-0.0060291756
136	0x3c840ca3	0.016119307
137	0xbc990504	-0.01867915
138	0xbbf944cb	-0.0076070777
139	0xbd098cce	-0.033581547
140	0xbc1d4515	-0.00959899
141	0xbc8cf650	-0.017207295
142	0x3c96433a	0.018342603
143	0x3ce8b11a	0.028404761
144	0xbd0f4eaf	-0.034987148
145	0xbc075e1e	-0.008262185
146	0xbc5b1aec	-0.013373118
147	0xbc5c6bf6	-0.013453474
148	0x3c0b22d8	0.008492194
149	0x3d25abf5	0.040447194
150	0x3c559f78	0.013038509
151	0x3c8aa491	0.016924175
152	0xbccfad2a	-0.025351126
153	0x3ce24a56	0.027623337
154	0x3b14d409	0.002270939
155	0x3c146dd7	0.009059391
156	0x3d0cf600	0.03441429
157	0xbcf85cdb	-0.030317714
158	0xbcfeb652	-0.031092796
159	0x3d347f49	0.0440667
160	0xbc6ed8a9	-0.014578023
161	0xbb214f61	-0.0024613964
162	0x3c2bfee9	0.010497787
163	0x3d003956	0.03130468
164	0xbbd70a3b	-0.006562499
165	0x3b7c8015	0.0038528491
166	0x3ccfd62c	0.02537068
167	0x3c8a21fa	0.016861904
168	0x3c3d68ea	0.011560658
169	0xbc4bf2d5	-0.012448032
170	0x3b1e0ed1	0.0024117718
171	0x3c4cf4d9	0.012509548
172	0x3c4b2f2c	0.012401383
173	0x3ad22c9f	0.0016035027
174	0xbc380731	-0.011232183
175	0x3bb9bbf9	0.00566816
176	0x3cad816e	0.021179881
177	0x3cde61e8	0.027146295
178	0xbd834210	-0.06409085
179	0x3bccaacc	0.0062459465
180	0x3d1d2468	0.038364798
181	0x3cd1b1f3	0.025597548
182	0xbc5ed0aa	-0.013599554
183	0x3a8a73b9	0.0010563052
184	0x3a738cc6	0.0009290691
185	0xbb30bfaf	-0.002696972
186	0xbcbdc173	-0.023163533
187	0xbc05e31b	-0.008171822
188	0x3c994b54	0.018712677
189	0xbc82453b	-0.015902152
190	0xbd001c96	-0.03127726
191	0x3ae756f9	0.0017649821
192	0x3c393afe	0.011305569
193	0x3c806ffe	0.015678402
194	0xbcc67445	-0.024225364
195	0xbbfe6145	-0.0077630603
196	0xbca8341d	-0.020532662
197	0xbc8b502a	-0.017005999
198	0xbcaafb3b	-0.02087175
199	0x3cac77cf	0.021053223
200	0xbcdb40f6	-0.026764374
201	0xbd11f27a	-0.035631634
202	0xbcf169ae	-0.029469337
203	0xbd1b5761	-0.037925128
204	0x3b9fcf6d	0.004877022
205	0xba9c80ee	-0.001194028
206	0x3c955ed1	0.018233689
207	0x3c3bc677	0.011460892
208	0xbd2db540	-0.04240918
209	0x3b1b08df	0.002365641
210	0x3d96a5b8	0.07355827
211	0x3d767f86	0.06018021
212	0xbcaec873	-0.021335816
213	0xbbf5af0e	-0.007497675
214	0x3c43779f	0.011930375
215	0xbd4f297f	-0.050576683
216	0x3be9fe9b	0.007140947
217	0x3b492753	0.0030693605
218	0xbcf8816a	-0.030335147
219	0x3d18affd	0.03727721
220	0xbd32b996	-0.04363402
221	0x3c7abe99	0.015304231
222	0xbd3699cb	-0.044580262
223	0x3d18d2ad	0.03731029
224	0x3cc3b667	0.023890687
225	0x3ca3eace	0.020009425
226	0x3d2b3ad1	0.04180414
227	0x3ba99511	0.005175241
228	0x3c832431	0.016008468
229	0xbcce72b9	-0.025201188
230	0x3ca17fac	0.019714199
231	0xbd284583	-0.041081917
232	0x3d1dd971	0.038537446
233	0xbc0ac100	-0.008468866
234	0x3d14816f	0.03625625
235	0x3c29c7db	0.010362591
236	0x3cbce780	0.023059607
237	0xbd2c3306	-0.042040847
238	0xbce15c08	-0.027509704
239	0xbc98e930	-0.01866588
240	0xbcbb3832	-0.022853944
241	0xbc85a1dc	-0.016312532
242	0x3c553c26	0.013014829
243	0xbdb15951	-0.08659614
244	0xbb5f9dfb	-0.0034121263
245	0xbcd86177	-0.026413662
246	0x39ffc680	0.00048785284
247	0x3ba610be	0.005067914
248	0x3ca50e37	0.02014838
249	0x3cb85a94	0.022504129
250	0xbb3b5b79	-0.0028588457
251	0xbd01cdd5	-0.031690437
252	0xbd3fa183	-0.04678489
253	0x3c4510d1	0.012027935
254	0x3b6d5a64	0.0036217207
255	0xbd935d7b	-0.07195564

network_body.linear_encoder.seq_layers.0.bias f4 [128]
0	0x3c406580	0.0117429495
1	0x3b266608	0.0025390405
2	0x3c0635ba	0.00819152
3	0x3c8e40c1	0.017364861
4	0xbc57289e	-0.0131322425
5	0x3cc7fa61	0.024411382
6	0xbbf5a47e	-0.0074964156
7	0xbc22f6e1	-0.009946556
8	0xbc0d8bd1	-0.008639292
9	0x3c81d9d7	0.015850944
10	0xbd048b05	-0.03235914
11	0x3c8f9c38	0.017530546
12	0x3c56536a	0.013081411
13	0x3c93c14d	0.018036509
14	0xbc323729	-0.010877409
15	0x3be8b2f1	0.0071014096
16	0x3d012141	0.031525854
17	0xbc738131	-0.014862345
18	0xbbade270	-0.0053065345
19	0x3d478ad7	0.048716392
20	0xbc1de886	-0.009637957
21	0xbca32eef	-0.01991984
22	0x3c1e4cb5	0.009661843
23	0x3a279dfd	0.00063940865
24	0xbc617d82	-0.013762834
25	0x3d205e16	0.039152227
26	0xbaf12ece	-0.001840079
27	0xbca49fb7	-0.02009569
28	0x3bff9a0c	0.0078003462
29	0x3cea88b2	0.028629635
30	0x3c97f8e8	0.018551305
31	0xbc0b7e37	-0.008513979
32	0x3c803456	0.015649956
33	0x3cb4c815	0.022068063
34	0x3b8560a0	0.0040703565
35	0x3cb2972f	0.021800606
36	0xbc8d614b	-0.017258307
37	0x3c90580a	0.017620105
38	0xbc1ca5f3	-0.00956105
39	0x3c5d36a0	0.013501793
40	0x3c4768b8	0.012170963
41	0xbc634a2c	-0.013872664
42	0x3c7df1ba	0.015499527
43	0xbd1d6858	-0.038429588
44	0x3c321242	0.010868611
45	0x3c950bd9	0.018194126
46	0xb92d4b2f	-0.00016526574
47	0x3cf08bcb	0.029363533
48	0xbc649d3d	-0.013953504
49	0xbd02e352	-0.03195507
50	0x3c0319c6	0.00800175
51	0x3d08f15b	0.0334333
52	0xbcd4ba55	-0.025967756
53	0x3c954789	0.018222587
54	0xbc50b92b	-0.01273946
55	0x3d1bb9b0	0.038018882
56	0x3d1812f1	0.03712744
57	0xbc976e25	-0.018485138
58	0x3cf77bcc	0.030210398
59	0x3b07913d	0.0020685934
60	0x3cd7662a	0.026293833
61	0x3ccc6fbd	0.024955625
62	0xbc806abb	-0.015675893
63	0x3cf2a7d1	0.029621037
64	0x3d075aff	0.033045765
65	0x3c1a4e47	0.009418077
66	0xbbef7df8	-0.007308718
67	0x3b8bf793	0.0042714565
68	0x3d3b288d	0.04569297
69	0xbb141647	-0.0022596286
70	0x3cf0c165	0.029389093
71	0xbcaaae91	-0.020835193
72	0xbc7fc4b2	-0.015610861
73	0x3c1a256d	0.009408337
74	0xbcfaa3c8	-0.030595675
75	0x3d51d5c6	0.05122926
76	0x3c0f26fc	0.008737322
77	0x3cf722cd	0.030167961
78	0x3da2831c	0.079351634
79	0xbb8042b4	-0.0039142016
80	0x3956c5ac	0.00020482269
81	0x3aa8c1cb	0.0012875138
82	0xbbe940a9	-0.007118304
83	0x3d7c9895	0.06166895
84	0x3beed74d	0.0072888494
85	0x3d072188	0.032990962
86	0xbc9e26d0	-0.019305617
87	0xbcc545f8	-0.024081215
88	0x3bf65215	0.007517109
89	0xbc52eac0	-0.012873352
90	0x3b6ba77f	0.003595799
91	0x3cfb1c08	0.030653015
92	0xbd1d56f0	-0.03841299
93	0xbc270aaa	-0.010195414
94	0x3c68c5f8	0.014207356
95	0x3c9ba6a8	0.019000366
96	0x3c8b8a48	0.017033711
97	0xbbc5bfd9	-0.006034833
98	0x3ce9ddad	0.028548086
99	0x3c6068e6	0.013696885
100	0x3ca45284	0.020058878
101	0x3cbe72dc	0.023248129
102	0x3c866549	0.016405718
103	0xbbd5238e	-0.0065044826
104	0xbc828155	-0.015930811
105	0x3b7dfb51	0.0038754533
106	0x3ccee4d1	0.025255593
107	0x3d152544	0.036412492
108	0x3d902841	0.07038928
109	0xbca5a983	-0.020222431
110	0x3ca11243	0.019662028
111	0x3c45fca8	0.012084164
112	0x3cc368e7	0.023853732
113	0x3c4f5f58	0.012657009
114	0x3ce43dc2	0.02786148
115	0x3c2a5fc1	0.010398806
116	0x3c28db7a	0.010306234
117	0xbca22cab	-0.01979669
118	0xbd275658	-0.04085383
119	0x3998f173	0.00029171593
120	0xbcc9a48e	-0.024614599
121	0x3d0839e8	0.03325835
122	0x3b482a62	0.003054284
123	0x3affc880	0.001951471
124	0x3cab9458	0.02094476
125	0x3c34b5fa	0.011029715
126	0x3d616795	0.055030424
127	0xbcdef341	-0.027215602

network_body.linear_encoder.seq_layers.0.weight f4 [128, 6]
0	0xbcbdaa94	-0.023152627
1	0x3e5ca332	0.21546629
2	0x3d784b75	0.060618836
3	0xbf0f9e30	-0.5610075
4	0x3e8a1130	0.26966238
5	0xbf0b2b22	-0.5436269
6	0x3f0da5a3	0.55330867
7	0x3d8bce46	0.06826453
8	0xbf75c662	-0.96005833
9	0xbe96a939	-0.29425982
10	0xbc2b1926	-0.010443008
11	0xbef0a3e7	-0.47000048
12	0x3f2f3c76	0.6845163
13	0xbc8eda78	-0.017438158
14	0x3ec077f6	0.37591523
15	0x3ebd802a	0.37011844
16	0x3e1421ed	0.14466067
17	0xbe1c9792	-0.15292194
18	0xbe1d65f3	-0.15370922
19	0xbdfcc7fe	-0.12342833
20	0xbea623ae	-0.32449096
21	0xbd4f5bbe	-0.0506246
22	0xbef6e619	-0.48222426
23	0x3e1f637b	0.15565293
24	0x3d8998ec	0.06718621
25	0x3defa937	0.11702197
26	0xbea34bfb	-0.31893906
27	0xbe2ce3bf	-0.16883753
28	0xbe6d18ec	-0.23154038
29	0xbeb8069d	-0.35942546
30	0xbe957681	-0.29191974
31	0x3d9b5be9	0.0758589
32	0xbe4e06bc	-0.20119756
33	0xbec6e691	-0.38847783
34	0xbe12ddde	-0.14342448
35	0x3e839c13	0.25705013
36	0xbd505fb0	-0.050872505
37	0x3ef4147d	0.4767188
38	0x3e63b1b4	0.22235757
39	0x3e77b5cb	0.24190442
40	0x3e3179d2	0.17331627
41	0x3f196c23	0.5993063
42	0x3d4bd904	0.04976751
43	0x3effe205	0.49977127
44	0xbe958a3a	-0.2920702
45	0x3ea2556c	0.31705797
46	0x3ee33a31	0.44380334
47	0x3f4faaaa	0.8111979
48	0x3d985386	0.07437806
49	0xbfab4b32	-1.3382323
50	0x3f122b38	0.57097197
51	0x3e3544e7	0.17702065
52	0x3e93ec5b	0.28891262
53	0x3ea3b231	0.31971887
54	0x3f3e393b	0.74306077
55	0xbf0dd985	-0.55410033
56	0x3de7e821	0.11323572
57	0xbeb2dd8b	-0.3493465
58	0xbf58250a	-0.8443152
59	0xbea183b7	-0.31545803
60	0x3cb8529e	0.022500332
61	0xbcfeb377	-0.031091435
62	0x3cdd0cb4	0.026983596
63	0x3eab9d05	0.33518234
64	0xbe94415d	-0.28956118
65	0x3bd05d58	0.0063587837
66	0xbd1d35e9	-0.03838149
67	0xbd70a6ae	-0.058752708
68	0x3d5a5388	0.053302318
69	0x3eb88f11	0.3604665
70	0xbee58146	-0.4482519
71	0xbe2d14c1	-0.16902448
72	0xbee527c9	-0.44756916
73	0xbf361d69	-0.71138626
74	0x3e63ef88	0.22259343
75	0xbddf294e	-0.1089655
76	0x3e248f50	0.16070294
77	0x3efa3b4e	0.4887337
78	0x3e61affe	0.22039792
79	0xbd97b9f6	-0.07408516
80	0x3e25b28a	0.16181388
81	0x3eb98de4	0.36241066
82	0xbe2092cf	-0.15681003
83	0xbf56d225	-0.83914405
84	0xbd65a0ab	-0.056061428
85	0xbf314c54	-0.6925709
86	0xbf17efbe	-0.5935019
87	0x3e999b24	0.30001175
88	0xbe4a4c72	-0.19755724
89	0x3ed7fac5	0.4218351
90	0xbeced69a	-0.40398103
91	0xbe274027	-0.16333066
92	0x3f1ff5ca	0.6248442
93	0xbf269007	-0.6506352
94	0x3eaea05d	0.34106722
95	0xbe47cdd3	-0.1951211
96	0x3d258403	0.0404091
97	0x3e684b8a	0.22685066
98	0x3de43424	0.111427575
99	0xbf6dfc31	-0.9296294
100	0xbf1db71c	-0.6160753
101	0xbf128ec8	-0.57249117
102	0x3ec85bf7	0.39132664
103	0xbdfe070a	-0.12403686
104	0xbf3e8861	-0.7442685
105	0xbe5ab055	-0.21356328
106	0x3eda7008	0.42663598
107	0xbe051f0d	-0.13000126
108	0xbe242d2b	-0.16032855
109	0x3dbfa1d7	0.093570404
110	0xbe1e69b4	-0.1547001
111	0x3eef8973	0.46784553
112	0x3f880f47	1.0629662
113	0xbdc5bc94	-0.09655109
114	0xbda5f439	-0.081032224
115	0xbe318f68	-0.17339861
116	0x3ed13a8a	0.40864974
117	0xbe4f3815	-0.20236237
118	0x3f06b2ee	0.52616775
119	0xbec61b31	-0.3869262
120	0xbea149b6	-0.3150155
121	0x3d8901ad	0.06689773
122	0x3ed6ac44	0.41928303
123	0x3e48e4c0	0.19618511
124	0xbed6e782	-0.419735
125	0x3ddb11ec	0.10696778
126	0xbe3df647	-0.18550979
127	0xbec50c5e	-0.38485998
128	0xbeb251fb	-0.3482817
129	0x3e83209c	0.25610816
130	0xbea7c8a8	-0.32770276
131	0xbc482b80	-0.012217402
132	0xbe7fd211	-0.24982478
133	0x3e4dc32c	0.20093983
134	0xbd5473c7	-0.051868226
135	0x3e527ab4	0.2055462
136	0xbe9ae7f3	-0.30255088
137	0xbc9eff75	-0.01940892
138	0xbf0ca717	-0.5494246
139	0xbe5a7bac	-0.2133624
140	0xbda51975	-0.08061496
141	0xbea91818	-0.33026195
142	0x3ea32bf4	0.3186947
143	0xbe96fb3b	-0.2948855
144	0xbccc2b63	-0.024923032
145	0x3cece49f	0.028917609
146	0x3f553e93	0.83298606
147	0x3e3abe95	0.18236764
148	0xbf7685af	-0.96297735
149	0x3dbc90eb	0.092073284
150	0xbe03081f	-0.12796067
151	0xbeb724f0	-0.3577037
152	0x3e4921ad	0.19641753
153	0xbe1f91db	-0.15582983
154	0xbde8ddb3	-0.11370411
155	0xbf13f45e	-0.5779475
156	0xbe18c3bb	-0.14918415
157	0xbe36c9aa	-0.17850366
158	0xbccec18e	-0.025238778
159	0x3ebf12e5	0.37319103
160	0x3e4558a3	0.19272093
161	0x3d0bd894	0.034142092
162	0xbdc64772	-0.09681596
163	0x3d49bd4e	0.0492528
164	0xbe612f66	-0.21990737
165	0x3ee7d6f2	0.45281178
166	0xbf03d513	-0.51497
167	0xbec27391	-0.37978795
168	0xbe4606d5	-0.19338544
169	0xbea0b1f7	-0.31385776
170	0xbd12091e	-0.035653226
171	0x3ead2147	0.3381445
172	0xbe252a68	-0.16129458
173	0x3e85fcf7	0.2616956
174	0xbe664249	-0.22486223
175	0xbe37f373	-0.17963962
176	0x3f59286c	0.84827304
177	0xbea6f9eb	-0.32612547
178	0x3ee2684c	0.44220197
179	0x3d0648c7	0.03278425
180	0x3e436ebc	0.1908521
181	0x3e259c2f	0.1617286
182	0x3e950cbe	0.29111284
183	0x3dd04123	0.10168674
184	0xbd0d2e7d	-0.034468163
185	0xbe03991c	-0.12851375
186	0x3e833785	0.25628296
187	0xbe9f5e6c	-0.31126726
188	0x3e7cbb16	0.24680743
189	0xbdae50ee	-0.0851153
190	0x3e2c3959	0.16818751
191	0x3e528d1f	0.20561646
192	0xbf270c92	-0.65253556
193	0xbebad3cb	-0.3648971
194	0xbebbc3b6	-0.36672753
195	0xbd02c521	-0.031926278
196	0x3e7cbda3	0.24681716
197	0x3ed51767	0.41619417
198	0xbdbad723	-0.09123065
199	0x3f12c364	0.5732939
200	0xbdd671f2	-0.10470952
201	0xbec80e1f	-0.39073274
202	0x3e127674	0.14302999
203	0xbefdbed9	-0.49559668
204	0x3ea16f23	0.31530103
205	0x3f3e2a5b	0.7428338
206	0xbe9889dd	-0.2979268
207	0x3dd4e98b	0.10396107
208	0x3e0917c4	0.13387972
209	0xbf09817d	-0.5371321
210	0x3d3e1436	0.046405993
211	0x3f207c93	0.62690085
212	0x3eb2059c	0.34769905
213	0xbe0d2cd7	-0.13786636
214	0xbf1603b7	-0.5859942
215	0xbf7ff40a	-0.9998175
216	0xbf23609a	-0.6381928
217	0xbe635de7	-0.2220379
218	0x3e41521a	0.18878976
219	0xbf259309	-0.6467748
220	0x3eb5e105	0.3552324
221	0xbe3dc1f8	-0.18531024
222	0x3f0ad370	0.5422888
223	0x3ec3e1cf	0.38258216
224	0x3f3bc4e8	0.7334733
225	0x3df69451	0.12040008
226	0xbe204e74	-0.15654927
227	0xbe82f1b5	-0.25575033
228	0x3f2368d9	0.6383186
229	0xbd843192	-0.06454767
230	0xbdb07d16	-0.08617608
231	0x3ed5c048	0.4174826
232	0xbd771b59	-0.060328815
233	0x3d30b5fc	0.043142304
234	0xbdd4e38a	-0.10394962
235	0x3f0c3e95	0.5478299
236	0x3e23cab7	0.15995298
237	0x3e6f7782	0.23385432
238	0x3e552abf	0.20817088
239	0xbe113490	-0.14180207
240	0x3e26d19a	0.16290894
241	0xbf195e5b	-0.599096
242	0x3f2ba3c6	0.67046773
243	0x3db8c5ca	0.090221
244	0x3ea8f68f	0.3300061
245	0x3ea1b947	0.31586668
246	0x3e226e5f	0.15862416
247	0x3f0efdb0	0.55855846
248	0xbe9ba39d	-0.30398265
249	0x3ed7cc14	0.42147887
250	0xbf0ae4d2	-0.542554
251	0xbd4e7d85	-0.050412674
252	0xbe13b123	-0.14423041
253	0xbcb5ffd2	-0.022216711
254	0x3e68a0f5	0.2271765
255	0x3ea75994	0.3268553

network_body.linear_encoder.seq_layers.2.bias f4 [128]
0	0x3c62c7ec	0.01384161
1	0x3c772821	0.015085251
2	0xbc1421e2	-0.009041281
3	0x3cc1b923	0.02364785
4	0x3d437fd7	0.04772934
5	0xbd3753d1	-0.044757668
6	0x3cb80ba5	0.02246649
7	0x3c84d626	0.016215395
8	0xbacb5f34	-0.0015516044
9	0xbc3164da	-0.010827268
10	0xbc06bdc7	-0.008223957
11	0x3d1583b6	0.036502562
12	0xbccd109a	-0.02503233
13	0xba4a1b44	-0.00077097514
14	0xbbfbc508	-0.0076834
15	0x3cc2b23c	0.02376663
16	0x3a3c714d	0.0007188514
17	0x3cac1e9b	0.021010688
18	0xbd0c79b5	-0.034295756
19	0x3b9b4b2c	0.004739186
20	0xbb1e1524	-0.0024121488
21	0x3cb29e52	0.021804009
22	0x3b431d45	0.0029772085
23	0x3c9a49b2	0.018833969
24	0x3ad09cba	0.0015915849
25	0x3c4227f6	0.011850348
26	0x3c911d16	0.017714065
27	0x3c990d09	0.018682973
28	0x3c991862	0.018688384
29	0x3d30fdac	0.04321067
30	0x3d03f179	0.03221271
31	0x3c9c54b0	0.01908335
32	0x37328b38	1.0642041e-05
33	0xbcf613f2	-0.030038808
34	0xbbe67d48	-0.0070339777
35	0x3c76b6f2	0.015058266
36	0x3c612cc4	0.013743583
37	0xbc998cc7	-0.018743886
38	0x3b6da6f2	0.0036262837
39	0x3b32685c	0.0027222848
40	0x3c8d5ae6	0.017255258
41	0x3d426ab2	0.047465034
42	0xbc9fd2b8	-0.019509658
43	0x3ae6bae5	0.0017603306
44	0x3c7003da	0.014649356
45	0x3c4e77e4	0.012601826
46	0xbc52457e	-0.012833951
47	0xbc6342c8	-0.013870902
48	0x3cb584b2	0.022158
49	0x3a95aec4	0.0011419882
50	0x3c93cf04	0.018043049
51	0xbb4cb677	-0.0031236687
52	0x3cb4025e	0.021973785
53	0x3cacda23	0.02110011
54	0x3c134f4e	0.008991076
55	0xbc23fbb7	-0.010008744
56	0xbcd5a811	-0.026081117
57	0x3d4274e2	0.04747475
58	0xbcdc77b3	-0.026912546
59	0xbcb0ee29	-0.021597939
60	0x3caf179d	0.021373564
61	0x3cae37ef	0.021266906
62	0x3c86fad0	0.016477019
63	0x3c08fd88	0.008361228
64	0x3ca48734	0.020084001
65	0xbb6b6761	-0.0035919773
66	0x3c7c5adc	0.015402522
67	0xbcbdabb7	-0.02315317
68	0xbcc8d12a	-0.0245138
69	0x3cb6bb93	0.02230624
70	0xba7fcf2d	-0.00097583496
71	0x3bb6ba98	0.005576443
72	0x3c59ed27	0.01330117
73	0x3ce66cdf	0.028128086
74	0xbbf37b4f	-0.007430471
75	0x3c46e8df	0.012140482
76	0xbba2f593	-0.0049731224
77	0x3c52b2e0	0.01286003
78	0xba3d309c	-0.0007217021
79	0x3caa190f	0.020763902
80	0x3d11c1fd	0.035585392
81	0xbc5fffc6	-0.013671821
82	0x3d308f91	0.043105666
83	0x3d029962	0.03188456
84	0xbc2387b5	-0.009981086
85	0xbbd3c99b	-0.006463242
86	0x3ca83c28	0.020536497
87	0x3ca2774b	0.019832274
88	0xbbb9e27d	-0.0056727515
89	0xbc9b2c9e	-0.018942174
90	0xbb23fcdb	-0.002502254
91	0x3cdc98e9	0.026928382
92	0x3cea82c5	0.028626809
93	0x3a9a7f4e	0.0011787207
94	0x3d756f41	0.059920553
95	0x3d0d1392	0.03444249
96	0xbbc1e70d	-0.005917436
97	0x3d0a38fa	0.033745743
98	0x3cb3054b	0.02185311
99	0x3b217744	0.0024637738
100	0x3c4fca30	0.012682483
101	0x3c947510	0.018122226
102	0x3c26790d	0.010160697
103	0x3d5f9a50	0.054590523
104	0x3c8d2561	0.017229738
105	0x3cf58bbf	0.029973863
106	0x3c21d353	0.009877044
107	0xbac0bfcf	-0.0014705601
108	0x3c6f60c3	0.014610472
109	0x3b2a191f	0.0025954915
110	0xbaa581ce	-0.0012627186
111	0x3c994d75	0.018713692
112	0xbbb6f95b	-0.0055839247
113	0x3b84e1de	0.004055246
114	0xb95d5c1c	-0.00021110516
115	0x3d0c7378	0.034289807
116	0x3cae955a	0.02131145
117	0xbcc029b4	-0.023457386
118	0xbbc335ec	-0.0059573557
119	0x3c92bf4d	0.017913485
120	0x3c2d6928	0.010584153
121	0x3c90616d	0.017624581
122	0x3b257a39	0.0025249852
123	0x3a9c597c	0.0011928524
124	0x3cb2ac19	0.021810578
125	0x3cea2414	0.028581657
126	0xba8f4f86	-0.0010933734
127	0x3bf52c60	0.0074820966

network_body.linear_encoder.seq_layers.2.weight f4 [128, 128]
0	0x3dd3a524	0.103342324
1	0xbcbf442e	-0.02334794
2	0x3d5d77d9	0.054069374
3	0x3cecc362	0.02890176
4	0x3d90dcf1	0.07073391
5	0x3daeec32	0.085411444
6	0xbde69489	-0.112587996
7	0x3d063b7d	0.032771576
8	0xbd99a79b	-0.07502671
9	0xbe257fa6	-0.16161975
10	0x3d9466dd	0.07246182
11	0x3c3b64f7	0.011437646
12	0x3dd491a6	0.10379343
13	0xbd49c9df	-0.049264785
14	0xbdb72d98	-0.08944243
15	0xbd8a981b	-0.06767293
16	0xbdd8812a	-0.10571511
17	0x3d6072a5	0.054796834
18	0x3d90ba49	0.07066781
19	0xbd0e5528	-0.03474918
20	0xbd13967e	-0.036032192
21	0xbc568cb1	-0.013095067
22	0x3ccc34a5	0.024927447
23	0x3e03fa24	0.1288839
24	0x3dc9e55d	0.09858201
25	0x3cd999cf	0.0265626
26	0xbdcca2c1	-0.0999198
27	0x3c12eb7c	0.008967277
28	0x3d330846	0.043709062
29	0xbcc51cdb	-0.02406161
30	0xbcf61274	-0.030038096
31	0xbdd5beb8	-0.10436767
32	0xbd7e9dc0	-0.06216216
33	0x3c6814fa	0.014165157
34	0x3d588c5e	0.05286824
35	0x3d5ba223	0.053621422
36	0x3cd117c3	0.025524026
37	0x3dea8038	0.11450237
38	0x3aa88366	0.0012856543
39	0x3cefb833	0.029262638
40	0x3d053f8f	0.032531317
41	0x3cf0185a	0.029308487
42	0x3e0844e9	0.13307537
43	0x3d3a238a	0.04544405
44	0xbdd0ec2f	-0.102012984
45	0x3d5b92ba	0.053606726
46	0x3e1c013c	0.15234846
47	0x3d64e2f7	0.055880513
48	0xbca69f83	-0.020339733
49	0x3d35d644	0.044393793
50	0xbd941c76	-0.07231991
51	0x3dc3694f	0.095415704
52	0xbd0ac35f	-0.033877727
53	0x3e058153	0.13037615
54	0xbe1d4d91	-0.1536162
55	0x3e0620d7	0.13098465
56	0x3d89d85e	0.06730722
57	0xbce991a3	-0.028511828
58	0xbdaa0ea4	-0.08303574
59	0xbd1b52f3	-0.037920903
60	0x3d1b1077	0.0378575
61	0x3e3ab72a	0.18233934
62	0xbd916db3	-0.071010016
63	0x3d9ddd38	0.0770821
64	0x3e00e5c7	0.12587653
65	0xbde9bc20	-0.11412835
66	0x3d552336	0.052035533
67	0x3d7398d7	0.05947193
68	0xbdd6bbc1	-0.1048503
69	0xbdb50523	-0.088388704
70	0xbcf887fd	-0.030338282
71	0xbd8bb5c6	-0.0682178
72	0xbdb28934	-0.08717576
73	0xbc204011	-0.0097809
74	0x3d1d3cf1	0.038388196
75	0x3e6e5122	0.23273137
76	0xbc756f37	-0.014980129
77	0xbd97b24f	-0.074070565
78	0x3c96550b	0.018351099
79	0x3caaaf7c	0.02083563
80	0x3dbd23a7	0.09235316
81	0x3e60d4af	0.21956132
82	0xbd9238af	-0.07139718
83	0x3deacce8	0.11464864
84	0x3d02dbbd	0.03194784
85	0xbcc3e36e	-0.023912158
86	0x3d02f784	0.03197433
87	0xbdd88a67	-0.10573273
88	0x3c2796de	0.010228841
89	0x3d88521a	0.06656285
90	0xbe30ac3c	-0.17253202
91	0x3d3f8423	0.046756875
92	0xbdad6e4f	-0.08468305
93	0x3e6c9db2	0.23107031
94	0xbcaf961f	-0.021433888
95	0x3d3a804d	0.045532513
96	0xbd3c232e	-0.045931987
97	0xbd791d46	-0.060818933
98	0x3d8629ed	0.065509655
99	0x3d6a4cf6	0.057202302
100	0x3b39cafc	0.0028349748
101	0xbe3cceb2	-0.18438223
102	0xbd408d85	-0.047009964
103	0xbd35b522	-0.044362195
104	0xbda1e61a	-0.079052165
105	0x3dbdb932	0.09263839
106	0xbd5ce2af	-0.05392712
107	0x3cace975	0.021107415
108	0xbe1694e1	-0.1470523
109	0xbe1756d0	-0.1477921
110	0x3de32126	0.11090307
111	0x3d4d0680	0.050055027
112	0xbd1a3737	-0.037650313
113	0xbdfd74ee	-0.12375818
114	0xbe521192	-0.20514515
115	0xbd575359	-0.05256972
116	0xbc5eb5a2	-0.013593109
117	0xbe1dfaf0	-0.15427756
118	0x3e106e66	0.14104614
119	0xbdd4972e	-0.10380398
120	0xbbbe2716	-0.0058029993
121	0xbda2d0e2	-0.079499975
122	0x3d6e7ecc	0.05822639
123	0x3d561f24	0.05227579
124	0x3e033b4d	0.1281559
125	0x3e887796	0.26653737
126	0x3d72348e	0.05913215
127	0xbe18e0a0	-0.14929438
128	0x3d592c38	0.053020686
129	0x3e16463a	0.14675227
130	0xbdcceb92	-0.10005869
131	0x3d91e46e	0.07123648
132	0xbd201fb7	-0.039092746
133	0xbccb3a54	-0.024808086
134	0x3bb46f27	0.0055064145
135	0x3d6a92b1	0.057268802
136	0x3d8657f3	0.06559744
137	0xbb78f58b	-0.0037988152
138	0x3db8e94b	0.09028872
139	0xbd8c79d8	-0.06859177
140	0xbc1c334f	-0.009533717
141	0x3e548d19	0.2075695
142	0xbbc2994c	-0.0059386846
143	0x3be7b6b2	0.0070713395
144	0xbdb778de	-0.089586005
145	0xbdff241f	-0.124580614
146	0x3db377a6	0.087630555
147	0x3bc6fe73	0.006072813
148	0xbbb94024	-0.005653398
149	0xbcdd1b0d	-0.026990438
150	0xbd1b1833	-0.037864875
151	0x3d74a359	0.059726093
152	0x3de0ae3b	0.10970732
153	0xbd2bf322	-0.041979916
154	0x3bbbaaf9	0.0057271686
155	0xbe02b084	-0.12762648
156	0x3e447527	0.19185315
157	0x3d5db783	0.05413009
158	0xbce38c4e	-0.027776863
159	0x3ddbd376	0.10733692
160	0x3e4325d2	0.19057396
161	0xbe12c3a3	-0.14332442
162	0xbd0a3c97	-0.03374919
163	0xbd206de7	-0.03916731
164	0xbcc64a3b	-0.024205318
165	0xbdebe954	-0.11519113
166	0xbe13eb91	-0.1444533
167	0xbc49d006	-0.012317663
168	0x3cbba146	0.02290405
169	0xbb421956	-0.0029617152
170	0xbd13dbaf	-0.03609818
171	0xbc8bef4e	-0.017081883
172	0xbde8df3a	-0.11370702
173	0xbc9fe3ec	-0.019517861
174	0x3df19481	0.11795903
175	0x3e47720e	0.19477102
176	0xbd004a99	-0.031321142
177	0xbdf2ad80	-0.11849499
178	0xbd26d473	-0.04072995
179	0x3e93a844	0.28839314
180	0x3d2aaa4e	0.04166632
181	0x3cca0caf	0.024664251
182	0x3d44426c	0.047914907
183	0xbd84ce6b	-0.064846836
184	0xbc32f06f	-0.010921582
185	0xbe1e8517	-0.15480457
186	0xbcadbd31	-0.021208378
187	0x3e10b1f5	0.14130385
188	0x3c8d436c	0.017244063
189	0xbcbca635	-0.023028472
190	0x3d4abaa5	0.049494404
191	0x3da5c93b	0.08095022
192	0xbc9fa0b5	-0.01948581
193	0x3e057c80	0.13035774
194	0xbd72b565	-0.059255023
195	0xbd64e563	-0.055882823
196	0xbd747fa0	-0.059692025
197	0xbca237d3	-0.01980201
198	0x3e88a5d1	0.26689008
199	0x3c984130	0.018585771
200	0xbd272c99	-0.040814016
201	0xbcf25308	-0.029580608
202	0x3c2a2811	0.010385529
203	0x3cf855c5	0.030314336
204	0xbd47cbe7	-0.04877844
205	0x3d9d11a7	0.076693825
206	0xbb3dc6d6	-0.0028957627
207	0x3c8eb252	0.017419014
208	0x3a373ef1	0.0006990275
209	0x3c595207	0.013264186
210	0xbd952ae1	-0.07283569
211	0x3d9b6eb4	0.07589474
212	0x3d5f258d	0.05447917
213	0x3d9db2f8	0.07700151
214	0xbd48e746	-0.049048685
215	0x3c8e3eb2	0.01736388
216	0xbdfa05a6	-0.122081086
217	0xbe7a58d9	-0.24447955
218	0xbd803aae	-0.06261192
219	0x3de46477	0.11151975
220	0x3cdf8f97	0.027290149
221	0xbd16073e	-0.036628
222	0xbe0497c2	-0.12948516
223	0x3dcaa0cc	0.09893951
224	0x3d50ce0a	0.050977744
225	0x3da3d3a6	0.07999353
226	0x3e29c920	0.1658063
227	0xbc831332	-0.016000364
228	0x3dd8e4a1	0.105904825
229	0x3dda32e9	0.106542416
230	0x3e16262d	0.14663
231	0xbc2ab946	-0.010420149
232	0x3d355101	0.044266704
233	0xbc1a2b36	-0.009409716
234	0xbdb82ec2	-0.08993293
235	0xbcb9adff	-0.022665976
236	0x3d17ddf0	0.03707689
237	0xbd87954e	-0.066202745
238	0x3d1cd359	0.038287494
239	0x3e11348a	0.14180198
240	0x3d13c9fa	0.03608129
241	0xbd9017aa	-0.070357636
242	0x3c458038	0.0120544955
243	0x3dbed7e2	0.0931852
244	0xbd9e2db8	-0.07723564
245	0x3e1693a8	0.14704764
246	0xbdb540bf	-0.0885024
247	0xbd4d4515	-0.05011471
248	0xbdacb6b8	-0.08433288
249	0xbd85604c	-0.06512508
250	0xbe19e9b3	-0.15030555
251	0xbe13769e	-0.14400718
252	0xbd38cb34	-0.045115665
253	0xbdd52583	-0.104075454
254	0xbdb9e34a	-0.09076555
255	0xbe0b3a52	-0.13596466
