OHSHIT (1)/Assets/nnmodels/2d.onnx (onnx, 181706 bytes, 11 tensors)

69 f4 [78]
00000000: 530d de41 4cd3 3d42 fedb d341 7f21 b53f
00000010: 2e93 eb3f 43a2 f73f f765 f941 9a88 2d42
00000020: 8a2b b841 0892 dc41 8497 2f42 2d97 bf41
00000030: f9c1 d741 5c40 6e42 97c1 b041 66d6 d741
00000040: b6c4 3742 8fa9 ac41 44a9 d541 bdcf 3642
00000050: c52c 0442 09bf d641 9d3a 3042 8c56 0142
00000060: c2f2 f541 c2cd 2e42 0b0b d841 206e db41
00000070: 4fb9 3042 11a8 cf41 7519 d541 c258 6d42
00000080: 97c1 b041 f67a da41 3efd 3842 8fa9 ac41
00000090: ddd3 d641 c7ba 3542 0541 fc41 25a4 da41
000000a0: 02fb 2e42 eb3f e941 2ee8 b43f c2c8 b53f
000000b0: dd5b b73f e4b7 b43f b6af b33f 0420 b43f
000000c0: 7c3e b53f aa79 b43f ee41 b73f c3a4 b43f
000000d0: 1aeb b43f 44bd b33f 216a eb3f 5f88 eb3f
000000e0: ae4f e83f c932 eb3f e4dc ed3f c4bd eb3f
000000f0: c9db eb3f e0c0 f03f 5a96 e73f 8ef4 eb3f
00000100: 117a e93f 28f9 ea3f 8c37 f13f 0726 f53f
00000110: 1a1f ef3f 582e f33f abfd 0440 ce3d f83f
00000120: aab0 f83f e6f9 fd3f b61b f03f 298b f23f
00000130: e259 0140 0d95 f03f
27.756506 47.456345 26.482418 1.4150847 1.8404291 1.9346393 31.174788 43.3834
23.02126 27.571304 43.897964 23.948816 26.969713 59.56285 22.094526 26.979687
45.9421 21.582792 26.70765 45.70287 33.04372 26.843279 44.05724 32.33452
30.743534 43.700935 27.005392 27.428772 44.180965 25.957064 26.63743 59.336678
22.094526 27.31004 46.247307 21.582792 26.853449 45.4324 31.531748 27.330149
43.745125 29.15621 1.4133356 1.4201891 1.432491 1.4118619 1.4037998 1.407227
1.4159694 1.4099629 1.4316995 1.4112781 1.4134247 1.4042134 1.8391763 1.8400992
1.8149316 1.8374873 1.8583035 1.8417287 1.8426448 1.8808861 1.8092759 1.8434007
1.8240377 1.8357286 1.8845077 1.915223 1.8681366 1.8998518 2.0779827 1.9393861
1.9428914 1.9841888 1.8758457 1.8948718 2.021111 1.8795487

action_model._continuous_distribution.log_sigma f4 [1, 11]
00000000: 44a7 9dbe 5b48 1bbe 20d0 ebbd ca32 a3be
00000010: f7d9 8dbe 7772 64be 72ba 41be fd9e 99be
00000020: be89 aebe 6750 5fbe 7888 53be
-0.30791676 -0.1516432 -0.11514306 -0.31874686 -0.27705356 -0.2230929 -0.1891878 -0.3000411
-0.34089464 -0.21808015 -0.20657527

action_model._continuous_distribution.mu.bias f4 [11]
00000000: 33b9 a33e 9bf4 003d 144a 393c f2d1 90bc
00000010: b6c1 cbbc 5ff5 f03c 0bbd 523c 38cc b2bc
00000020: 624f 9c3b 4a82 71bc ac11 953c
0.31977233 0.031483274 0.0113091655 -0.017678235 -0.024872642 0.029413877 0.012862454 -0.021825895
0.0047702054 -0.014740536 0.018196903

action_model._continuous_distribution.mu.weight f4 [11, 128]
00000000: 5fda 6dbe ddb0 813d 9e02 eabd f7c3 b1bd
00000010: 7dc0 10bd c3cb e53d d99e d5bd 3c4d 383d
00000020: f0e9 18be 0a1c 96bc 08f9 b03b de56 82bc
00000030: 0e56 6dbd 5269 85bc 01ab 79be 956e 803d
00000040: 46cc 8a3c 5bf8 f63d 1ba0 d43c 12be a23d
00000050: ccbb 98bd 5ed9 84bc e9f9 1dbe 854c bf3d
00000060: 5b8b bebc dc6f 0bbe 3af1 923d 8ead 683d
00000070: ed6d 453d a0d3 d9bc 2046 f13d a383 01be
00000080: f997 463d 045f 983d 8837 843d 868c 1a3d
00000090: 12fb acbe 6307 2dbd 46d8 7bbe c92c e7bd
000000a0: 5577 be3d cf92 743d 9acf b5bd ad33 033e
000000b0: 0890 5abc ae90 a4bd a387 e2bd cb30 4cbe
000000c0: 4192 803c 9c9a 983d b965 ba3d 1d41 f43d
000000d0: daa6 e23d d553 debc 4c81 b0bd abbd 83bd
000000e0: 32e0 9cbc 59dc 9a3d 9052 0dbe 3c72 a23d
000000f0: 46c6 753c 6fd5 27be 418a 09be e3c2 19bc
00000100: 78cc 95bc adfa 6a3d 4bdf edbd 9350 86bd
00000110: b880 49bd 9d3c 1abe 9696 15be fd47 c83d
00000120: 8b9b de3d 792b e63d c483 273c 3ce0 063d
00000130: d997 6dbe f8b3 5b3d 26c1 53bd 4b0d 813d
00000140: 9272 1cbd 3cbe c83d a4e9 da3c d27f b5bd
00000150: 3cbb 9a3d 0a7d 21be 9d03 97bc 3b1b 80bb
00000160: 69be 82bd f371 603d 3769 003b 7446 34be
00000170: 8e47 e53c 87d4 b83d be5c e0bd 68ef 72bc
00000180: e727 f0bd 56a3 ab3d 86ee 70bd baeb bcbd
00000190: 244d 0b3d 5bf0 e23c 554d fa3d cf80 663c
000001a0: c24e f03d d4c1 d83d 4f87 50be 3f6e 0c3d
000001b0: 9484 a93d d674 0c3c d1fb 08bd 07dd bf3d
000001c0: bcd1 45bc 5a0d 8f3d 3bf4 473b 2f2b 8b3b
000001d0: 3e1d 89bd d4fb 873d bee7 12be 0401 953d
000001e0: 3735 a2bc deb5 753d d7e8 e23b 8094 cfbd
000001f0: 8c18 b5be e7c3 89bd 58e8 abba f45f e8bc
00000200: fdff f13b 490c 1dbc 9fa1 ab3d 6e33 f0bc
00000210: 35eb 0ebd 481f 96bc 3923 ffbb 9a67 3a3d
00000220: fdeb 81bd e64a b83c c0e3 223d 37c7 453d
00000230: ad3c 513d bc69 043c 17ae 7dbd 0487 683d
00000240: 4cac 473c d1d7 7ebd edf1 873d 4f7f 8c3b
00000250: 70d4 c2bd 6436 99bc 3a29 9dba 19eb c6bc
00000260: 5172 61bc e420 47bc 98d3 2bbd a6f5 8e3d
00000270: 88eb b6bd 49f6 713d b909 b33b 0dd6 d63d
00000280: 2c82 0fbd 2594 24bd 4afa 323d cd5b c03d
00000290: 3fbf 6bbb 5a34 a13d 10e9 a1bc 6442 3d3d
000002a0: 5c33 493b 5c40 ef3d 6d77 713c 1b6e 1b3c
000002b0: 025b 8cbd a891 413d 9c45 2f3d 94fe 89bc
000002c0: f16a bebc e8b4 7dbd e337 84bd a9b3 353d
000002d0: a751 b03c b53b 703d d1e0 4fbd 9e67 b83a
000002e0: 8c33 e73d 27a7 07bd 4ffd 42bd 0a82 1dbd
000002f0: a845 073d fa84 f1bc ac07 36bd 3253 22bd
00000300: df65 1fbc 544c 343d 3735 fdbc 4ff2 11bd
00000310: d121 b83d 5227 2abd d6a2 ffbc 9a6d 85bd
00000320: 7d2b 77bc c8b6 353c 6ec4 31bd 8568 2d3e
00000330: 2aa4 d2bc 70ec 7b3c 8755 e03d 74a7 57bc
00000340: 5fb8 be3c 927e aebc 1b7a 21bc 8652 ca3c
00000350: 6980 973d beb9 78bc bce0 8dbd c479 25bb
00000360: e83f 43bc ab0f 0f3d 3773 bf3c dd8f 813d
00000370: d63d 88bd f559 cf3d 02c2 73bd 56ab 583d
00000380: 7ff7 3ebd 9609 b43d 390a edbd fac1 273d
00000390: 228d cdbc 1f39 d43d 39da eb3d 73a4 983d
000003a0: e2f7 583d 6adb 033d d708 80bd 27c7 943c
000003b0: 2554 5c3d fecb 9f3d 40d8 5b3d 2e6d 5d3c
000003c0: 2c8f 92bd 0bb6 70bd d618 b53b 5ead 6ebc
000003d0: ca94 46bd 4316 af3c cb28 87bc 42d3 953d
000003e0: 6598 0fbd c1af 913d e651 bc3a 0c63 cb3d
000003f0: 8f74 9cbd 68e5 473d aa7e c33d 01ea 5abd
-0.23227833 0.06332562 -0.114262804 -0.086799555 -0.03533982 0.11220505 -0.104306884 0.04499553
-0.1493299 -0.018323917 0.0054007806 -0.015910562 -0.057943396 -0.016285572 -0.24381639 0.06271092
0.016943108 0.12059089 0.02595525 0.07946409 -0.074576944 -0.01621693 -0.15427364 0.09340767
-0.02325981 -0.1361689 0.071749166 0.05680614 0.048200537 -0.026590168 0.117809534 -0.12647872
0.048484776 0.07439998 0.06455904 0.03773167 -0.337853 -0.042243373 -0.2459422 -0.11287839
0.093001045 0.05971032 -0.088774875 0.12812681 -0.013340004 -0.08035408 -0.11061027 -0.19940488
0.01569474 0.074513644 0.09101433 0.11926482 0.11066981 -0.027139584 -0.086184114 -0.06432661
-0.019149873 0.07561559 -0.13801026 0.07931945 0.015000885 -0.16390012 -0.13431646 -0.0093848435
-0.018285975 0.05736797 -0.116148554 -0.06558337 -0.04919502 -0.15062185 -0.14608225 0.09779356
0.10869511 0.112387605 0.0102242865 0.03292869 -0.23202457 0.05363843 -0.051697873 0.063013636
-0.0381952 0.09801909 0.026722737 -0.088622704 0.075552434 -0.15770355 -0.01843434 -0.003909496
-0.06383974 0.05479617 0.0019593963 -0.17605 0.027988221 0.090249114 -0.10955189 -0.014827587
-0.11726361 0.08380763 -0.058821224 -0.09224649 0.034009114 0.027702501 0.12221781 0.014068796
0.11733772 0.10583845 -0.20364116 0.034284826 0.082772404 0.008572778 -0.033443276 0.093683295
-0.01207393 0.069849685 0.0030510563 0.0042470912 -0.06695031 0.06639829 -0.14346215 0.07275584
-0.019800765 0.059987895 0.0069247293 -0.10135746 -0.3537029 -0.067268185 -0.0013115508 -0.028366067
0.0073852525 -0.009585449 0.08380436 -0.029321399 -0.03489228 -0.018325463 -0.0077861813 0.04550896
-0.06343839 0.022496652 0.03976798 0.04828569 0.051083256 0.00808185 -0.061933603 0.056769386
0.012187075 -0.062217537 0.066379406 0.0042876373 -0.095131755 -0.018702693 -0.0011990436 -0.024282025
-0.013760165 -0.012153838 -0.04194984 0.069804475 -0.08931643 0.059072766 0.0054638055 0.10490046
-0.03503625 -0.040180344 0.043695726 0.093925096 -0.0035972146 0.078713134 -0.019764453 0.046205893
0.0030700779 0.116821975 0.014737946 0.0094867 -0.06853296 0.04725805 0.042790994 -0.016845025
-0.023244353 -0.061940104 -0.06455972 0.04436079 0.02152331 0.05865069 -0.05075151 0.0014068966
0.11289129 -0.033118393 -0.047604855 -0.038454093 0.033025414 -0.029482353 -0.04444091 -0.039630122
-0.009728878 0.044018105 -0.030909164 -0.035631474 0.08990825 -0.041541405 -0.031205576 -0.065150455
-0.015086052 0.011090942 -0.04340022 0.16934402 -0.025713045 0.015376195 0.10953813 -0.0131624825
0.023281274 -0.021300588 -0.009855772 0.024697553 0.07397539 -0.015181003 -0.0692763 -0.002524958
-0.011917092 0.03492705 0.023370368 0.06326268 -0.06652419 0.1012458 -0.059511192 0.052897774
-0.04662275 0.08790891 -0.115742154 0.040956475 -0.025091711 0.103624575 0.11516232 0.07453241
0.052970774 0.03219167 -0.06251686 0.01816137 0.053791184 0.0780258 0.05367303 0.0135148
-0.07156214 -0.05876736 0.0055266423 -0.014567701 -0.04848174 0.02137292 -0.016498944 0.07315685
-0.035057444 0.071136005 0.0014367669 0.09931001 -0.07639419 0.048802763 0.09545644 -0.05344582

network_body.linear_encoder.seq_layers.0.bias f4 [128]
00000000: 2d1a 98bb d6b0 8d3c 9f99 47bd d755 483d
00000010: faec 6dbd 5e40 89bc 0393 b1bc 377a efbd
00000020: 7cc2 16bb a558 0abd 0e7d 0cbd 3da7 25bd
00000030: 90f2 83bd 31d6 663c 3a0e 3abd c676 a53b
00000040: 05e0 90bc 49fd c7bc 2741 e23d dab3 ec3c
00000050: b6d2 4a3d 5375 aebc 784a a03d 6e95 36bc
00000060: 05f7 433c b11a 83bd 263f 143c d698 47bd
00000070: b366 66bd 89fd cbbb 21a3 9e3c d7c2 e4bc
00000080: 0cbd 993d 1eb1 ce3c 9b5b cdbb 3dd1 01bd
00000090: d8e8 51bd 6e84 6c3d 88b1 f5bc 2588 dabc
000000a0: 8fab 24bd 5bbd c1ba 7ec9 c7bc d20a 7ebb
000000b0: 448f 893c b29d 4bbd 845e f03a aee6 07b9
000000c0: b30d fa3c 1f3a 3abc 5392 30bd 26c0 c13c
000000d0: 5231 2e38 4f29 b7bc 3f6c bdbd 918b a73c
000000e0: 0df3 bdbd bde7 2cbd 7b16 dcbc fe04 2cbc
000000f0: 62d7 5dbc 5db1 80bd 08a5 653d a191 383c
00000100: 71a4 b6bc 0c23 203d 4975 efbc f562 063d
00000110: ad1d aa3d d0ea c9bc cdd0 b33c 6fdb 07bd
00000120: d210 5dbd 7f63 8ebc 5730 d03c f271 363c
00000130: 69d3 973d b697 07bc e98e 04ba 112e fe3c
00000140: c2b1 03bc b74c 943c f04c 81bb 8197 c83c
00000150: 531a e7bc 0200 24bc 418f 103c 4c6b 1bbb
00000160: 4997 fcbc 344e 57bd 4bab 5abd 6294 06bc
00000170: ef28 1a3d f1ba fdbc 0377 2e3d 6346 00bc
00000180: bf9a 323c befc 6dbc 39a7 dbbc 166f 09bd
00000190: 1750 c93c 4049 e33c 6f98 44bd 9ada 9dbc
000001a0: 9b73 933c dd38 3d3d 5f3d 44bd c651 29bc
000001b0: 64fd 343d 5520 12bd 9c4b 4a3c 9664 fdbb
000001c0: 7dc9 9ebc 3738 d3bc 6f33 ca3d 16d6 4ebc
000001d0: 95ec 02bd 0948 ae3c 5db2 c6bc e635 20bb
000001e0: 1f1e fabb eba0 38bd b559 82bd d95a 203c
000001f0: cf75 16bd f84b bcbd eb3a 493b 8614 02bd
-0.0046417923 0.017296236 -0.04873049 0.04890999 -0.058087327 -0.016754325 -0.021676546 -0.116932325
-0.0023004105 -0.033775944 -0.03429895 -0.040442694 -0.064427495 0.014089153 -0.045423724 0.0050495593
-0.017684946 -0.024412768 0.11047583 0.028894354 0.049517356 -0.021296179 0.07826704 -0.011144025
0.0119607495 -0.06401575 0.009048259 -0.04872974 -0.056250285 -0.006225292 0.019364895 -0.027924938
0.07506761 0.02523094 -0.0062670237 -0.031693686 -0.051247448 0.057743482 -0.02999188 -0.026676247
-0.040202674 -0.0014781164 -0.024388071 -0.0038763774 0.016791947 -0.049710937 0.0018338715 -0.00012960538
0.03052411 -0.011366396 -0.043108296 0.023651194 4.1530766e-05 -0.022358565 -0.09249162 0.020452293
-0.09274874 -0.04221319 -0.026866188 -0.010499237 -0.013540121 -0.06283829 0.05606559 0.011265189
-0.022295209 0.039095923 -0.02923073 0.032809217 0.083064415 -0.0246481 0.02195015 -0.033168253
-0.05397112 -0.017381428 0.025413675 0.011135565 0.0741337 -0.008275917 -0.00050566957 0.031027826
-0.008037986 0.018102987 -0.0039459392 0.024486305 -0.028210795 -0.0100097675 0.008823217 -0.0023715077
-0.030833857 -0.052564815 -0.053386014 -0.008214088 0.037636694 -0.03097293 0.042593967 -0.0078292815
0.010901152 -0.01452559 -0.026813136 -0.033553205 0.024574323 0.02774489 -0.047996935 -0.019269276
0.01799946 0.046196807 -0.04791009 -0.010334438 0.044186965 -0.035675365 0.012347128 -0.007732938
-0.019383186 -0.025783641 0.098730914 -0.012624284 -0.031963903 0.021274583 -0.024254972 -0.0024446188
-0.0076329852 -0.04507534 -0.063647665 0.009787285 -0.036733445 -0.091941774 0.0030705284 -0.031757854

network_body.linear_encoder.seq_layers.0.weight f4 [128, 78]
00000000: 3e95 3dbe c831 193e d4ae 1fbe bc9c 5f3e
00000010: ad1a 81be 6ced de3d f16c 033e eaa3 3b3d
00000020: a931 44be d6da 3cbe 1614 edbd 130f d73d
00000030: 09aa b43d 51d4 e0bc 632b cf3d 6e9e 28be
00000040: 0dbb 9f3c 9f84 823e ce89 913d bf78 38bd
00000050: b1d7 8abc 139e 22be 8b1b 53be fe09 193e
00000060: f1d8 c73c c218 a23d 7e76 dcbd 0874 743d
00000070: d024 233e ccb8 33be 066b df3c 53fb 82bd
00000080: b50b 7d3e 1388 26be e685 cdbc 68d8 a73d
00000090: 375e b6bd 5b27 6d3b 1815 6a3a 06ef 94bd
000000a0: 355e 7dbc 99c6 4fbd 5ab3 f93c be16 0a3e
000000b0: 1ae8 b43c d7d8 443d 0dcc aebd 66b7 013d
000000c0: 24f9 6f3d 4aad fa3d fc4c 77be 3652 4abe
000000d0: 6526 04be 3bb2 083e b060 f13d 0618 29bd
000000e0: 0c84 47bd 6c91 2a3e 8f4f 1a3e 3e4d 9cbe
000000f0: f4cd 293e 92e5 22be aa77 d7bd 0de5 563d
00000100: 9b1a 4a3d 6dfb 93be 0ac7 363c a1c9 5cbd
00000110: 377e 47be 6d60 463d f6ea da3d 2ecf d3bd
00000120: 6755 e1bd 4d55 92bd e735 69bd acae 003e
00000130: bc7d 853c 9e0f 313c 8632 03bd 345b 283e
00000140: 09b6 81bd 56c5 2ebe f63a 223d 6fa3 32be
00000150: 2516 4f3d f3eb f8bb fda2 163e 6897 c63c
00000160: 1444 ccbd af3c e53c 1c28 a3bd 30da 96bd
00000170: 966f 81be baf9 c03d 4897 2abe 4b0b 49bd
00000180: c5e8 06bd 9383 4cbe 2068 233d 3bcd 43be
00000190: feef 75be 94b2 47be 1b40 c1bd 4baf 3fbe
000001a0: d09c 653e 5b4f c6bd 8d7d 9d3d f4d1 67bd
000001b0: 5b94 d83d c515 343d 8e98 533d 980b d4bc
000001c0: 04eb 333d a120 853d 47f3 573d ce6b 22be
000001d0: 9459 51bd 703d aebd 049e 17bd b4b1 1bbd
000001e0: e704 02bd 89a9 66be 9554 683d 915e 5ebe
000001f0: cf1c 04bd a3ad 413d ac3c 05bc d9ec 2ebd
00000200: a1cd 213c aebc fdbd 961d 81bc 4e35 c3bd
00000210: 2884 3c3c b64a 21be 06b7 113d 446f 453e
00000220: 6595 443d faa0 453d 0ced 20be 93c2 ec3c
00000230: 29e3 eb3d dba7 3c3e 8a74 113e 15e8 8fbc
00000240: b503 eb3c c3eb 0a3c 13ac 1b3d 0b84 26be
00000250: 7798 a03d d16f dbbd 3cf2 843c 4c57 6cbc
00000260: 32ff 0bbe 6ece 703e 9196 263d 1cbb 74be
00000270: b5e9 64be ca78 03bc 375b a2bd 8861 f73c
00000280: 4ec6 c93d 505f ae3b 323b 443c 511f edbd
00000290: ae5c b93d 974e e83d 5b1a 383e f83b 6fbe
000002a0: 2060 5c3e 240a 10be 1bf3 3a3e 6d40 18be
000002b0: 0e3c 97bd 2546 0fbe 760e 27bd c6a6 123d
000002c0: 824e 0abe bec0 c3bd 487d b7bc c2f4 febd
000002d0: 7080 303c c1fa 98bd 6d40 d3bb a810 a13d
000002e0: 3bd4 5dbd 6282 18be bffe 39bd 742e 2bbd
000002f0: ee4c cc3b 04a8 1ebe 2ebe 413d 9178 a6bd
00000300: 965a 8a3a 9457 d53d 590d f3bc b6ad c93c
00000310: 49da ca3c 4033 08be 4667 7b3d ee09 543d
00000320: 4054 b5bd f762 893d 0408 76be 85aa 1d3e
00000330: e508 e03b cff0 2ebd 2239 45be 9c69 253e
00000340: 1562 8abb 9c5c 45be 673c 233c b16b 93bd
00000350: e0f1 38be 7822 9dbc 5c7a 3fbd 07e8 b43d
00000360: 20fe 68be d502 e2bc dac4 543d a637 43be
00000370: 98d8 483d 10a6 ed3d 6aef 0e3c 8c8c 2fbe
00000380: e546 04be df59 f4bd 51ab 84bd 834a 7a3c
00000390: bf74 2bbe a659 82be 6aa1 46bd 1b49 28bd
000003a0: d086 1f3e ddba 703d a1f1 43be 2b44 59bd
000003b0: 4c2d 9e3d bde9 133e d5db 863e 0264 06be
000003c0: 0c8f aebe ed9e 453d d091 26be 419a e5bd
000003d0: 54a4 6a3d 6c21 993d 2f49 3abe 8522 27bd
000003e0: 11fa 153e b17f 2ebe 8ef9 29be 26a0 90bc
000003f0: bb37 f3bd 51ea 35bd a6a7 a13d 5870 96bc
-0.18513963 0.14960396 -0.15594035 0.21837133 -0.25215665 0.108851284 0.12834527 0.045810618
-0.19159569 -0.18442854 -0.11576097 0.10500922 0.08821494 -0.02744499 0.10115697 -0.16466686
0.019498372 0.25491807 0.07106362 -0.045037027 -0.016948553 -0.15880613 -0.20615976 0.14945218
0.024395438 0.079148784 -0.10764788 0.05968097 0.15932012 -0.17550963 0.027272712 -0.063955925
0.24711497 -0.16262846 -0.025088262 0.08195573 -0.08904689 0.0036186788 0.0008929535 -0.072721526
-0.015464355 -0.050726507 0.03048103 0.13485238 0.02208333 0.048058357 -0.08535013 0.031669043
0.05858721 0.122400835 -0.24150461 -0.19757923 -0.12905271 0.1334924 0.1178602 -0.041282676
-0.048709914 0.16657037 0.15069412 -0.3052768 0.16582471 -0.15907887 -0.10520871 0.052464534
0.04934178 -0.2890276 0.011155853 -0.053903226 -0.19481741 0.048431803 0.106893465 -0.10342251
-0.11002617 -0.07145176 -0.05693617 0.12566632 0.016295306 0.010806946 -0.032030605 0.16441041
-0.063335486 -0.17067465 0.03960701 -0.17445157 0.050558228 -0.0075964867 0.14710613 0.024242118
-0.09973922 0.027983038 -0.07966635 -0.07365835 -0.25280446 0.094226316 -0.16659272 -0.049083035
-0.03293683 -0.19972067 0.039894223 -0.19121258 -0.24017331 -0.19501716 -0.09436055 -0.18719213
0.224231 -0.096831046 0.076899625 -0.05659671 0.105751716 0.043966074 0.05165916 -0.025884435
0.0439253 0.06500364 0.05272224 -0.15861437 -0.05111082 -0.08507812 -0.03701593 -0.038011268
-0.031742956 -0.2252561 0.05672129 -0.21715762 -0.032254037 0.047284734 -0.008132141 -0.042706344
0.009875686 -0.123895034 -0.015761178 -0.095316514 0.011506118 -0.15751156 0.035574935 0.19280726
0.047994036 0.048249222 -0.15715426 0.028901374 0.11517937 0.18423407 0.14204612 -0.01756672
0.028688291 0.008479062 0.0380059 -0.16261308 0.0784158 -0.10714687 0.016228788 -0.01442511
-0.13671568 0.23516247 0.040670935 -0.23899502 -0.22354777 -0.008024404 -0.07927554 0.030197874
0.09852277 0.0053214207 0.011977004 -0.11578239 0.0905088 0.11343115 0.17978804 -0.2336272
0.21521044 -0.14066368 0.182568 -0.14868326 -0.073845014 -0.13991602 -0.040785275 0.03580358
-0.13506511 -0.09558247 -0.022398606 -0.124490276 0.010772809 -0.074697025 -0.006446889 0.07864505
-0.054157477 -0.14893487 -0.04540896 -0.041792348 0.0062347567 -0.1549378 0.04730051 -0.08128465
0.0010555561 0.10417095 -0.02966945 0.024618965 0.02476229 -0.133008 0.061377786 0.051767282
-0.0885396 0.06708329 -0.24026495 0.1539708 0.006836998 -0.04271012 -0.19260076 0.16153568
-0.004223118 -0.19273609 0.0099631315 -0.07198275 -0.18061018 -0.019181475 -0.04674755 0.08833318
-0.22753191 -0.027589241 0.051945545 -0.19064197 0.049034685 0.116039395 0.008724073 -0.17143458
-0.12917669 -0.11931204 -0.064779885 0.015276554 -0.16743754 -0.2545902 -0.04849378 -0.041085344
0.1557877 0.058771957 -0.19135143 -0.053043526 0.077234834 0.14444633 0.26339594 -0.13124087
-0.3409351 0.048247267 -0.1626656 -0.11211062 0.05728562 0.07477078 -0.1819198 -0.040804405
0.14646174 -0.17040898 -0.16599104 -0.01765449 -0.11875864 -0.044412915 0.078933045 -0.018364117

network_body.linear_encoder.seq_layers.2.bias f4 [128]
00000000: eeae 83bd b5b9 483d 195f c83c 8155 533c
00000010: 259d a33b 5d10 15bd 3847 8dbd 8a8b 1e3d
00000020: adbb c93c 0fa8 453c 4005 82bc 96ef 5dbc
00000030: 4aa5 c6bc 011a d9bd 5c91 493d 7bb8 42bd
00000040: c59f 1b3c 3dbf b4bc a804 36bd 1177 693c
00000050: e57c 20bc b199 debd fccf 0e3d 2bb2 79bd
00000060: a2d2 13bd 22c2 43bd ec57 c5bc 93cc 92bd
00000070: 5f3b 4c3d 3634 5b3d 3418 6a3b 770e 193d
00000080: 4b13 713d bb79 43bd cc93 563c 8a9d 073c
00000090: bcc7 6a3c 8575 a93d 99d4 93bd a794 743d
000000a0: b6b6 1f3d c7ee 08be cb9e 653d e510 3abd
000000b0: 0941 b339 698f 803d ef03 69bc edce 04bc
000000c0: ba23 573c e7fc 053c 5f7e 85bc c5d3 05be
000000d0: f3b1 23bd 6361 7abd 9f40 09bd 0e65 513c
000000e0: fac6 ffbc 149d abbd 742d 37bd c24b 1dbb
000000f0: 27d8 5ebc 04a9 aa3c 21ce d4bc 6329 82bd
00000100: f9ff 7fbb f646 3abd fa42 c0bd 1abe febc
00000110: e752 963b fb94 a13d eef4 8dbd 3e89 473c
00000120: cec7 fcb9 aaec 7f3d 5151 06bd 024a cebd
00000130: 744e 1fbd 9185 46bc d0a0 55bd 8672 e9bc
00000140: 5d4d 373d 70a6 8f3c 70af f03c 734c 4b3c
00000150: 071f 2c3c a042 b5bc 00a6 c53d 9aab b3bd
00000160: d5d8 42bd 5755 833d d3ee 1d3d d180 6cbd
00000170: fb37 4b3d 0903 db3c 25e7 373d 658f 9b3c
00000180: 10c7 bebb 0018 7bbd 1c77 863b 96b6 9d3c
00000190: bfaf cbbd eac1 483d c1b7 98bd ec1f ac3c
000001a0: 6741 193b 412a c2bc 6bd8 8d3d 170f 97bd
000001b0: cc80 49bc bfad 00be 825c 3bbd 8cb2 dfbc
000001c0: f1a5 753d 0d62 05bd aee0 35bd 3187 ff3c
000001d0: dd4f 77bc dbb4 0fbd da06 113d b6e9 163c
000001e0: 6f22 7cbd 92df a73c 75de a0bc 2f20 15bd
000001f0: 6d21 90bb fefd 593d 8d3c 8d3d 3fef 753a
-0.064298496 0.04900523 0.024459409 0.012898804 0.0049930983 -0.03639256 -0.068983495 0.038707294
0.024625624 0.012063994 -0.015871644 -0.013545891 -0.024248738 -0.10600663 0.04921089 -0.047539216
0.009498541 -0.022063846 -0.044438034 0.014249579 -0.009795402 -0.10869158 0.034866318 -0.06096093
-0.036089547 -0.04779256 -0.024089776 -0.07167926 0.04986131 0.05351659 0.0035719993 0.03736731
0.05885629 -0.047723513 0.013096761 0.008277306 0.014329847 0.08274368 -0.07218284 0.05971208
0.038992606 -0.13372336 0.05605964 -0.045426268 0.00034189995 0.06277353 -0.014222129 -0.008105976
0.0131310765 0.008177972 -0.01629561 -0.13069065 -0.039964627 -0.06112803 -0.033508893 0.012780441
-0.03122281 -0.0837957 -0.04472108 -0.0024001454 -0.013601339 0.020832546 -0.025977196 -0.0635555
-0.0039062484 -0.04547783 -0.09387775 -0.031096507 0.0045875194 0.07889744 -0.06931482 0.012178717
-0.00048214052 0.06248156 -0.032792393 -0.100727096 -0.038893178 -0.012116806 -0.052155316 -0.028496992
0.044751514 0.017535418 0.02938053 0.012408364 0.010505444 -0.022126496 0.096508026 -0.08772965
-0.04757007 0.06412762 0.03855784 -0.057740036 0.049613934 0.026734846 0.04489817 0.018989274
-0.00582207 -0.061302185 0.0041035544 0.019252103 -0.0994563 0.049013056 -0.07456923 0.021011315
0.002338493 -0.023701789 0.06926044 -0.07375925 -0.012298774 -0.12566279 -0.04574252 -0.027306817
0.059972707 -0.03256421 -0.044403724 0.031192394 -0.0150947245 -0.035084587 0.035406925 0.0092109945
-0.061556276 0.020492349 -0.019637326 -0.036407646 -0.004398516 0.05322074 0.06896315 0.0009381659

network_body.linear_encoder.seq_layers.2.weight f4 [128, 128]
00000000: fc72 d6bd 8bba 68bd 9133 3d3d 3c52 0bbe
00000010: 9b25 693e 8989 5bbd 43a6 9f3d 63ee 25bb
00000020: efd9 75bc cf92 493d 946a 383e bfa4 5e3c
00000030: e11c c83d b5ff b33e 1ef5 963d 94ef a8bc
00000040: 1aa0 62bd 3e54 5cbd de72 95be 75cc 19bc
00000050: 65e9 a1bd 12c3 6fbd d668 1ebe a195 a1bd
00000060: bd60 22bc b146 abbd e3e0 f6bb 416f 893c
00000070: 00ea c13d 4a96 acbd b3ea 483c 779f 2338
00000080: 3c51 acbd b50f 3abc d4b2 78be adfb 383d
00000090: 9e06 0f3d cf3d 1d3e 20b6 8f3d fb94 9f3c
000000a0: 4b7f e4bb f35b 2e3d c661 0d3e d25d 55bc
000000b0: 9638 b0bd f184 38bc 8b91 a2bd 4037 693e
000000c0: 7699 f9bd 86a0 3b3c 214e 54be 7f0a bebe
000000d0: d6fc 373e a132 b43d 394e 8a3d 4afe bebd
000000e0: b2a7 b43d 435f 86bb 8795 063d 4d65 97bd
000000f0: bb56 173e a2b8 fc3b db5f 033e 418a 8dbe
00000100: adb9 e93d 31cc 46be 5199 acbc e7d8 31bd
00000110: add0 0f3c 2863 6abd 2e4d 9dbd 066b 433d
00000120: 4f2f 34be 119b 683d c7d0 33be 3181 21be
00000130: 4ed5 603d 42fb 783d a863 3d3c e360 a9be
00000140: 1e93 3dbd ac4f 65bd 478c 0f3e cbdd 3bbe
00000150: 064d 16bd d416 82bd 6b92 593d 7651 d1bc
00000160: 84f8 c8bd 1eec efba 710c 083e 965b 84be
00000170: 63cc 63bd e565 f33d 19a5 51bd d3d2 45bd
00000180: 11a9 91be 35b2 233d bf54 3dbd f625 fc3c
00000190: 8841 5e3e 8790 2a3b 844d c7ba 867a 633c
000001a0: 119a e73d 6efd 7e3d 18da ce3d b054 12bd
000001b0: fdd7 6fbc 8528 bfbb c467 d33d fa62 11be
000001c0: d488 d33d 294a 29bd 2183 25bd 6402 9a3d
000001d0: f2b2 be3d 6224 b4bd 6412 103e 35e2 153e
000001e0: 0b12 89bd ea78 fc3c 81d3 843e 33f4 233d
000001f0: 0917 c13a 0245 9b3a e825 733d 5884 863d
00000200: 3ce1 ba3d eab3 42be 4fed 953c 3c3b bebd
00000210: 0fa4 8dbd 8ff8 173c 6354 b33d 9fb8 213b
00000220: e49a 17be b8c2 643c 2ca7 63be 58c7 1b3e
00000230: e3ad c33c 49ed 5cbd a5d0 4fbd dbea 3a3d
00000240: 8c74 43bd a294 cf3d e122 1cbc 5933 583d
00000250: b51e a93d d81e 8c3d 443f 3e3d 106a c2bb
00000260: a51c 1fbe f178 c2bc 6ba0 83bc 3609 813e
00000270: 97fc fe3c a9b8 30bc 3429 0c3e 2a1a d53d
00000280: 9ad6 b7bb ee2f 74be 3493 69bd 72a8 9a3d
00000290: e298 01bd a0fb 86be 25a4 f9bc 59d7 313c
000002a0: 012c 4dbe ef91 bb3c 8ce7 19be c385 2abd
000002b0: 42c0 5cbd b314 19bd 04a2 c73d dd8b 8c3d
000002c0: 2361 973d dff4 143c 6bfe 393b 4d02 da3d
000002d0: 0936 87bc a41f e0ba ad53 f2bd 9ff4 8bbc
000002e0: 946b 70bd 944d cb3c c55d 09be 1c66 013d
000002f0: 4281 983d ec5d 93be 2e8b 28be d1c9 db3c
00000300: fc6c 78bd 7c7f 7f3c 9f08 a43d 4b40 853e
00000310: 97f3 6fbd 1e87 c9bd 432e 813c 4430 fbbc
00000320: 53ee d2bd bcea 183c a7a6 eabd fd0b 2b3d
00000330: 699d 52bd 419b f13d d808 f33d 18f6 8ebd
00000340: c14d 723b e1d9 143e 8287 de3d a467 5abe
00000350: 419f 403e 41b8 26be 0e2b bbbd 8d9b f63c
00000360: f555 bcbd afdc 11bd f448 22be 50ab cc3d
00000370: 83fd f9bc 4c13 a43b c315 10be 0554 023e
00000380: 471a 5dbc 7399 c8bc 835b 3d3c a182 d23d
00000390: dd6c 493e 83dd a7bc ea07 a1be 4b71 ddbc
000003a0: 0f95 a73d 0195 e53d 4bd3 a2bd de82 a73d
000003b0: a80b 0ebc ea51 463d 41d5 8fbd 1430 07bc
000003c0: e015 6abe 63f6 c83d bdb9 233e 21bd 473e
000003d0: 518e 83be fe2f 2bbe 4821 2fbc 6cee 1bbe
000003e0: b4b2 ba3d e5f9 87bd 6e56 903d 0d7e e2bd
000003f0: df96 19be 922b 60be d274 0b3c 9d4e 123d
-0.1047115 -0.056818526 0.046191756 -0.13605589 0.22768252 -0.05359796 0.07795384 -0.0025319092
-0.015005573 0.049212273 0.18009406 0.013589083 0.09771133 0.35156026 0.07370971 -0.020622052
-0.055328466 -0.053791277 -0.291892 -0.009387125 -0.079058446 -0.058535643 -0.15469679 -0.078898676
-0.0099107595 -0.08363093 -0.007534133 0.016776683 0.0946846 -0.08427103 0.012262988 3.901074e-05
-0.08413932 -0.011356284 -0.24286968 0.04516189 0.03491842 0.1535561 0.070171595 0.01948022
-0.0069731823 0.04256816 0.13806829 -0.013022857 -0.08604543 -0.011262164 -0.07937916 0.22774982
-0.121874735 0.011451846 -0.20732929 -0.37117383 0.17967543 0.08798719 0.06753201 -0.093258455
0.08821048 -0.0041007116 0.032857444 -0.073923685 0.14779179 0.0077124396 0.12829535 -0.27644542
0.11412368 -0.1941383 -0.0210692 -0.043419745 0.0087777795 -0.05722347 -0.076807365 0.047709487
-0.17596172 0.056788508 -0.17560111 -0.15771939 0.054890923 0.060786493 0.011559404 -0.3308173
-0.04628288 -0.055984184 0.14018355 -0.18346326 -0.03669455 -0.0635201 0.05311815 -0.025551539
-0.098130256 -0.0018304621 0.13285996 -0.25851125 -0.05561484 0.11884669 -0.05118284 -0.04829676
-0.284493 0.039964873 -0.0462234 0.03077982 0.21704686 0.0026026086 -0.0015205597 0.013884192
0.11308683 0.062253408 0.10100192 -0.035725296 -0.014638898 -0.0058336877 0.10322526 -0.14197913
0.10328832 -0.04133049 -0.040408257 0.07519987 0.09311475 -0.08796002 0.14069515 0.14637072
-0.066928945 0.030819375 0.25942615 0.04002781 0.0014731596 0.0011846127 0.059362322 0.06568211
0.09124991 -0.19013944 0.018301634 -0.09288642 -0.06916057 0.00927557 0.0875633 0.0024676693
-0.1480518 0.01396244 -0.2223174 0.15212762 0.023886627 -0.05393723 -0.05073609 0.045634132
-0.04771857 0.10135771 -0.0095298 0.052783344 0.0825781 0.068418205 0.046447054 -0.005933054
-0.15538271 -0.02373931 -0.016067704 0.2520234 0.031126304 -0.010786214 0.13687593 0.10405381
-0.0056102993 -0.23846409 -0.05702515 0.0755166 -0.03163994 -0.2636385 -0.030473778 0.010854566
-0.20036317 0.022896735 -0.15029734 -0.04163147 -0.05389429 -0.037373256 0.09747699 0.06862614
0.07391574 0.009091585 0.0028380405 0.1064497 -0.016505258 -0.0017099273 -0.11832366 -0.017084418
-0.058696344 0.024817266 -0.13414676 0.03159152 0.07446529 -0.28782594 -0.16459343 0.026829632
-0.06065081 0.0155943595 0.08009457 0.26025614 -0.058581915 -0.09840225 0.01576913 -0.030662663
-0.10299363 0.009333309 -0.11457568 0.04175948 -0.05141965 0.117971905 0.11866921 -0.069805324
0.0036972614 0.14536239 0.1086569 -0.21328598 0.1881075 -0.16281225 -0.091390714 0.03010347
-0.091960825 -0.03561085 -0.15848142 0.09993613 -0.030516392 0.005007183 -0.14070801 0.12727363
-0.013495035 -0.024487233 0.011557463 0.10278822 0.19670434 -0.020491367 -0.3145135 -0.027031561
0.081827275 0.11210061 -0.07950457 0.08179258 -0.008669771 0.048417963 -0.07023097 -0.008251209
-0.22859907 0.098126195 0.15988822 0.1950574 -0.25694516 -0.16717526 -0.010689087 -0.1522767
0.09116116 -0.066394605 0.07047735 -0.110591985 -0.14998959 -0.21891621 0.008511739 0.035719503

network_body.linear_encoder.seq_layers.4.bias f4 [128]
00000000: f3a1 5cbe a22d 5f3c ab2f a5bd b100 83bd
00000010: 6d72 b5bc ff12 c93d 0fbc a9bd 5988 163d
00000020: a5a9 07be 05b1 14bc 65d8 03bd fe7c 2b3d
00000030: 95e5 23bd fdd2 883b 2087 21be 963d aa3a
00000040: f03b c73c cf91 c73d 4111 98bb 4438 983d
00000050: f2d2 ccbd a670 c53c 5814 1abe ebd2 c23d
00000060: 6725 8bbd ed8a 71bd d9c3 953d 9a2a 513c
00000070: db50 823c 6576 bfbc 1353 db3d 94fa 8ebd
00000080: f84d 253d b22a 623d c671 193d f054 803d
00000090: 8269 51be 7f75 1ebd c832 44be a0d7 d5bd
000000a0: 099e 783d a45d 043d a019 81bd 79a9 ff3d
000000b0: 7c71 3fbd a910 e3bc 60a0 cebd 398b 2ebe
000000c0: 54cb 23bd 0bae b33d dfde 9d3d dc36 fe3d
000000d0: 604d e53d 1353 21bc 4b06 a9bd 6b48 a53c
000000e0: 3e1a 91bc d31e 933c 8c1d 4cbe ed33 273d
000000f0: 6af2 deb9 bce9 07be 97e0 14be abcc 8ebc
00000100: 272c 5fbb 4082 453d 3018 e2bd 70cd 6dbd
00000110: 2519 86bd 125a e3bd afc6 b2bd 4b5f 963d
00000120: 9177 993d 4947 b53d 1278 54bb 7003 e63a
00000130: d5cb 24be e798 263d e3aa 47bd 1463 823d
00000140: f16e 50bd 8fde 6e3d 2836 bf3c d674 78bd
00000150: 433a 8e3d 873c 37be 097c 863c ac26 6e3c
00000160: 5fc9 8cbd bbaa 213d abaa f4bb 738d f7bd
00000170: 217a 523c cdb6 853d 0de8 73bd 765b bc3c
00000180: 7e37 02be f786 253d 1925 56bd a5e5 13bd
00000190: 039a 993d b319 f13c e326 af3d 16b0 05bc
000001a0: e4a6 eb3d 4fc8 cb3d 6781 d8bd 88ed 003d
000001b0: 29f4 4a3d cd4e 0a3c 1169 98bd 213e 923d
000001c0: 9ef8 b43c e314 1c3d 5221 c73c c168 ccbc
000001d0: 648f a7bd ebd2 093d df09 cabd 2b8c 6f3d
000001e0: 9ddb 27bd 7ad4 5f3d bbfd b4bc df03 81bd
000001f0: eab8 f8bd e43e 8bbc 940e 083d f720 74bd
-0.21546154 0.01362172 -0.080657326 -0.06396616 -0.022149289 0.09818076 -0.082878225 0.036751125
-0.13248308 -0.009075408 -0.03218879 0.04186725 -0.04001387 0.0041755424 -0.15774202 0.0012988325
0.024320573 0.09744608 -0.0046407287 0.07432607 -0.10001172 0.024101567 -0.15046823 0.09512886
-0.06794243 -0.05897038 0.073127456 0.012766505 0.015907696 -0.023371885 0.107092045 -0.06981388
0.04035756 0.0552165 0.03746202 0.062662005 -0.20450404 -0.03868627 -0.19159997 -0.10441518
0.06069759 0.032315865 -0.06303716 0.12483496 -0.046739087 -0.027717905 -0.10089183 -0.17045297
-0.03998883 0.087734304 0.07708525 0.12412807 0.11196399 -0.009846467 -0.082531534 0.020176133
-0.017712709 0.017959034 -0.19933146 0.040821005 -0.00042523752 -0.13272756 -0.14538799 -0.017431578
-0.0034053416 0.04821992 -0.1103977 -0.05805725 -0.06547765 -0.11101164 -0.08729302 0.073423944
0.074935086 0.08851487 -0.00324202 0.0017548632 -0.16093381 0.040673163 -0.048746955 0.06366554
-0.050887052 0.058317717 0.023341253 -0.0606583 0.06944706 -0.17894183 0.016416566 0.014535587
-0.06874346 0.039469462 -0.0074666343 -0.12087526 0.012846501 0.06529007 -0.059547473 0.02299283
-0.12716481 0.040411916 -0.052281473 -0.036107678 0.075000785 0.0294312 0.08552339 -0.008159658
0.11506441 0.09950315 -0.105715565 0.031476527 0.049549256 0.008441639 -0.07441915 0.071407564
0.022091206 0.038105857 0.02430788 -0.024952294 -0.081816465 0.033648413 -0.09865164 0.058483284
-0.040980924 0.054645993 -0.022093644 -0.062995665 -0.121446446 -0.016997762 0.033217028 -0.05960175

network_body.linear_encoder.seq_layers.4.weight f4 [128, 128]
00000000: 5f8a 86be a1bc bbbc d5d4 833c da2c 6fbe
00000010: a010 193d 8648 9abe 4167 3c3d 7aa0 553d
00000020: b87a e9bb 194f d73d 3590 b83d aafe 8f3d
00000030: 2b1e 5a3e fa93 1c3e 035f 32be 3212 1a3e
00000040: 2039 80be 49bd a03b d3a4 7ebd ccd5 fc3d
00000050: 3009 5cbe a6f3 933c 42cc 25bd 978d d53d
00000060: 7dc9 46bb 2b0d 26be ac46 423d b82f 93bd
00000070: cd9d 9a3c 12da e1bd b12a e2bc f1e8 933b
00000080: ae58 27be f201 44bd 3a79 60be 0e85 febd
00000090: a2c4 603d b6eb cbbc ff29 f03d c027 1d3e
000000a0: 6b90 7bbe a286 5d3d 8d4f 93be 0a3a 143d
000000b0: fc88 babc f8d6 6bbd 635e b6bd ad60 153d
000000c0: 23ca 273d 8f18 633d da13 223d 2a2a 073e
000000d0: 1e94 8f3c 2b94 3e3d 68d5 a2bd 3e08 523c
000000e0: 178f f23d 94a4 babd c701 bebb 3df5 dabc
000000f0: 1b18 08bb f2e3 35bc e7a4 803d 502f fabc
00000100: a971 bdbd 0a2f 60bd 0241 693d 76d5 6dbd
00000110: 00f5 1b3d 2228 7fbd 4093 d63d 85a3 b5bd
00000120: e614 753c fb34 be3d ca28 29bd 38b2 863d
00000130: e609 41be 4740 133e d26b 15be 8a45 523e
00000140: de5d 38be e584 08be 1781 9c3c 9bb4 a23d
00000150: 8cd3 babc c134 f73d e913 4ebe de85 2d3e
00000160: c57e cebd 658b e3bd 313f 043c 835f 60bd
00000170: c549 bfbd 4b39 66be b1d1 1a3d 62b7 b6bd
00000180: c308 c0bb ec1e 493e c1b3 fdbd 767a aabd
00000190: 9746 673e 76f7 fbbd c849 1abe 889c bb3c
000001a0: 2fec d9bd 8c98 2dbe ad04 39be a067 7d3e
000001b0: a466 14bd 8eef 133e b5fa efbc 194c 123e
000001c0: 4839 003e 4008 003e 45ae 2f3e d70b a13d
000001d0: 3857 4a3d ae5c 26be 9256 31bd dbd0 913d
000001e0: c1a1 1e3e 17bb b53b 482f 33bd 8f02 983d
000001f0: ec5c 3b3d a940 313d cc35 2abe 96d3 a93d
00000200: 57ee 1fbe 3d2b 193e 5b1b 44be 97ee a6ba
00000210: e1bb 3cbe 8fdd 32be 4ef4 44be 4072 76bd
00000220: c4e3 9b3c efd9 d9bd f777 1fbe a6f8 22bd
00000230: 36ad 223c 923d 2cbd 8225 a53d fcd2 f0bc
00000240: 7166 33bd a4e8 d3bd 7943 2dbe 6e26 723b
00000250: 8911 6ebe 3082 9cbd 8f9e b6bb 5738 0fbd
00000260: 65bb 563e 01e6 9fbd 256b c73d d106 2a3d
00000270: 28be 8f3d 1e6e c5bd ee08 8fbc 0ae0 c73d
00000280: 16e8 b2bc 2e31 88be ff1a 81bd a2d8 b8bd
00000290: 3420 543e 4897 ae3c 83bb 1c3e fb43 953d
000002a0: 137b 263e 271b 39be a957 f2bd 59ed a2bd
000002b0: ed0e 67be aa46 153d a800 013e 03da ad3d
000002c0: 2d15 9cbd c81f 273e d9fd 3a3d 43c4 143c
000002d0: 2ce0 97bd c4e0 fe3d 7958 02be 972d 00be
000002e0: 5abf 0b3e 26ca 8fbb ab51 6fbd 54c4 18bd
000002f0: 164d 9b3d 8d15 083e 6cd3 cebd c91a bdbd
00000300: 4a09 1abd 2568 abbb 9f37 93bd d0d2 8ebd
00000310: 9cac 043e b1ca 3cbe b2a2 febd 58aa aebd
00000320: 09b1 663c 6db6 4a3e b57f 7bbd 22b6 ea3d
00000330: 0b6e c4bd d2de 303d 6f44 e83d dfcb 083e
00000340: 56fe 6abc f3e9 fd3d 279d 7abc 84d9 44bd
00000350: 7712 433d 9e48 163e ad36 ee3b 33b6 45be
00000360: cec9 173e 0948 d33b 4db5 28bd 622e 483d
00000370: 74f8 d3bd b129 4c3c 7b4c 503d e779 10be
00000380: 1238 41be 98e5 243e d078 febd a4f6 5fbe
00000390: 4fb1 eb3c 2bde 773d 6b70 17be 9621 07bc
000003a0: e87d 02be b667 1bbe f66e 523e 7ea8 f23d
000003b0: f1cf 803d 3a59 8a3d 98ff 74bd ffa7 d7bd
000003c0: 8e2c 963c d854 b5bd cb6e f13b 9961 a1bd
000003d0: 64cb 06be 3719 46bc b96e a83c 9231 343e
000003e0: b6a6 28be de04 7ebe d00b 9e3d b461 963d
000003f0: d83b 563d ff3f aebd d4b9 41be e7b8 263e
-0.26277444 -0.022917094 0.016092697 -0.23356953 0.03736937 -0.30133456 0.045996908 0.052154996
-0.007125225 0.105131336 0.0901188 0.07030995 0.2130057 0.15290824 -0.17419057 0.15046003
-0.25043583 0.004905377 -0.062168907 0.12345466 -0.2148788 0.018060517 -0.040478 0.10427397
-0.0030332499 -0.1621596 0.04743068 -0.07186836 0.018874073 -0.11027922 -0.027608247 0.0045138528
-0.16342422 -0.047853418 -0.21921244 -0.12427722 0.054875024 -0.02489267 0.1172676 0.15347195
-0.2456681 0.054083474 -0.2877163 0.036188163 -0.022770397 -0.057578057 -0.089047216 0.03646915
0.040964257 0.055443343 0.039569713 0.13199678 0.017526682 0.046528023 -0.0795086 0.012819348
0.118436985 -0.09113422 -0.0057985517 -0.026728267 -0.002076632 -0.01110171 0.062814526 -0.030540138
-0.092501946 -0.05473236 0.056946762 -0.0580649 0.038075447 -0.062294133 0.104773045 -0.088690795
0.014958596 0.09287449 -0.041298665 0.06576961 -0.18851432 0.14379989 -0.14591911 0.2053434
-0.18004557 -0.13331945 0.019104524 0.07944604 -0.022805952 0.12070609 -0.20124783 0.16945598
-0.10082773 -0.11110572 0.008071707 -0.054778587 -0.09340242 -0.22482793 0.037797634 -0.08921696
-0.0058604195 0.19640702 -0.12387801 -0.08324139 0.22585522 -0.12303059 -0.15067208 0.022901788
-0.106407516 -0.16952723 -0.1806819 0.24746561 -0.0362307 0.14446852 -0.029294351 0.14286841
0.12521851 0.12503147 0.17156322 0.078635864 0.049399585 -0.16246292 -0.04329545 0.07119914
0.15491392 0.0055459845 -0.043746263 0.07422363 0.045742914 0.043274555 -0.16622084 0.0829231
-0.15618263 0.149579 -0.1915106 -0.00127359 -0.18431045 -0.1746733 -0.1923382 -0.06016755
0.019029506 -0.10637271 -0.15573107 -0.03978791 0.009928992 -0.042050906 0.08063795 -0.02939748
-0.043798868 -0.10347107 -0.1692027 0.0036949175 -0.23248877 -0.07642019 -0.005573101 -0.03496584
0.20969923 -0.07807542 0.09737233 0.041510407 0.07018691 -0.09640144 -0.017460313 0.09759529
-0.021839183 -0.2660002 -0.06303977 -0.090256944 0.2071541 0.02131237 0.15305905 0.07288357
0.16257887 -0.18076764 -0.11833126 -0.07955427 -0.22564287 0.036444344 0.12597907 0.08488848
-0.076212265 0.16320717 0.045652244 0.009079996 -0.07415804 0.124452144 -0.12729062 -0.12517391
0.13647214 -0.0043881116 -0.058427494 -0.037296608 0.07583062 0.13289471 -0.10098919 -0.092336245
-0.037606515 -0.005230921 -0.07188343 -0.06973803 0.1295647 -0.18436696 -0.124333754 -0.08528584
0.014080294 0.19796152 -0.061401088 0.1146052 -0.095913015 0.043181248 0.11341178 0.1335902
-0.014342865 0.12398138 -0.015296257 -0.048059 0.04762503 0.14676139 0.0072697015 -0.19307785
0.14823076 0.0064477962 -0.041188527 0.04887236 -0.10350123 0.012461112 0.050854187 -0.14109002
-0.18869045 0.16103208 -0.12425387 -0.2187143 0.02877107 0.06051461 -0.14788978 -0.008247754
-0.12743342 -0.15176281 0.2055014 0.118485436 0.06289662 0.067553 -0.059814066 -0.105300896
0.018331792 -0.08854073 0.007367944 -0.078799434 -0.13163525 -0.012090973 0.02056061 0.17597035
-0.16469845 -0.24806544 0.07717097 0.07342854 0.052303165 -0.085083 -0.18918544 0.16281472

network_body.vector_processors.0.normalizer.running_mean f4 [78]
00000000: 44e2 3942 3720 36c2 da70 73c0 b281 c53f
00000010: bdc4 3840 87ee 4040 7047 3d42 8b9c 3bc2
00000020: b209 37c0 b3a9 3842 2074 3ac2 4356 46c0
00000030: 9f7d 3842 076d 28c2 e064 28c0 aca8 3a42
00000040: e517 37c2 5295 20c0 7c6a 3742 bc70 36c2
00000050: 32c7 bfc0 3ec9 3a42 b5ba 38c2 665d b7c0
00000060: 5513 3e42 03ce 39c2 e55a 7dc0 203c 3742
00000070: dcc6 39c2 2eb0 69c0 cc34 3942 ab23 29c2
00000080: e064 28c0 90f1 3942 2961 36c2 5295 20c0
00000090: f2d7 3842 e81d 37c2 161b aec0 07fd 3942
000000a0: 0989 3ac2 5734 94c0 21de cc3f 49fb c23f
000000b0: c483 c53f 37b4 c43f 0e77 c33f b076 c33f
000000c0: d7af cd3f 5621 c73f b082 bf3f bcb5 ca3f
000000d0: 6451 bf3f f2a4 c23f a748 3640 6e10 3e40
000000e0: d031 3b40 def3 3640 3687 2f40 e492 3e40
000000f0: 7f6d 4040 7a13 3640 5c76 3a40 3cb2 3740
00000100: f681 3740 516e 3440 543b 3d40 e88f 3b40
00000110: 06f0 3940 4e0d 4440 fdc6 4c40 880b 4240
00000120: 809e 3b40 660d 4540 60b0 3c40 bc4d 4140
00000130: 8f48 4340 fca7 4340
46.470963 -45.53146 -3.803763 1.5430205 2.887008 3.0145586 47.319763 -46.902874
-2.8599668 46.16572 -46.613403 -3.099015 46.122677 -42.106472 -2.631157 46.66472
-45.773335 -2.5091138 45.85399 -45.610092 -5.993066 46.696526 -46.18233 -5.730151
47.51888 -46.451183 -3.9586728 45.808716 -46.4442 -3.6513782 46.30156 -42.284832
-2.631157 46.4859 -45.594883 -2.5091138 46.210884 -45.779205 -5.4408064 46.497097
-46.633823 -4.631389 1.6005288 1.5232936 1.5430837 1.5367497 1.5270708 1.5270596
1.6069287 1.5557048 1.4961758 1.5836711 1.4946713 1.5206587 2.8481843 2.9697528
2.9249153 2.8586345 2.7426276 2.9777155 3.006683 2.8449388 2.913474 2.8702536
2.8673072 2.8192332 2.956746 2.9306583 2.9052749 3.063312 3.1996453 3.0319538
2.931549 3.0789428 2.948265 3.0203695 3.0513036 3.057128
