Library/Collab/Download/Assets/nnmodels/2d-999963.onnx (onnx, 181706 bytes, 11 tensors)

69 f4 [78]
000000 da 21 e1 41 34 19 43 42 40 d5 f2 41 c2 25 b6 3f
       28.14153 48.774612 30.354126 1.4230273
000010 68 da f2 3f 92 57 ff 3f 7b 02 02 42 70 de 2d 42
       1.8972902 1.9948599 32.502422 43.467224
000020 e0 47 d3 41 24 28 df 41 6e 9c 30 42 db be db 41
       26.410095 27.8946 44.152763 27.468191
000030 2f 49 d9 41 0d 9b 7f 42 a7 d1 ca 41 97 aa d8 41
       27.160734 63.901417 25.35237 27.083296
000040 66 73 3b 42 d5 24 c6 41 79 8f d5 41 38 42 3a 42
       46.862694 24.767984 26.695055 46.564667
000050 34 32 17 42 a8 53 d8 41 93 27 31 42 f3 fb 13 42
       37.799026 27.040848 44.288647 36.996044
000060 d9 ce ff 41 9c 89 2f 42 64 97 f7 41 b2 60 dd 41
       31.976 43.884384 30.948921 27.672215
000070 ac 4a 32 42 dc 0c ee 41 59 e9 d5 41 07 86 7e 42
       44.57292 29.756279 26.73894 63.630886
000080 a7 d1 ca 41 2c 09 dc 41 c4 05 3d 42 d5 24 c6 41
       25.35237 27.504478 47.25563 24.767984
000090 b1 65 d7 41 68 aa 38 42 fb 59 10 42 5c 35 dd 41
       26.924654 46.166412 36.08787 27.651054
0000a0 c3 84 2f 42 a4 93 05 42 2c 63 b6 3f 0e 8d b7 3f
       43.87965 33.39418 1.4249015 1.4339921
0000b0 88 3f b8 3f d9 17 b6 3f cd f6 b3 3f 64 5b b4 3f
       1.4394388 1.4226028 1.4059693 1.409039
0000c0 43 a9 b6 3f 46 49 b5 3f ee 7d b8 3f da b1 b5 3f
       1.4270405 1.4162986 1.4413431 1.4194901
0000d0 71 2d b6 3f b7 0f b4 3f 95 2f f3 3f b9 98 f4 3f
       1.4232618 1.4067296 1.8998896 1.9109107
0000e0 c9 bf ee 3f 70 a3 f0 3f 08 5b f4 3f 5e ed f3 3f
       1.8652278 1.8799877 1.909028 1.9056814
0000f0 53 88 f3 3f c7 cd f8 3f 30 e1 ec 3f a7 82 f2 3f
       1.9025978 1.9437798 1.8506222 1.8946122
000100 cb 1b f1 3f 7c 39 f3 3f 53 24 f8 3f e4 15 fd 3f
       1.8836607 1.9001918 1.9386085 1.9772305
000110 28 5f f3 3f 4e 8c f8 3f 3d 96 0b 40 9d d2 ff 3f
       1.9013414 1.9417818 2.1810448 1.9986149
000120 21 8e 00 40 3f bd 03 40 76 de f3 3f 25 5d f8 3f
       2.0086749 2.0584257 1.9052265 1.9403425
000130 c6 53 07 40 cd ba f6 3f
       2.1144881 1.9275757

action_model._continuous_distribution.log_sigma f4 [1, 11]
000000 ec 7c 77 be c4 0d 03 be 7e 20 f6 bd df 09 88 be
       -0.24168748 -0.1279822 -0.12017916 -0.2657003
000010 c8 b4 6d be 5e 0a 54 be 42 66 4a be 5a 15 90 be
       -0.23213494 -0.2070708 -0.19765571 -0.2814129
000020 59 72 a6 be 82 8b 33 be 47 58 2f be
       -0.32509115 -0.17533687 -0.17123519

action_model._continuous_distribution.mu.bias f4 [11]
000000 ba d3 93 3e 4c c3 1c 3d 86 c2 49 ba ca 14 73 bc
       0.28872472 0.038272187 -0.0007696528 -0.0148364995
000010 e5 67 80 bc ce 47 98 3c 20 2f 60 3c 3e cc bb bc
       -0.01567454 0.018588927 0.0136831105 -0.022924539
000020 6a 05 b2 3b 7d ca 96 bc 4f 1a 03 3c
       0.0054327743 -0.0184071 0.008001878

action_model._continuous_distribution.mu.weight f4 [11, 128]
000000 50 b5 54 be cd 33 7b 3d fa 38 cf bd bb 05 73 bd
       -0.2077229 0.061328698 -0.10118289 -0.059331637
000010 87 2b c3 bc bc 3f c7 3d 27 bb 97 bd 34 ee 27 3d
       -0.023824466 0.09728953 -0.07408743 0.040998653
000020 53 01 01 be 7c 0e 99 bc 08 65 8f 3c 08 5c 65 3a
       -0.12598161 -0.018683665 0.01750423 0.00087493705
000030 6d f0 7d bd 5c 56 ed bc e8 ea 60 be 6a 13 3a 3d
       -0.061996866 -0.028971843 -0.2196461 0.04542867
000040 ea 2f 04 3c c2 42 c4 3d 3c ce fc 3c 24 d6 8e 3d
       0.008068064 0.095830455 0.030860059 0.06974438
000050 a4 69 5e bd c6 26 cf 3b 2f 7e f3 bd da f0 b1 3d
       -0.054299966 0.006321761 -0.11889302 0.08688517
000060 51 54 0d bd e9 78 ed bd 5c d8 8d 3d 51 bc 58 3d
       -0.03450424 -0.115953274 0.06926033 0.052913968
000070 8e 02 13 3d be 33 db bb d8 59 ec 3d 3f 15 e8 bd
       0.03589111 -0.0066895178 0.11540574 -0.11332177
000080 46 c0 1f 3d 03 1f 54 3d e7 11 8d 3d 0a 4a c3 3c
       0.039001726 0.051787388 0.0688818 0.023839016
000090 31 ab 9b be 93 f5 19 bd 68 b0 5f be 0b 8b c7 bd
       -0.30404046 -0.037587713 -0.21844637 -0.09743317
0000a0 c4 02 c7 3d d4 32 13 3d ef e0 d3 bd 1c 4c f7 3d
       0.097173244 0.035937145 -0.10345637 0.120750636
0000b0 23 ca 59 bb 2f 1b 80 bd bb 6f b4 bd 78 a6 34 be
       -0.0033232055 -0.06255185 -0.088103734 -0.17641628
0000c0 3d 4c 4a 3b 5a 61 24 3d 3f 92 ae 3d 5e be e6 3d
       0.0030868195 0.040131904 0.08523988 0.112667784
0000d0 3c 2c cb 3d 0a 5d 34 3c 30 24 70 bd e8 b3 36 bd
       0.099205464 0.01100851 -0.05862826 -0.044605166
0000e0 ea b6 3d ba 7d 06 79 3d 4a d4 e3 bd 65 09 a1 3d
       -0.0007237034 0.060797203 -0.11124475 0.0786312
0000f0 45 d4 f5 3b 89 be 0e be d1 c6 e0 bd f4 4b b6 3b
       0.007502111 -0.13939871 -0.10975421 0.0055632535
000100 43 98 dc bb f7 bb 5b 3d e7 b8 c7 bd 71 16 14 bd
       -0.006732018 0.053646054 -0.09752064 -0.036154214
000110 a4 1d 51 bd 8d 37 f0 bd 98 e0 c9 bd ec 08 a1 3d
       -0.051053658 -0.117293455 -0.09857291 0.0786303
000120 bd 8b ae 3d 6b 9d d0 3d d5 65 a6 3b 0c 1c 9e 3c
       0.08522747 0.10186275 0.0050780573 0.019300483
000130 54 7d 46 be 3c a3 55 3d 4b 44 55 bd 0b f7 51 3d
       -0.19383746 0.052157626 -0.052067082 0.05126099
000140 99 08 a6 bc 78 7b c7 3d 18 49 26 3d 27 c3 80 bd
       -0.020267772 0.09740347 0.04059705 -0.06287222
000150 8c 30 98 3d e6 07 f1 bd 59 1f 9c 3b d0 9a 04 3c
       0.074311346 -0.11769085 0.004764479 0.008093551
000160 b9 ac 30 bd f2 c1 51 3d 78 b3 7c 3b c8 94 2c be
       -0.04313347 0.05121035 0.003855912 -0.1685363
000170 f8 d3 cb 3c e6 47 97 3d dc 1d c1 bd e3 8a 78 bc
       0.024881348 0.073867604 -0.09429523 -0.015169832
000180 53 81 ca bd 01 a6 84 3d 20 67 4c bd 26 7a a1 bd
       -0.09887948 0.06476975 -0.049903035 -0.07884626
000190 e9 f1 08 3d 76 cf f8 3c fe 6f d6 3d b1 1b e9 3c
       0.03343383 0.030372363 0.104705796 0.028455587
0001a0 43 68 dd 3d 6f 51 cd 3d cd 53 3c be ed ce cb 3c
       0.10810902 0.10025298 -0.18391342 0.024878943
0001b0 84 b9 97 3d ba 43 04 bc c0 ac bc bc 05 1b c2 3d
       0.07408431 -0.008072788 -0.023031592 0.0947781
0001c0 5a d2 1d bd fb 30 84 3d e0 ea 39 bb f9 86 69 bb
       -0.038530685 0.06454655 -0.0028368756 -0.0035633428
0001d0 40 85 4a bd 33 06 82 3d c3 d7 e0 bd fe 65 7e 3d
       -0.049443483 0.06348839 -0.10978653 0.062108986
0001e0 c2 17 e7 bc f8 a1 35 3d d0 9b 70 3c 73 e7 94 bd
       -0.02820957 0.04434392 0.014685586 -0.07270708
0001f0 c2 0b a4 be 25 cc 82 bd 16 84 a2 bc e3 a8 61 bd
       -0.3204022 -0.06386594 -0.019838374 -0.055092704
000200 ec 2c fa 3a 4d c7 8c bc fe e2 32 3d c7 5f 56 bc
       0.0019086874 -0.017184878 0.043673508 -0.013084359
000210 91 0d 25 bd 03 85 a8 ba 99 0c 43 bc 3e b0 df 3c
       -0.04029614 -0.0012857023 -0.011904859 0.027305719
000220 e9 1e 64 bd e3 a0 79 3c b6 78 db 3c 6f e3 13 3d
       -0.05569354 0.015236112 0.026790958 0.03610557
000230 55 e8 67 3d 55 23 f3 39 d4 4a 6a bd f1 51 77 3d
       0.056618053 0.00046374896 -0.057200268 0.06038088
000240 01 78 4e 3c c7 c8 5a bd 7f 38 91 3d 87 8f 66 3c
       0.012601853 -0.053414132 0.07090854 0.0140723055
000250 1c f9 ef bd 64 47 f0 b9 4c 7e 3c bc b5 f3 b8 bc
       -0.11717436 -0.00045829557 -0.011504721 -0.022577146
000260 62 f4 71 3c 95 1e da bb 21 69 2e bd 83 e4 74 3d
       0.014767738 -0.0066564777 -0.042580727 0.05978824
000270 00 72 a0 bd ca 9f 1a 3d 47 ed 48 3c fb ac be 3d
       -0.07834244 0.037750043 0.012263603 0.09310337
000280 70 db 81 bc 53 b9 60 bd bb 60 10 3d c1 49 a4 3d
       -0.015851706 -0.05486424 0.0352485 0.0802188
000290 66 aa 23 bc 6f c0 11 3d bb 93 d0 bc 22 b3 0e 3d
       -0.009989357 0.03558391 -0.025461068 0.034838803
0002a0 f1 3f 6a 3c 77 47 d8 3d 91 26 16 b8 00 96 9c 3c
       0.014297471 0.10560506 -3.5798705e-05 0.019114494
0002b0 9a 5d 8a bd 14 2c 19 3d 32 2e 5f 3d fc a4 c6 bc
       -0.06756134 0.03739555 0.054487415 -0.024248593
0002c0 a1 7d 56 bc 45 78 23 bd 89 e3 83 bd 6c 01 10 3d
       -0.013091476 -0.03990962 -0.06439883 0.035157606
0002d0 a2 f8 8a 3c 78 a0 15 3d fd c1 78 bd cb 1f 8b bb
       0.01696426 0.036529988 -0.060731877 -0.0042457334
0002e0 a0 06 ca 3d b0 26 b0 bc 53 26 79 bd 94 9e 2a bd
       0.09864545 -0.021502823 -0.060827564 -0.041655138
0002f0 56 9e 20 3d fa 83 60 bd 97 fc 0a bd f6 b0 45 bd
       0.0392135 -0.054813363 -0.033932295 -0.048264466
000300 a5 d7 22 bc 5c 30 4a 3d c4 3a bf bc 8c 54 2b bd
       -0.009939109 0.049362525 -0.023343451 -0.041828677
000310 67 a4 8d 3d 68 34 22 bd fd 4f 08 bd d0 1f 68 bd
       0.06916123 -0.03960076 -0.033279408 -0.056670964
000320 23 b3 29 bb 16 c3 c1 3c b1 b4 05 bd 7d ee 19 3e
       -0.0025894127 0.023652595 -0.032643024 0.15032382
000330 bf b2 e7 bc a4 dc a9 3c e1 04 d0 3d 9a 26 d1 3b
       -0.028283475 0.020735092 0.101571806 0.0063827755
000340 a8 94 b7 3a 26 05 dc bb d2 67 c1 bc 3e 65 6e 3b
       0.0014006095 -0.006714481 -0.023609076 0.0036376263
000350 55 21 87 3d 6e f2 df bc 35 79 4e bd 9e 6a 5c bc
       0.065981545 -0.02733728 -0.05040856 -0.013453154
000360 ef 4b 1b bc 6e 80 50 3d 0d a8 17 3d e8 c0 28 3d
       -0.009478553 0.05090373 0.0370255 0.041199595
000370 5e 25 3f bd 85 f5 cf 3d 27 e7 93 bd 4d f0 27 3d
       -0.046666496 0.10154251 -0.07221823 0.041000653
000380 93 e8 43 bd 2f 29 8b 3d 85 0b d4 bd fe 2e ad 3c
       -0.047829222 0.067949645 -0.1035376 0.021140572
000390 cf 7b 00 bd 02 dd b6 3d b2 40 e8 3d df b4 6b 3d
       -0.031368073 0.08928873 0.11340465 0.05754554
0003a0 78 8d 28 3d a2 37 2a 3d a5 ab 61 bd 04 b3 87 3c
       0.04115054 0.04155696 -0.055095334 0.016564853
0003b0 ed 8c 93 3d 5f 64 ae 3d f5 c9 05 3d 78 47 c8 ba
       0.07204614 0.08515238 0.032663304 -0.0015280088
0003c0 2e 69 4d bd f9 b3 4f bd 1c 66 a7 3a 87 6f 75 bb
       -0.050149135 -0.050708745 0.001277152 -0.0037450509
0003d0 86 dd 47 bd 1c 3d 25 3c 80 90 aa bc 68 6d 81 3d
       -0.048795246 0.01008537 -0.020820856 0.06319696
0003e0 b7 07 fb bc 74 e3 78 3d 0d 61 6d 3c d7 52 9c 3d
       -0.030643327 0.06076379 0.014488471 0.07632988
0003f0 fc fb 53 bd 5a 01 25 3d c4 d5 b6 3d 47 0d eb bc
       -0.051753983 0.040284492 0.08927491 -0.028692855

network_body.linear_encoder.seq_layers.0.bias f4 [128]
000000 28 36 04 bc 34 68 05 3c be 6d 4f bd 8a 8d 32 3d
       -0.0080695525 0.00814252 -0.050641768 0.043592013
000010 de 01 48 bd 98 b7 c7 bc a4 7b 69 bc 29 ab c0 bd
       -0.048829906 -0.024379537 -0.01425067 -0.09407646
000020 1b 7b 45 ba 05 a0 0a bd 1c 8f fa bc 71 c9 14 bd
       -0.0007533298 -0.033844013 -0.030585818 -0.036324922
000030 61 f2 86 bd 41 7a 31 3c e9 24 f8 bc 05 fb ca 3b
       -0.06589199 0.01083237 -0.030291038 0.0061944746
000040 29 1a f2 bc 0d ce 29 bd 5a 76 bb 3d a0 b2 e3 3b
       -0.02955349 -0.04145627 0.09153433 0.006948784
000050 c6 3e c8 3c 6f 64 9f bc d3 6e 6c 3d 88 d5 f8 bb
       0.024443995 -0.01945707 0.057722878 -0.0075938143
000060 f4 e0 27 3c 94 42 20 bd 23 b6 8b bc 90 ed 63 bd
       0.010246504 -0.039125994 -0.017054623 -0.05564648
000070 3e c8 34 bd f2 ba c8 3b f8 49 cc 3b 87 80 ce bc
       -0.04413628 0.0061258012 0.0062344037 -0.025207771
000080 09 95 4f 3d 6c 0a 95 3c 13 71 9f bc 4f b4 ec bc
       0.05067924 0.018193446 -0.019463098 -0.028894572
000090 da 08 36 bd 88 9c 0e 3d 40 ac cc bc e6 f8 41 bd
       -0.044442035 0.03481725 -0.024984479 -0.04735651
0000a0 b5 cd 43 bd a8 a0 dc bb 9d 0a 57 bc 2f 93 87 bb
       -0.0478036 -0.006733019 -0.013125089 -0.0041374187
0000b0 60 ad 53 bc ff f9 04 bd 10 a7 c7 bc dc d9 4c 3c
       -0.012919754 -0.032464977 -0.024371654 0.012503114
0000c0 8c ae a4 3c 86 2d 34 bc f4 7c 38 bd 5a 60 db 3c
       0.020102762 -0.010997182 -0.04504104 0.026779342
0000d0 fd 18 ae 3a 4a 22 8d bc 61 3b b1 bd 28 d2 9a 3c
       0.0013282594 -0.017228264 -0.08653904 0.018899038
0000e0 9f f7 b6 bd e8 17 3d bd 43 4d 85 bc c4 90 55 bc
       -0.08933949 -0.046165377 -0.016272193 -0.013035003
0000f0 ec 9d 00 bd a7 0b 67 bd f4 81 2e 3d 03 f5 82 3c
       -0.031400606 -0.056407597 0.0426044 0.015985971
000100 05 41 d2 bc 22 89 9a 3c 58 8e d8 bc 7b 99 c0 3c
       -0.02566577 0.018864218 -0.026435062 0.023510685
000110 fa 78 69 3d 75 af ef bc 4e 4f 91 3c 13 ba 03 bd
       0.057000138 -0.02925847 0.01773801 -0.032159876
000120 12 69 6f bd 16 74 0c bd c6 7b c4 3c cc 46 b1 3c
       -0.058449812 -0.034290396 0.023984801 0.021640204
000130 da c9 83 3d 04 ea 8e bc 34 19 2a bc b7 33 97 3c
       0.064349845 -0.017445572 -0.010381985 0.018457277
000140 a6 c5 6d bb 05 4e 0b 3c e1 d5 cd bb a8 bf 32 3b
       -0.0036281138 0.008502488 -0.0062816 0.002727488
000150 7e bc 16 bd 51 c0 d0 bc 30 4c 14 3b 47 9d 93 bc
       -0.036800854 -0.025482329 0.002262842 -0.018019332
000160 93 a4 bc bc c3 38 2c bd 91 76 28 bd 6b 9a 6e bc
       -0.023027694 -0.04204632 -0.0411287 -0.014563183
000170 f9 7c 0d 3d 31 56 fb bc 70 03 80 3c f9 d3 02 bc
       0.03454301 -0.030680748 0.01562664 -0.0079851085
000180 7a 2c dc 3c e7 82 ad bc 97 d2 04 bd 77 cc aa bc
       0.026876677 -0.021180583 -0.032427397 -0.02084945
000190 f7 63 4f bb f3 48 d5 3c 20 ec 54 bd 14 5d 02 bc
       -0.0031645277 0.026035761 -0.051983 -0.007956762
0001a0 e0 ef 86 3b ed b5 87 3c 80 ba 2f bd 13 16 b8 bc
       0.004117951 0.016566241 -0.04290247 -0.022471463
0001b0 ae cf 01 3d 1d 39 14 bd fa e0 24 3c 05 d5 08 3c
       0.0316922 -0.03618728 0.010063404 0.008351569
0001c0 a4 6b c9 bc 94 fe b2 bc 51 b3 d1 3d c9 e7 bf bc
       -0.02458746 -0.021849908 0.1023928 -0.023425953
0001d0 91 52 59 bc 17 03 89 3c 9d 11 00 bd 38 d1 13 38
       -0.013264314 0.016725106 -0.031266797 3.524238e-05
0001e0 7c e3 35 bc 43 aa 21 bd fc 1e 82 bd 63 9f fe 3b
       -0.0111016 -0.039469015 -0.06353566 0.007770465
0001f0 e2 b9 0c bd 6c 30 a2 bd a7 82 d9 bb d1 af 25 bd
       -0.03435696 -0.07919392 -0.0066378894 -0.040450875

network_body.linear_encoder.seq_layers.0.weight f4 [128, 78]
000000 7a 4d 47 be 1b a1 18 3e 9b 2a 23 be a1 42 47 3e
       -0.19463149 0.14905207 -0.15934221 0.1945901
000010 26 88 79 be e2 f1 b0 3d c2 df f5 3d ff 2c 2b 3d
       -0.24368343 0.086398855 0.12005569 0.04179096
000020 62 ad 47 be eb ec 52 be 1d f6 f5 bd d9 17 d0 3d
       -0.19499734 -0.2059819 -0.12009833 0.101607986
000030 e0 86 9f 3d 19 68 05 bd 35 34 c8 3d d6 70 31 be
       0.07789397 -0.03256998 0.09775583 -0.173282
000040 32 0b 6e 3c ac c6 80 3e 64 00 86 3d 9d 7d 42 bd
       0.014529036 0.25151575 0.06543043 -0.047483075
000050 3f b4 a6 bc b0 be 23 be df 9c 57 be 85 8e 15 3e
       -0.02034962 -0.1599071 -0.21055935 0.14605148
000060 0b d9 85 3c c9 fc 9a 3d df 6d e3 bd 4f 0b 62 3d
       0.016338846 0.07567746 -0.111049406 0.055186566
000070 96 0b 1d 3e 83 34 37 be 58 aa 88 3c 5c 96 88 bd
       0.15336451 -0.17891125 0.016682789 -0.06669304
000080 fb 8f 79 3e 36 41 2f be 71 eb 04 bd 39 e1 a0 3d
       0.2437133 -0.1711472 -0.032451097 0.07855458
000090 5c f0 e3 bd c9 76 2f 3b 04 61 24 bb 51 7c 97 bd
       -0.11129829 0.0026773682 -0.002508224 -0.07396758
0000a0 ab 40 a7 bc 3a b5 5d bd 63 de d3 3b a6 47 09 3e
       -0.020416578 -0.05412791 0.0064657195 0.13406238
0000b0 37 5a 97 3c 5a 78 38 3d 19 98 ac bd b0 35 94 3c
       0.018475635 0.04503665 -0.08427448 0.018092006
0000c0 e5 ce c2 3c 14 6c dd 3d 41 81 7e be 86 3d 48 be
       0.023780296 0.1081163 -0.24853994 -0.1955472
0000d0 36 e3 ed bd 84 28 07 3e b4 6c de 3d 98 24 06 bd
       -0.11615603 0.13199049 0.10860577 -0.032749742
0000e0 4d 33 00 bd e5 78 0e 3e cc 25 23 3e 35 5c 8c be
       -0.031298924 0.13913305 0.15932387 -0.27414098
0000f0 d0 fa 2c 3e b2 a9 0d be 87 01 01 be f6 15 75 3d
       0.16892552 -0.13834265 -0.12598239 0.059835397
000100 ca 7c 3e 3d af 74 89 be b1 81 99 3c 7c dd e8 bc
       0.046505727 -0.26846835 0.0187386 -0.028425924
000110 17 25 57 be a7 4c 73 3d 10 44 ca 3d eb 5a 1f be
       -0.21010242 0.059399273 0.09876263 -0.15562026
000120 16 3e de bd a3 ca 93 bd 37 49 38 bd 3d a9 e5 3d
       -0.10851686 -0.07216384 -0.044991698 0.1121392
000130 81 ce 08 3d 1f d0 1d bd 96 f0 86 bc 79 cf 31 3e
       0.033400062 -0.038528558 -0.016472142 0.17364301
000140 ea 2d 94 bd f4 33 f0 bd 0a 8d 34 3c ca 52 2a be
       -0.0723532 -0.11728659 0.011019954 -0.16633144
000150 5c 38 3a 3d 02 92 1a 3c df 66 0d 3e 17 4f 27 3c
       0.045463905 0.009434225 0.13808773 0.010211728
000160 06 d5 a9 bd 95 5b 9b 3c 2e 68 94 bd c1 8b 58 bd
       -0.08292584 0.018964568 -0.07246433 -0.052867655
000170 a4 0d 86 be 82 ee bb 3d b6 70 1e be 53 fc 6d bd
       -0.26182282 0.09176351 -0.15472683 -0.058101963
000180 e1 ad 49 bd 13 e4 38 be a2 f4 fc 3c a3 6b 46 be
       -0.04923809 -0.18055753 0.030878369 -0.19376998
000190 a6 2c 60 be f3 ed 50 be f9 2b b5 bd 6c 5f 29 be
       -0.21892032 -0.2040327 -0.08846278 -0.16540307
0001a0 e2 60 5c 3e a1 5d d0 bd 0a 5e c4 3d 14 61 86 bd
       0.21521333 -0.10174108 0.09588249 -0.06561485
0001b0 84 73 df 3d 1f e9 70 3d b8 a7 2e 3d a2 3c cc bc
       0.10910705 0.05881607 0.042640418 -0.024931256
0001c0 1e dc 7d 3d af 4f 65 3d 2e 47 e2 3c bc 03 11 be
       0.0619775 0.055984195 0.027621832 -0.14161581
0001d0 ed 47 76 bd ed 1e cb bd 56 d4 a8 bc cf a0 40 bd
       -0.060127188 -0.09918008 -0.020609062 -0.04702836
0001e0 59 bb 0e bd 73 c6 67 be 53 e1 9a 3d 71 bc 60 be
       -0.034846637 -0.22634296 0.075625084 -0.21946885
0001f0 87 68 b7 bc 8c 49 b0 3c d4 92 a8 bb 2f 86 2f bd
       -0.02238871 0.021519445 -0.0051444564 -0.042852577
000200 45 26 d3 3c dc 9e f7 bd 4f a1 bc bb fc 25 02 be
       0.025775084 -0.12090847 -0.005756534 -0.12709802
000210 25 f8 bb bb 3a 8f 0f be 87 a5 39 3d 30 81 3e 3e
       -0.0057363682 -0.1401948 0.045323875 0.18603969
000220 01 58 27 3d f4 e6 4c 3d 04 1e 2e be 35 1e 07 3d
       0.04085541 0.05002494 -0.17003638 0.032987792
000230 a1 61 c3 3d 9a dc 51 3e 24 df 16 3e 11 ab 89 bc
       0.095401056 0.20494309 0.14733559 -0.016805204
000240 51 79 6a 3d 77 d2 5c bc 35 2e a1 3d d3 f8 34 be
       0.057244603 -0.013477913 0.078701414 -0.17673044
000250 31 1a 90 3d 8b fc c7 bd 9f 80 6c 3d 04 4d 1e bd
       0.070362456 -0.097649656 0.05773985 -0.038647667
000260 76 72 c9 bd 15 5c 64 3e 17 71 17 3d aa 27 77 be
       -0.09836285 0.22300752 0.036973085 -0.24136224
000270 5a 1a 53 be 3f 94 31 bb 4f 38 a6 bd ed d9 09 3d
       -0.20615521 -0.0027096418 -0.08116209 0.033655096
000280 19 39 86 3d 41 d8 4e 3d a7 10 cc 3c db b8 e2 bd
       0.06553859 0.050499205 0.024910284 -0.11070415
000290 a0 7f b5 3d 94 95 ec 3d ef 50 38 3e 62 2a 71 be
       0.08862233 0.11551967 0.17999624 -0.23551324
0002a0 21 58 68 3e 64 35 11 be b1 04 39 3e 13 f1 11 be
       0.22689869 -0.14180523 0.18068196 -0.14252119
0002b0 22 e6 8f bd 90 34 11 be 16 0f 1b bd 1c 38 17 3d
       -0.07026316 -0.14180207 -0.037856184 0.036918744
0002c0 2b 3d 0c be 9a 6c ce bd 8d ab c2 bc f9 68 01 be
       -0.13695209 -0.10079308 -0.023763442 -0.126377
0002d0 d4 03 82 3c 37 34 8f bd 5d 88 08 bc 54 18 aa 3d
       0.015870966 -0.06992381 -0.008333293 0.083054215
0002e0 11 ec 56 bd e0 70 1a be 3e d0 10 bd e9 08 28 bd
       -0.052471224 -0.15082121 -0.035354845 -0.041024122
0002f0 5d 7b 8e 3b 2b e6 16 be 2c 95 48 3d 93 55 aa bd
       0.004348202 -0.1473624 0.048970386 -0.08317103
000300 27 20 f2 3a 8d 93 d4 3d 68 40 01 bd 9e 8c dd 3c
       0.0018472717 0.103797056 -0.031555563 0.02704459
000310 53 62 c2 3c c4 21 0a be 7e 1c e3 3c 69 98 5b 3d
       0.023728525 -0.13489443 0.027723547 0.053612147
000320 30 f1 99 bd 2e f2 a2 3d 8e 1b 75 be a7 ff fe 3d
       -0.07516706 0.07956348 -0.23936293 0.124511056
000330 a7 43 1a bd 55 ba 06 bd 79 c2 24 be 32 69 1f 3e
       -0.037662175 -0.032892544 -0.1608981 0.15567473
000340 19 3a 40 bc 70 47 58 be bf 3b cb 3b 53 ad 01 be
       -0.011732602 -0.21121001 0.0062021906 -0.12663774
000350 16 f1 2f be 71 24 64 bc b0 f4 db bb 58 6e 22 3d
       -0.1718181 -0.013924704 -0.0067125186 0.039656013
000360 e8 58 83 be b7 c2 63 bd fc 09 36 3d 53 fe 2d be
       -0.25653768 -0.055605616 0.044443116 -0.16991548
000370 4d f2 86 3d 2b a6 c1 3d 82 91 26 3d cc 23 e3 bd
       0.06589184 0.09455522 0.04066611 -0.11090812
000380 7b f8 1f be 6b ee 00 be 34 51 98 bd 6e e5 3d 3d
       -0.15622132 -0.12590949 -0.07437363 0.04636138
000390 22 ea 0f be 06 49 5b be 04 e4 86 bd a0 c5 72 bd
       -0.14054158 -0.21414575 -0.06586459 -0.0592705
0003a0 18 42 27 3e e1 9b be 3d d0 ce 2e be 4a 43 8e bd
       0.16333807 0.09307075 -0.1707108 -0.06946428
0003b0 51 7b 93 3d 3a 1c 0a 3e 4a f3 67 3e 50 97 e2 bd
       0.07201255 0.1348733 0.22651401 -0.11064017
0003c0 86 d0 a9 be 13 6c 24 3d 20 eb 2b be ba e0 cf bd
       -0.33166903 0.04014213 -0.16788912 -0.10150285
0003d0 f4 be 35 3d 14 6f 8e 3d 9d 85 2f be a6 d8 42 bd
       0.04437156 0.0695478 -0.17140813 -0.047569893
0003e0 af a0 10 3e d3 32 2c be 3a 13 31 be b5 69 bb bc
       0.14123796 -0.16816263 -0.1729249 -0.022877553
0003f0 3e 41 f3 bd 1b 6e 5d bd af f6 96 3d c4 ff 17 bd
       -0.11877678 -0.054060083 0.0737127 -0.03710915

network_body.linear_encoder.seq_layers.2.bias f4 [128]
000000 92 d8 50 bd 6d 4e 4b 3d 88 ba 8d 3b c5 ba d5 3b
       -0.050987788 0.04963534 0.004325215 0.006522509
000010 9b cb 48 3c 7c e5 f2 bc 27 6e 9a bd 9f 02 ad 3c
       0.012255575 -0.029650442 -0.07540541 0.021119414
000020 72 29 d9 3c 79 c0 18 3c e9 87 ab bb d6 8b 17 bc
       0.02650902 0.009323233 -0.0052347076 -0.009249648
000030 cd 4d 8d bc 80 5f a8 bd 49 ec 14 3d bd b1 4d bd
       -0.017249012 -0.0822134 0.03635815 -0.050218333
000040 5c c8 ba bb 02 c8 91 bc ce e1 07 bd d3 6b 1d 3c
       -0.005700154 -0.017795566 -0.03317433 0.009608227
000050 79 61 ce bc 56 0e ad bd 49 75 f4 3c 3f 79 6f bd
       -0.025192963 -0.0845 0.029841082 -0.05846524
000060 99 94 f8 bc 49 d5 40 bd f9 88 ab bc 69 19 65 bd
       -0.030344294 -0.047078405 -0.020939337 -0.055932436
000070 f1 17 36 3d b4 e8 28 3d 97 aa 75 3c 46 6b ff 3c
       0.044456426 0.041237548 0.014994285 0.031179082
000080 5a e3 55 3d 06 4f 18 bd ea 1c 0c 3c 48 83 0f bc
       0.052218772 -0.037184738 0.0085518155 -0.008759327
000090 18 6b 5a 3c 89 70 83 3d 8c 0c 5a bd ac 22 10 3d
       0.013331197 0.06417949 -0.053234622 0.035189316
0000a0 ae 40 06 3d 2f 8a e4 bd 74 9a 50 3d 0f 40 36 bd
       0.032776527 -0.11159169 0.050928548 -0.044494685
0000b0 95 3c 44 bb 7b 38 70 3d 10 46 33 bc 1d 19 e1 bc
       -0.0029943336 0.058647614 -0.010941997 -0.027477795
0000c0 f0 55 6e 3c 43 40 02 3b 76 d1 c3 bc 27 d8 f6 bd
       0.014546856 0.0019874729 -0.02390359 -0.120529465
0000d0 46 21 dc bc 7b 79 42 bd 7d d9 fe bc 6c a1 aa 3b
       -0.026871335 -0.047479134 -0.031109566 0.0052072313
0000e0 4b 50 e7 bc 28 fd 8a bd d9 5f 1a bd d2 a7 d8 3a
       -0.028236529 -0.06786567 -0.037689064 0.0016529507
0000f0 d6 ba ab bc fe 7e ba 3c 6b 6d 96 bc fe 95 9f bd
       -0.020963114 0.022765633 -0.018362721 -0.077922806
000100 74 59 94 bb f0 44 81 bc 71 14 a0 bd 1e 8c bf bc
       -0.004527265 -0.015779942 -0.07816399 -0.023382243
000110 a5 91 60 3a 37 17 85 3d 4c 50 86 bd 9b 8d 6c 3c
       0.00085666246 0.064985685 -0.06558284 0.014438058
000120 4e 4e 72 3a fa 87 38 3d 82 f4 f1 bc 74 bd d2 bd
       0.00092432357 0.045051552 -0.029535536 -0.102900416
000130 45 08 19 bd 96 67 df bb 18 0c 2e bd 7d ba c5 bc
       -0.037361402 -0.0068177683 -0.042492002 -0.024136776
000140 19 c2 fc 3c 4a d0 47 3c c3 2a 0e 3d f7 1d 3b 3c
       0.030854272 0.012195656 0.03470875 0.011420718
000150 fa 01 26 3b 56 bc 62 bc 31 b0 b1 3d 48 49 a4 bd
       0.0025330768 -0.013838848 0.08676184 -0.0802179
000160 b9 26 10 bd bf ae 53 3d 62 53 0f 3d 07 62 30 bd
       -0.03519318 0.051680323 0.03499163 -0.043062236
000170 94 f6 5b 3d e2 f1 9d 3c 91 ff 43 3d ee 8e 95 3c
       0.053701952 0.019280378 0.04785115 0.01825663
000180 fa 98 ad bc 1c e3 7d bd 10 98 95 3a 38 d3 9f 3c
       -0.021191109 -0.061984167 0.0011413116 0.019509897
000190 33 b4 d9 bd a3 3f 0b 3d 37 6f 83 bd 54 5d d4 3c
       -0.106300734 0.033996236 -0.06417697 0.025923409
0001a0 56 b3 d8 3b bd 2d 98 bc eb cd 7a 3d 6d 24 9f bd
       0.0066131754 -0.018576497 0.061231535 -0.077706195
0001b0 a2 84 57 bc 77 bc ee bd 88 55 04 bd f4 55 e6 bc
       -0.013154181 -0.116570406 -0.03230813 -0.028117158
0001c0 9b 77 35 3d 90 69 0d bd 0a 1f 12 bd 63 9e ea 3c
       0.044303518 -0.0345245 -0.035674132 0.028639978
0001d0 8c 81 43 bc 09 a5 f1 bc 6e 85 b8 3c 52 33 ad 3b
       -0.011932742 -0.02949764 0.022524562 0.005285659
0001e0 ae 71 2c bd 74 18 66 3b a3 7c c7 bc 08 95 49 bd
       -0.0421006 0.003510979 -0.024351424 -0.049214393
0001f0 72 9a 46 bc 5e 71 eb 3c 2c bb 80 3d e2 7b b5 bb
       -0.012121784 0.028740581 0.062857 -0.0055384496

network_body.linear_encoder.seq_layers.2.weight f4 [128, 128]
000000 71 ef ac bd 77 88 fb bc 0b 68 69 3d 66 3e 05 be
       -0.08444107 -0.03070472 0.05698399 -0.13012084
000010 6c 4f 49 3e 73 a9 58 bd 1e a4 96 3d 52 bf 73 bb
       0.19659203 -0.052895974 0.073555216 -0.0037192893
000020 be fc a3 ba 8f 26 61 3d bb 64 37 3e 07 0a ae 3c
       -0.0012511236 0.054968413 0.1790952 0.021245016
000030 ee 1e 04 3e 1c dd bc 3e 58 51 a8 3d b9 ae 03 bd
       0.12902424 0.36887443 0.0821864 -0.03214905
000040 72 b2 ee bc 5b ee 68 bd 3e e8 71 be c1 74 03 3c
       -0.029137824 -0.05686794 -0.2362375 0.008023442
000050 6c 1a c5 bd c6 6c 77 bd f6 8a f1 bd 13 2f 89 bd
       -0.0962418 -0.06040647 -0.11794083 -0.06698432
000060 d0 7e 6c bc a4 0b d0 bd 87 00 78 bb 14 40 de 3c
       -0.014434531 -0.1015847 -0.0037842111 0.027130164
000070 bd 93 b0 3d dd 61 e0 bd bb e3 c3 3c 58 f4 b1 3c
       0.08621929 -0.10956166 0.023912301 0.021722957
000080 ae 6d 9c bd 25 4c 0e bd aa 4a 70 be 31 bb d4 3c
       -0.07638107 -0.034740586 -0.23465982 0.025968166
000090 73 14 c3 3c 62 cc 15 3e 26 84 13 3d 41 bb 8f 3c
       0.023813462 0.14628747 0.0360147 0.017545344
0000a0 df a3 62 bc 60 00 6a 3d 96 a6 01 3e 63 48 00 bd
       -0.013833015 0.057129264 0.12661204 -0.031319033
0000b0 ae ea c2 bd 00 e3 5c bc d2 38 a8 bd 3c ba 48 3e
       -0.09517418 -0.013481855 -0.082139626 0.19602293
0000c0 99 14 cc bd 54 9a a7 3c 5c df 48 be 15 74 b9 be
       -0.09964866 0.020459332 -0.19616455 -0.36221376
0000d0 6c 5a 32 3e 12 0a 8f 3d 67 a3 9e 3d 46 ae 95 bd
       0.17417306 0.06984343 0.0774601 -0.07308631
0000e0 63 c8 9b 3d 0c 9b 69 3b ad 4d 10 3d d6 8d 9d bd
       0.0760658 0.0035645394 0.035230327 -0.07693069
0000f0 3a be 10 3e d1 9f 81 bb 7a e5 0f 3e 0f 87 90 be
       0.14135066 -0.003955819 0.14052382 -0.28228042
000100 89 05 ab 3d 37 3c 15 be 1b c0 21 bd d0 cf 0c bd
       0.08350665 -0.14573751 -0.039489847 -0.034377873
000110 56 98 3d bb e2 bc 1c bd 97 6b 9a bd 79 a0 e4 3c
       -0.002892991 -0.03826607 -0.075400524 0.02790855
000120 8b 58 2e be 88 61 4a 3d 12 54 27 be 4d 07 3a be
       -0.17025964 0.04940942 -0.16340664 -0.18166848
000130 8d e8 4f 3d 36 25 3b 3d a8 c2 1f 3c 2a f4 a2 be
       0.050758887 0.045689784 0.0097509995 -0.31826907
000140 10 8e 63 bd 0e b2 7b bd 34 ff 0e 3e 6c da 2b be
       -0.055555403 -0.061449103 0.1396454 -0.1678254
000150 b7 ee 0a bd 4f 0e 8c bd b9 32 fc 3c 18 0f 0f bd
       -0.033919062 -0.06838667 0.030785905 -0.034926504
000160 8f de cf bd a9 db 0f bc cd ad 03 3e ef 3c 79 be
       -0.101498716 -0.008780398 0.12859268 -0.2433965
000170 8b b3 06 bd 8a a7 00 3e 7d 3f 98 bc 88 dc 39 bd
       -0.03288607 0.12563911 -0.018584961 -0.04537633
000180 56 dc 91 be 89 d3 36 3d f0 78 8c bd bc e3 e9 3c
       -0.28488415 0.04463533 -0.068590045 0.028550975
000190 22 c0 38 3e 6a 5f 27 bb 82 54 9a 3b b3 df a2 3c
       0.18042043 -0.002553905 0.004709781 0.019882059
0001a0 14 8f f3 3d 0e a3 91 3d 8c f9 04 3e 84 8e f9 bc
       0.11892524 0.07111178 0.1298582 -0.030463465
0001b0 d4 47 5b bc bb 8c c3 3b 2b 07 e4 3d 84 6f 12 be
       -0.013383824 0.005967704 0.1113418 -0.14300352
0001c0 13 00 f5 3d ee 0b 15 bd 1d 55 39 bc 22 a8 8f 3d
       0.11962905 -0.03638833 -0.0113117965 0.07014491
0001d0 a0 f8 df 3d ee c5 cc bd eb d8 24 3e e0 b4 15 3e
       0.10936093 -0.099986896 0.16098373 0.1461978
0001e0 55 70 31 bd da 84 6c 3d 88 f2 80 3e 28 fa a5 3c
       -0.04332002 0.057743885 0.25185037 0.020260885
0001f0 f9 18 db bc 10 03 98 3c 08 6e 7f 3d ef e2 64 3d
       -0.026745306 0.018556148 0.062360793 0.055880483
000200 d8 f9 b0 3d 5c ee 3b be ae 2a c6 3c c7 9a c5 bd
       0.08641404 -0.18352646 0.024190273 -0.09648662
000210 67 3e 93 bd 98 e3 30 3c 78 d7 98 3d 67 46 d5 3c
       -0.07189637 0.01079645 0.074629724 0.026034547
000220 13 b6 fe bd b8 b3 14 3d 3b eb 61 be 26 f6 08 3e
       -0.12437072 0.036304206 -0.2206239 0.13375148
000230 8b fd e6 3b 86 b9 38 bd fc 72 66 bd e4 95 eb 3c
       0.0070492676 -0.045098804 -0.056262 0.028757997
000240 32 c4 43 bd 60 bb 9f 3d 4e 84 68 3b 03 0b 2c 3d
       -0.04779453 0.07799411 0.003547925 0.04200269
000250 18 98 b3 3d b5 1b a5 3d c3 df 1c 3d 02 36 27 bc
       0.08769244 0.08061925 0.038299333 -0.010205748
000260 2e 5e 20 be 94 54 04 bd 64 89 7a bc ff 75 7b 3e
       -0.15660927 -0.032307222 -0.015291546 0.2455673
000270 de c5 52 3c 45 7f b5 bc 83 b0 e3 3d 6f 6d ce 3d
       0.012864558 -0.022155413 0.11117651 0.100794666
000280 8f 49 06 3c 6f 59 5f be 49 2c 94 bd 99 48 87 3d
       0.008196249 -0.2181146 -0.07235009 0.06605644
000290 2a 4e de bc c4 66 79 be da 19 99 bc b6 d4 4c 3c
       -0.02713688 -0.24355608 -0.018689085 0.012501886
0002a0 21 ea 39 be c2 0c 28 3d 2a 36 00 be 3b 6e 31 bd
       -0.1815572 0.04102779 -0.12520662 -0.043318015
0002b0 45 6a 63 bd 5f 52 4d bd b6 95 d5 3d 44 6b 97 3d
       -0.05552127 -0.050127383 0.10428946 0.07393506
0002c0 1f c5 9e 3d a3 c7 d3 3b cf c0 5a 3b af 5a e1 3d
       0.077524416 0.0064630075 0.0033379083 0.11003625
0002d0 e4 05 73 bc 73 fb b0 bb c7 6e d2 bd cb 2f a4 bc
       -0.014832947 -0.005401069 -0.10275035 -0.02004232
0002e0 7c 07 43 bd 7f d1 35 3c 86 60 1f be cf d1 37 3d
       -0.04761456 0.011097311 -0.15564165 0.044877823
0002f0 36 be c3 3d 00 f8 8e be 3e 7a 1e be db 0d e7 3c
       0.09557764 -0.27923584 -0.15476319 0.028204849
000300 74 d7 90 bd 92 4e 1c bb ce ab e0 3d b6 94 7a 3e
       -0.070723444 -0.0023850542 0.10970269 0.24470791
000310 2f ad 6b bd 3c 9b b4 bd 12 31 f3 3b a4 f3 82 bc
       -0.057538208 -0.08818671 0.007421621 -0.015985318
000320 9a 1f d5 bd 5c 08 de 3b 9f ea d8 bd 9f 9b cb 3c
       -0.10406418 0.006775899 -0.105916254 0.02485448
000330 5a 6a 2d bd be 50 0a 3e 28 ff 02 3e 2d 23 5b bd
       -0.042337753 0.13507363 0.12792647 -0.053500343
000340 eb d1 83 bc f5 59 0d 3e 10 2b c5 3d 0b f5 58 be
       -0.016091308 0.13803847 0.09627354 -0.21187226
000350 c9 4d 3f 3e bf 24 3a be 83 04 98 bd fd 95 c5 3c
       0.18682016 -0.1817808 -0.074227355 0.024119372
000360 30 46 b9 bd 53 1b ef bc 8f b7 19 be 00 35 cc 3d
       -0.0904659 -0.029187834 -0.15011428 0.099710464
000370 4d 23 9a bc 38 79 86 ba 71 c8 15 be da b5 f3 3d
       -0.01881566 -0.0010259515 -0.14627244 0.1189992
000380 0a 65 2f bc 2b c5 68 bb 68 7c 3c bc e6 dd e9 3d
       -0.010705242 -0.0035517912 -0.01150427 0.11419277
000390 49 4b 3b 3e c7 16 1b bd 03 81 97 be 6e 56 d4 bc
       0.18290438 -0.03786352 -0.29590616 -0.02592012
0003a0 18 a7 7e 3d 8d 09 e1 3d 92 a7 87 bd cf 9d 9f 3d
       0.06217107 0.1098815 -0.066237584 0.077937715
0003b0 ae 5a c1 bb ce 91 0c 3d 3f 2d 7c bd 1c bd 19 bd
       -0.0059007024 0.034318738 -0.061566588 -0.037533864
0003c0 7f 41 54 be 85 7b 03 3e 15 ba 20 3e ea 36 3e 3e
       -0.2072811 0.12840088 0.15695985 0.18575636
0003d0 c4 19 83 be ba 69 22 be 7d 36 76 3c 0b 3b 08 be
       -0.25605595 -0.15860644 0.015027639 -0.13303773
0003e0 46 54 c5 3d 4a 2a b7 bd fa 8d 69 3d 5d eb b1 bd
       0.096352145 -0.08943613 0.057020165 -0.0868747
0003f0 88 b5 26 be c1 05 60 be 8c 58 0f bc 29 cc 1f 3d
       -0.16280186 -0.21877195 -0.008749139 0.03901306

network_body.linear_encoder.seq_layers.4.bias f4 [128]
000000 0c a6 42 be f4 15 85 3c ad b9 96 bd 76 59 59 bd
       -0.19008654 0.01624582 -0.073596336 -0.053063832
000010 ba a2 df bc 5a 49 ae 3d 07 dd 86 bd 05 60 30 3d
       -0.027299274 0.085100845 -0.06585126 0.04306032
000020 2b 3f e0 bd 3b fc 30 bb f8 44 fd bc 32 1a a2 3c
       -0.10949548 -0.002700581 -0.030916676 0.019787882
000030 10 9f 11 bd b0 f9 4a 3c 99 15 14 be 21 bb 13 3c
       -0.035552084 0.012388632 -0.14461364 0.009016783
000040 e0 00 84 3c c5 8c 9b 3d 44 26 99 3b b8 2e 61 3d
       0.016113698 0.07595209 0.004673751 0.054976195
000050 44 2d b1 bd 4f bd 86 3c 2d 2c 0c be fe f6 9d 3d
       -0.08651212 0.016447691 -0.13688727 0.07713126
000060 fe d4 6c bd f3 92 7e bd 25 ac 7b 3d aa 7b b8 3c
       -0.057820313 -0.06215186 0.061443467 0.022519905
000070 fa 49 05 3b 57 2b cb bc 70 91 b9 3d 4e 46 86 bd
       0.0020338283 -0.02480094 0.09060943 -0.06556378
000080 50 49 e6 3c 99 e9 33 3d f5 61 d0 3c 20 be 45 3d
       0.02811113 0.043923948 0.025437335 0.04827702
000090 3a 1b 5d be 21 c5 bf bc 2b 47 2e be 51 66 bc bd
       -0.21592417 -0.023409428 -0.17019336 -0.09199203
0000a0 c9 c0 52 3d e4 1b d0 3c 04 48 7d bd d7 fd d8 3d
       0.051453386 0.025403924 -0.061836258 0.10595291
0000b0 06 4d 14 bd a7 e0 dd bc 4c 13 c5 bd 5b 3c 1d be
       -0.036206268 -0.027084662 -0.09622821 -0.15355055
0000c0 d2 f7 14 bd ca 52 95 3d 2a 9a 85 3d 7f d2 df 3d
       -0.036369152 0.072911814 0.06523545 0.10928821
0000d0 46 04 cf 3d 47 dc 2c 3b f9 e8 82 bd b9 0d e1 3b
       0.10108237 0.0026376413 -0.06392092 0.006868091
0000e0 ed 8f 68 bc ec e2 0f 3c 03 12 38 be 32 dc fa 3c
       -0.014194471 0.00878213 -0.17975621 0.030622575
0000f0 34 de b8 3b 3b ed e0 bd 46 f1 05 be 1a 57 8d bc
       0.005641723 -0.10982748 -0.1308032 -0.017253447
000100 51 33 5c 3b 6e 45 66 3d 11 57 c4 bd 8f a4 6e bd
       0.0033599923 0.056218557 -0.09586919 -0.058262404
000110 13 25 64 bd 98 2a df bd 97 53 b3 bd 46 7f 87 3d
       -0.05569942 -0.10896796 -0.08756178 0.06616072
000120 9a 51 6e 3d 52 7b a5 3d 41 f2 6f bc 9d 7c 58 b9
       0.05818329 0.08080162 -0.01464516 -0.00020645787
000130 51 bb 28 be 83 9f 18 3d 1e 62 f0 bc 34 26 51 3d
       -0.16477706 0.037261497 -0.02934366 0.051061824
000140 11 df 28 bd 73 e9 61 3d 5a f5 88 3c 78 08 2f bd
       -0.041228358 0.055154275 0.016718555 -0.042732686
000150 b4 61 61 3d 18 c5 23 be 48 aa 6d 3c b6 30 b4 3b
       0.055024818 -0.15993154 0.01450593 0.005498971
000160 ac b8 5e bd fe 74 1c 3d fd f1 87 bb 10 18 f5 bd
       -0.054375336 0.03819751 -0.0041487203 -0.1196748
000170 f0 89 05 bc cc b3 60 3d 58 ba 4d bd 00 c0 bb 3c
       -0.008150563 0.054858968 -0.05022654 0.022918701
000180 34 ca d9 bd a8 58 01 3d 16 d5 85 bd 25 34 05 bd
       -0.1063427 0.03157869 -0.065347835 -0.032520432
000190 6a 3c 47 3d 72 0f ef 3c 54 e8 ab 3d 4e 2d a9 ba
       0.0486416 0.02918217 0.083939224 -0.0012907179
0001a0 cd 7c c8 3d c3 70 b7 3d 8b 7d c2 bd 7d 5b a6 3c
       0.09789429 0.089570545 -0.09496602 0.020307297
0001b0 94 89 2d 3d 1a 64 0f 3b 9a dc 59 bd b5 92 92 3d
       0.042367533 0.0021879734 -0.053188898 0.071568884
0001c0 f1 29 4e 3c aa 19 2f 3d 02 4e 03 3c 50 08 c9 bc
       0.012583242 0.042749085 0.008014204 -0.024540097
0001d0 8f 45 94 bd f9 fd 86 3c 41 9f b7 bd a8 4e 47 3d
       -0.0723983 0.016478525 -0.08965922 0.048658997
0001e0 1b 24 40 bd 17 fc 80 3d 7e e2 8f bc b4 54 78 bd
       -0.046909433 0.06298082 -0.017564055 -0.060627654
0001f0 0e 27 13 be 10 d5 84 bc 68 22 df 3c cb 31 83 bd
       -0.14370367 -0.016214877 0.027238086 -0.06405982

network_body.linear_encoder.seq_layers.4.weight f4 [128, 128]
000000 05 91 80 be ff 6b b7 3b 40 47 2f 3d 64 76 6d be
       -0.2511064 0.005597591 0.04279256 -0.23189694
000010 d4 86 99 3d a5 22 86 be 2e 34 39 3d 8b df 0f 3d
       0.074964195 -0.26198307 0.045215778 0.035125297
000020 b7 36 2c 3d 95 a7 b9 3d 88 a6 bc 3d 4c e3 a2 3d
       0.042044368 0.09065167 0.09211451 0.0795351
000030 75 6f 4b 3e 27 7d 0c 3e ad da 62 be 0d c9 07 3e
       0.19866736 0.13719617 -0.2215373 0.13260289
000040 8e 4f 82 be 5e 30 cb 3c 83 95 79 bd 8f 71 c1 3d
       -0.2545132 0.024803337 -0.0609336 0.09445488
000050 00 91 36 be 10 38 43 3d 0c 54 ec bc a7 27 83 3d
       -0.1782875 0.047660887 -0.02884867 0.064040475
000060 2b 2b 93 bb 41 bf 19 be 65 3e 67 3d 40 b2 a6 bd
       -0.00449123 -0.15014364 0.05645599 -0.08139467
000070 b1 a0 5e 3d e3 b1 03 be 56 90 99 bc f5 27 03 3d
       0.054352466 -0.12860827 -0.018745583 0.032020528
000080 cb 4e 33 be c3 c4 15 bd 0f 36 22 be 9a 52 ac bd
       -0.17510526 -0.0365646 -0.15840934 -0.084141925
000090 5a bd 90 3d dc 25 56 3c de 73 10 3e 94 b8 28 3e
       0.07067366 0.01307055 0.141067 0.16476661
0000a0 36 c5 75 be 3c 9a 27 3d e2 37 85 be e4 48 07 3d
       -0.24001011 0.040918574 -0.26019198 0.0330285
0000b0 94 e9 bf bc 14 ae 6e bd 1a fe a0 bd 33 1a 1e 3d
       -0.023426808 -0.058271483 -0.07860966 0.038599204
0000c0 0a 3c 69 3d 4d 73 61 3d ac a0 d4 3c b0 11 ff 3d
       0.056942023 0.0550416 0.02595552 0.124545455
0000d0 19 c5 b9 bc 1c 9e b9 3c 93 7a 39 bd 21 74 ac 3c
       -0.022676991 0.0226584 -0.04528291 0.021051468
0000e0 b2 57 dc 3d 4f c1 a4 bd ca bf 1f bb cd 33 84 bd
       0.10758914 -0.08044683 -0.002437579 -0.06455193
0000f0 f9 15 15 bb c1 8a 54 bc bf 65 4f 3d 6a d1 7e bc
       -0.0022748692 -0.012972535 0.050634142 -0.015552858
000100 67 f4 c5 bd 8f 86 89 bd 1c e9 49 3d 83 69 69 bd
       -0.09665757 -0.06715118 0.049294576 -0.05698539
000110 e6 54 7f 3d fd cc 17 bd 29 f4 d9 3d 27 23 5f bd
       0.062336825 -0.037060726 0.10642273 -0.054476883
000120 dc b6 e3 3c 0c 9d 98 3d 70 ae 94 3c 31 8b 78 3d
       0.027797155 0.07451829 0.018149585 0.06067962
000130 7d f7 41 be d8 f3 1e 3e a8 54 42 be 72 0b 5e 3e
       -0.18942066 0.15522707 -0.18977606 0.21684054
000140 c5 37 46 be 68 69 2d be c1 a4 a1 3c 67 23 9b 3d
       -0.19357212 -0.1693474 0.019731881 0.07575112
000150 50 81 28 bc fb f6 00 3e f8 e7 39 be e2 d6 22 3e
       -0.010284737 0.12594216 -0.18154895 0.15902284
000160 d5 a4 e1 bd 44 45 d3 bd 33 fb 05 3d 9d 6c 7b bd
       -0.11017767 -0.10315946 0.032710265 -0.06138288
000170 55 d3 01 be 05 3f 5d be 61 b3 a8 3c 8f 82 a0 bd
       -0.12678273 -0.21606071 0.020593347 -0.07837402
000180 41 ae ca 3b 12 ed 30 3e ac b8 97 bd 55 71 bb bd
       0.0061853235 0.17277935 -0.0740827 -0.09152476
000190 be 1f 44 3e f1 ff d4 bd 4d 22 0e be 60 2d 0d 3d
       0.19152734 -0.104003794 -0.13880272 0.0344671
0001a0 eb 4d b5 bd 69 b7 27 be 88 1d 40 be 65 8e 54 3e
       -0.08852752 -0.16378559 -0.18761265 0.20757444
0001b0 52 f1 83 bc d7 9d 0f 3e 80 f0 cb bc 28 f9 07 3e
       -0.016106281 0.14025055 -0.024894953 0.1327864
0001c0 85 e0 df 3d e1 89 f4 3d 7d cf 42 3e e6 ed f3 3d
       0.109314956 0.11940361 0.19024463 0.1191061
0001d0 9c 8a b3 3d 26 28 08 be 54 05 82 bc 08 bf 6e 3d
       0.08766672 -0.13296565 -0.015871681 0.05828765
0001e0 63 5c 1a 3e b5 af 0b 3d d7 d9 07 bd 20 ed 8e 3d
       0.15074305 0.034103114 -0.033166733 0.06978822
0001f0 22 be a1 3c 4c 2c 2a 3d 92 10 2b be 62 60 99 3d
       0.019743983 0.04154615 -0.1670554 0.07489087
000200 5e 2a 26 be 9a 81 04 3e 4c 5c 39 be af 43 7f 3c
       -0.162271 0.12940064 -0.18101615 0.015580102
000210 4b 41 47 be 4a 09 23 be 9d f8 54 be fa 6e 37 bd
       -0.19458501 -0.15921512 -0.20797963 -0.04478357
000220 5b 7e aa 3c 64 63 de bd 28 5e 13 be 0c 44 21 bd
       0.020812204 -0.10858801 -0.14391387 -0.039371535
000230 8b 5f a0 bc a6 65 19 bd 66 ee af 3d 37 39 c3 bc
       -0.019576808 -0.037450455 0.08590393 -0.023830993
000240 7d 77 f5 bc bf 57 b8 bd 1c 3d 27 be 53 33 3d bc
       -0.029964203 -0.09001111 -0.16331905 -0.011547881
000250 00 29 3f be 47 1a 8b bd ae ae ac bb 22 a0 95 bd
       -0.18667984 -0.067921214 -0.005269847 -0.073059335
000260 4e 2c 4a 3e 25 3c 50 bd 9b 93 87 3d 97 71 31 3d
       0.19743463 -0.05083861 0.066199504 0.04332122
000270 4b 44 a1 3d 77 df be bd 92 d8 e2 bb 1d df 96 3d
       0.07874354 -0.09319966 -0.00692279 0.07366774
000280 5b 87 19 bc 2d 57 81 be e6 c1 6f bd 78 89 fa bd
       -0.00937065 -0.25261822 -0.058534525 -0.12233251
000290 0d 6c 6b 3e 1b 51 61 3b 5f 17 0d 3e a5 bc 76 3d
       0.22990437 0.0034380618 0.13778447 0.0602385
0002a0 04 fa 20 3e cc 1b 37 be ca 45 e1 bd 8c bc 9a bd
       0.15720373 -0.17881697 -0.10999639 -0.07555494
0002b0 73 ae 62 be 3b 0a 22 3d 1f c7 11 3e db 51 da 3d
       -0.2213686 0.039560538 0.14236115 0.10660144
0002c0 4c 6d b3 bd 53 2b 38 3e 87 45 ab 3d 52 95 0f 3d
       -0.08761081 0.17985277 0.08362871 0.035054512
0002d0 6e dd 57 bd 8b 4c 05 3e 35 57 24 be 78 78 02 be
       -0.052701406 0.1301748 -0.16048892 -0.12741268
0002e0 19 c4 14 3e 00 25 9c 3b 49 40 7e bd 8e 61 17 bd
       0.1452793 0.004765153 -0.062073026 -0.03695827
0002f0 d2 ff ac 3d e0 bb 08 3e 3c ba bc bd 8a f3 cc bd
       0.08447231 0.13352919 -0.09215209 -0.10007389
000300 86 70 6f bd f9 31 52 bc 93 fa 93 bd 33 91 b7 bd
       -0.05845692 -0.012829297 -0.072255276 -0.089632414
000310 7d 89 10 3e f5 a8 34 be ee 49 c9 bd ec ef a6 bd
       0.14114948 -0.17642577 -0.09828554 -0.0815123
000320 62 4f 00 3c 20 65 4e 3e 56 5e 58 bd eb 3d e3 3d
       0.007831426 0.20155764 -0.05282434 0.11095794
000330 25 06 bd bd 4d e0 83 3d a9 6f cd 3d 1f ed ff 3d
       -0.092296876 0.06439266 0.10031063 0.12496399
000340 4d 14 bb bb 71 87 f7 3d cf 48 3d bc 3a ca 89 bd
       -0.005709207 0.1208638 -0.011553003 -0.06728025
000350 4c 02 3d 3d 28 87 dd 3d 82 de 3c 3c d3 fb 23 be
       0.04614477 0.10816795 0.011527659 -0.16014032
000360 d4 98 1c 3e 97 a6 fb 3b 16 93 4f bd f0 66 3e 3d
       0.15292674 0.007679771 -0.05067738 0.046484888
000370 c6 c3 b9 bd 6c 05 22 3d 9d 2e 57 3d 61 67 f8 bd
       -0.09070544 0.039555952 0.05253469 -0.12129093
000380 cf 11 2b be f0 98 21 3e 0e 27 f4 bd d2 ee 51 be
       -0.16706012 0.15780997 -0.119215116 -0.20501259
000390 e8 f9 e5 3c d8 c0 a9 3d 95 f8 17 be 45 b6 26 3c
       0.028073266 0.08288735 -0.1484092 0.010175292
0003a0 59 42 ea bd f8 fd 00 be 0e 3c 49 3e e3 fe 08 3e
       -0.11438436 -0.12596881 0.19651815 0.13378482
0003b0 e4 f2 87 3d a1 8c 96 3d c7 07 71 bd 69 92 a1 bd
       0.066381246 0.073510416 -0.058845308 -0.07889254
0003c0 2c a7 45 bb 4a 18 cb bd 02 27 7e 3b 07 50 9a bd
       -0.0030159457 -0.09916742 0.0038780575 -0.07534795
0003d0 fe 2e fe bd 54 9b 38 bd b8 d5 7f 3c c9 7f 36 3e
       -0.12411307 -0.045070007 0.015614919 0.17822184
0003e0 ec ed 35 be a7 47 7a be fb 7c c0 3d db b1 7b 3d
       -0.17766541 -0.24441396 0.09398838 0.061448913
0003f0 a4 f5 6b 3d 09 f0 a5 bd 21 68 51 be 7f e3 3b 3e
       0.057607308 -0.08102424 -0.20449878 0.18348502

network_body.vector_processors.0.normalizer.running_mean f4 [78]
000000 fe f0 39 42 c4 37 33 c2 02 fc a0 c0 ab 6e c6 3f
       46.485344 -44.80446 -5.0307627 1.5502523
000010 c0 88 3b 40 48 00 47 40 d4 49 3e 42 18 3f 3a c2
       2.9302216 3.1093922 47.572098 -46.561615
000020 49 15 72 c0 24 1f 38 42 61 b1 38 c2 b0 28 83 c0
       -3.7825491 46.03041 -46.17322 -4.0987167
000030 a6 19 38 42 47 4d 21 c2 f1 b6 5e c0 40 14 3b 42
       46.025047 -40.325466 -3.4799159 46.769775
000040 f5 cd 34 c2 30 62 54 c0 e7 1a 37 42 9c 8b 33 c2
       -45.20113 -3.318493 45.77627 -44.886337
000050 ca a4 fd c0 b8 f5 3a 42 39 b2 36 c2 cb 83 f2 c0
       -7.926366 46.73996 -45.674046 -7.578588
000060 59 53 3f 42 2e f7 37 c2 7e 8a a7 c0 17 d2 36 42
       47.831394 -45.991386 -5.235656 45.705166
000070 d0 10 38 c2 0d 89 9a c0 cd 4e 39 42 ee 62 22 c2
       -46.01642 -4.82923 46.326954 -40.59661
000080 f1 b6 5e c0 f8 de 39 42 0a b8 33 c2 30 62 54 c0
       -3.4799159 46.467743 -44.929726 -3.318493
000090 75 68 38 42 3d 2c 34 c2 d5 44 e6 c0 48 ec 39 42
       46.10201 -45.0432 -7.1959023 46.480743
0000a0 dd f9 38 c2 65 03 c4 c0 d6 5c ce 3f 1d 91 c4 3f
       -46.244007 -6.1254144 1.6122081 1.5356785
0000b0 36 46 c8 3f 27 4d c2 3f 1f 05 c3 3f 35 e5 c5 3f
       1.5646427 1.5179795 1.5235938 1.5460573
0000c0 04 bd ce 3f 3d 6b c7 3f 78 42 bf 3f 22 51 cb 3f
       1.6151433 1.5579602 1.494216 1.5884135
0000d0 d5 2a c0 3f e5 84 c5 3f 89 00 39 40 e6 99 41 40
       1.5013071 1.5431181 2.8906577 3.0250182
0000e0 8c 89 3c 40 3c 70 39 40 2b b5 31 40 d0 ee 42 40
       2.9458952 2.8974752 2.7766826 3.045826
0000f0 b0 c4 44 40 20 d1 38 40 4c b2 3b 40 45 48 3a 40
       3.0745049 2.887764 2.9327574 2.910661
000100 ff 7c 3a 40 07 2b 37 40 a4 6b 41 40 6a ed 41 40
       2.9138792 2.8620012 3.0221949 3.0301156
000110 2c bf 3f 40 f0 56 49 40 3d 7e 54 40 7e 1e 49 40
       2.9960432 3.1459312 3.320205 3.142486
000120 1e d6 40 40 f0 f6 4b 40 45 87 42 40 dd 8e 46 40
       3.0130687 3.1869469 3.0395062 3.1024697
000130 79 74 4a 40 a3 b3 49 40
       3.163359 3.1515892
