Library/Collab/Download/Assets/nnmodels/TargetAgent.onnx (onnx, 76301 bytes, 9 tensors)

62 f4 [12]
00000000: fd13 9e40 1325 8a3e 1c28 ad40 bd70 b340
00000010: 054b e23e 81e1 b740 122a 2840 3f48 833f
00000020: 32a4 1840 b2b2 e840 296c cc3f 188e e540
4.93994 0.2698141 5.411146 5.607512 0.4419786 5.7462773 2.6275678 1.0256423
2.3850217 7.2718134 1.5970508 7.1735954

action_model._continuous_distribution.log_sigma f4 [1, 2]
00000000: 48d4 4abe 5dea 9fbe
-0.19807541 -0.31233492

action_model._continuous_distribution.mu.bias f4 [2]
00000000: 223e 2dbc d0f0 bcbd
-0.010573896 -0.09225619

action_model._continuous_distribution.mu.weight f4 [2, 128]
00000000: 5a38 a6bc b58a 023d f1a5 403d 5280 1b3d
00000010: 187d 653c 193b 4cbd 2af2 743d a9f6 2ebc
00000020: 409b 383d 036a 0c3c 3bae 07bd 9737 88bd
00000030: ea90 ba3d 9119 6c3b a91d 43bc 5474 6dbc
00000040: 1892 46bd 09a3 97bd e2bc 6e3d 32f8 c03d
00000050: 974d 2d3b fba2 e83c d607 87bd d046 d8bd
00000060: d579 aa3d b09d 973c 97b9 1fbb 7dbd c83d
00000070: 1997 d23d a77f 7a3d 53f8 aa3d c46f b0bc
00000080: c824 5a3d 73fe 26bd b65a 23bd 97bc d9bd
00000090: f418 833d 2d7b 993c 2399 2c3d 63d4 2a3d
000000a0: f372 68bd 19d2 463d 4cff e0bd af0b 033e
000000b0: 40a9 d4bc 7e4d 02bd 0f97 14bd 2ee5 923d
000000c0: db51 cd3d d155 523d f19d 67bd 3ddd 18bc
000000d0: 2d55 093d 58c1 7abc ad9e 12bd c74b 903d
000000e0: f8ed e5bc bd49 013d e4de 3abd 12ab 3abd
000000f0: 2006 df3a a7c3 7e3d 8b7d 7bbd 35ca 863d
00000100: 5adc 0aba 3153 5f3c 72bb 013c f052 d83c
00000110: 47e1 813c 6d42 8a3d 7b89 0c3a 3b77 a1bd
00000120: ec56 da3a d6ae 43bc 8256 6dbc b4c9 46bd
00000130: 030e 73bd 6065 11bd 0d6c 2c3d 8502 6fbc
00000140: 4a89 533d 863f 1d3d 850e 013e 1e83 0ebc
00000150: 85c2 1ebd 3f4d d8bd 7fae 88bd 807c b83d
00000160: ff92 453d d6aa 8bbd 0e6b d5bc 742e b4bc
00000170: cbf6 c43d b4c9 883d 878c b43c eb2e 8b3d
00000180: 0e86 8bbd 7e4f ec3d 06a0 443d 58eb 713d
00000190: 568a a03d 3706 c73c 70c4 063d d99c 123d
000001a0: 09a1 553c da0c 18bd 0c99 82bc 67c8 cabd
000001b0: a838 a53d 2a01 e43c 67b8 043d de8c 1ebd
000001c0: 7b3c 9f3d 68be 85bc 8e9d 43bd 9b0a 5bbd
000001d0: 00df 9cb9 66fe 8abd d64c da3d c52e 37bd
000001e0: 9258 ecbd 1199 69bb 3e2f 403d 4faf 763d
000001f0: ffb6 e7bb 25e6 4cbd 5a61 7dbd 194a 0bbd
00000200: fbf7 bebd f8c3 d8bc b086 8dbd 2d0e a8bd
00000210: 9422 a43d 00ec e53a ee7d fe3d 6d67 f1bc
00000220: 1d16 51bc d303 063e 7e35 f0bd 704c a43d
00000230: 51a4 b43d 6e21 7a3d b2ac e93d 9ec5 173e
00000240: b0d3 64bd 092b fc3d d9fb 0bbd 87ae 163d
00000250: fe73 923d 7114 263d de8e fdbc 4503 3b3d
00000260: 1ecc 8fbc 7476 cb3d dae0 a33d 3226 14bd
00000270: e772 1e3d 273b 823d f02a cf3c 895a 22bd
00000280: e986 603c 03f0 613d 6538 01bd ad49 1d3d
00000290: 07a2 b8bb 8ef4 1bbd 7c4f 9fbd e7b8 ea3c
000002a0: cd7b 1dbd 3269 323e a009 54bd fb9d 7a3d
000002b0: 6f39 65bd cc1b e5bb 725c bf3d a906 283e
000002c0: ebf8 96ba 33ce 37bd 17e7 203b 4ec0 24bd
000002d0: 9d8e b8bc a223 db3d 289d 25bd e604 8e3d
000002e0: 1a10 263c 2097 ce3c e47c a23d 9e38 9e3d
000002f0: 0b87 fa3d 5eee 943d 05b6 963d 9da7 a3bd
00000300: f6da ecbd 1432 1ebd 6869 cd3d 56d2 ed3d
00000310: b309 69bd 93e4 883d 3262 cbbc f047 dcbc
00000320: 957e b13d d7c3 353e 9fa2 28bd 76f2 23bc
00000330: 8139 83bc 4099 59bd 8986 0fbc ec8b a03d
00000340: f6d1 0b3d 53d9 8fbd 3d2f a23c 61e3 63bc
00000350: 771b 8a3d 6de6 963d c7d6 833d 84c8 31bc
00000360: 617f 1e3e 5884 a33c 5d95 883d d355 1d3e
00000370: 679d 453c c33f 76ba 9906 e33d a52f 913c
00000380: abf8 99bd 71f5 af3d 6b17 563d c603 043e
00000390: e053 e73d 79f3 683d 826a f23d 13d6 09bc
000003a0: 94df ef3d 3d54 4d3c 8f11 43bd f5b6 43bd
000003b0: 4476 28bd 071a f7bd b1d9 8bbc 8a29 ed3c
000003c0: bc45 ba3d 075b 00bd cfe8 213d a882 083c
000003d0: c29e 013e 4b62 2abd faa8 3b3d 90b0 2b3d
000003e0: 3ad1 99bc f4d2 323d f438 cbbc 2381 323e
000003f0: c8b9 053e aac7 2b3d 167d 23bd 173e a7bc
-0.020290542 0.031870563 0.047033254 0.037964173 0.014006875 -0.049861047 0.05980126 -0.010678926
0.045069933 0.008570197 -0.033125143 -0.06651228 0.091096714 0.003602598 -0.011908927 -0.014493067
-0.04847917 -0.07404143 0.0582856 0.094223395 0.0026443952 0.028398028 -0.065932915 -0.105603814
0.08324019 0.018507808 -0.0024372095 0.09801767 0.10282726 0.061156895 0.08348145 -0.021537669
0.053257734 -0.040770005 -0.03988143 -0.10631674 0.06401244 0.018735493 0.04213823 0.041706454
-0.05675025 0.04854021 -0.10986194 0.12797426 -0.025959611 -0.031812184 -0.036276873 0.07172619
0.10025378 0.051351372 -0.05654711 -0.009330091 0.033528496 -0.015304886 -0.035795856 0.070457034
-0.028067574 0.031564463 -0.04562272 -0.0455733 0.0017015375 0.062198307 -0.061399024 0.06581537
-0.0005297117 0.013630674 0.007918226 0.026406735 0.01585449 0.06750951 0.00053610624 -0.078840695
0.0016657985 -0.01194354 -0.014485957 -0.048532203 -0.059339534 -0.03549707 0.042095233 -0.014588003
0.0516446 0.03839066 0.12603195 -0.008698253 -0.038759727 -0.105616085 -0.066739075 0.090081215
0.04823589 -0.06819694 -0.026052024 -0.021994807 0.096173845 0.06679097 0.022039665 0.06796058
-0.06812678 0.115385994 0.048004173 0.059062332 0.078388855 0.024294956 0.03290218 0.035794113
0.013038882 -0.03712163 -0.015942119 -0.09901505 0.08067447 0.027832586 0.032402422 -0.03870856
0.077752076 -0.016326144 -0.047757678 -0.05347691 -0.00029920787 -0.06786804 0.106591865 -0.044722337
-0.11540331 -0.0035644213 0.046920054 0.06022578 -0.0070713754 -0.05002417 -0.06186042 -0.034006212
-0.09324642 -0.026460633 -0.06910455 -0.08205829 0.08014408 0.0017541647 0.12426363 -0.029468263
-0.01276162 0.13087396 -0.11728953 0.08022392 0.08820403 0.061067037 0.11409892 0.14821479
-0.055865943 0.12312896 -0.034175728 0.036787536 0.0715103 0.04054684 -0.030951913 0.045657415
-0.017553385 0.099347025 0.080018714 -0.03616924 0.0386838 0.06358939 0.025289029 -0.039637122
0.01370404 0.055160534 -0.031547923 0.03840034 -0.0056345495 -0.038075022 -0.07778832 0.028652621
-0.038448144 0.17422941 -0.05176699 0.06118582 -0.055962976 -0.006991839 0.093438044 0.1640879
-0.0011518275 -0.04487438 0.0024551803 -0.04022246 -0.02252894 0.10700156 -0.04043308 0.06934528
0.010135675 0.025218546 0.07933977 0.077256426 0.12232789 0.072720274 0.07358936 -0.07990954
-0.11565201 -0.038621977 0.1002987 0.11612384 -0.056894016 0.06684222 -0.024827097 -0.026889771
0.08666722 0.17750488 -0.041170713 -0.010006538 -0.016018631 -0.053124666 -0.008760103 0.07839188
0.03413578 -0.07023873 0.019797916 -0.013909192 0.0674352 0.07368169 0.0643745 -0.010851029
0.15478279 0.019960567 0.06669114 0.1536477 0.012061453 -0.00093936565 0.11085243 0.017722914
-0.07518133 0.08591736 0.052268427 0.12892064 0.11295295 0.05687282 0.11836721 -0.008412856
0.11712566 0.012532291 -0.047624167 -0.047781903 -0.041128412 -0.12065511 -0.017071577 0.028950471
0.09095332 -0.03133681 0.039528664 0.008331932 0.12658218 -0.041597646 0.045815445 0.04191643
-0.018776525 0.04365821 -0.02480743 0.17432074 0.13059151 0.04193846 -0.039914213 -0.020415349

network_body.linear_encoder.seq_layers.0.bias f4 [128]
00000000: 3e32 7f3b 17ad 6dbd 11b2 ba3d cf64 253d
00000010: 0001 8fbd 6d3b 1cbd c1d0 d9bd df89 1abc
00000020: e2de d63c 83d3 7bbd 6eba 8a3b 587e 06bc
00000030: 274c 81bd 6855 0a3d 1f59 5e3b 537e 4fbd
00000040: 4b31 bc3d b021 fbbc ee33 e43c 38cd 32bd
00000050: cbab 85bc df9f 9cbd 66c1 08bd 58c3 d8bc
00000060: 426d 483d 66da bbbc 9942 27bd 530a 003c
00000070: d1dc ff3c 2a59 97ba 9df1 863d 4feb 323d
00000080: 322a 4dbd f6ef 95bd fda6 0b3d 30cb a33c
00000090: dd2b aa3d 69f2 603d cff6 81bd cafe 92bc
000000a0: 8aa3 bcbd e89f 0abb 6f8b c3bd c383 0f3c
000000b0: 3268 d2bd 3dbb 9738 b736 0b3c 20c6 dabc
000000c0: 515f 123d beb2 febb 83d2 75bc 59a1 f8bc
000000d0: a685 85bd 103b 9dbd ad8c c8bb baa7 bbbd
000000e0: 15ed 603d a296 4fbd aa38 923d af5c dfbb
000000f0: d6f2 3b3d 6206 723d 8928 51bd 3537 5abd
00000100: 7903 27bc 7794 883d 16ab 8c3d eafa 033e
00000110: e70a ecbc 3beb b6bd ca9f 1b3c 7c87 81bd
00000120: 6640 5d3d 8fc8 b4bd ef18 673d 0d93 9bbd
00000130: c9b0 0abb 441e babd ab79 a43d 88fa 87bd
00000140: 5b63 f33c 5c8d ed3c ad0b 013b dfd1 98bd
00000150: 5090 37bc 613a efbc d61e 9fbd 9879 163c
00000160: 4c93 00bd 8d6a 813d d0fe a43d dde7 1d3d
00000170: 4dae dc3c 1fb9 503d 0b6d 4dbd 8a28 b4bd
00000180: 0df8 93bb e633 e73c 427e 86bd b94b 2bbd
00000190: 6b82 88bd 1bfc c93c 66f6 b13d ab76 30bb
000001a0: 0cc9 8fbd 8082 bcbd a484 a93b 4fae 82bc
000001b0: 66b8 163b e009 84bd 44c3 29bc 355c a2bc
000001c0: 51d3 853d 6fa7 b8bb f214 18bd 62fa caba
000001d0: 43f8 c6bd 88d8 133d 75bb adba 17be 0ebd
000001e0: ead2 693d c0e8 87bd 2989 223d d66b 89bd
000001f0: b1b6 1dbd c72b 96bd 14a2 89bd 693f 843d
0.0038939859 -0.0580264 0.09115995 0.04037934 -0.069826126 -0.03814261 -0.1063552 -0.009432285
0.026229326 -0.06148101 0.00423365 -0.008208834 -0.06313353 0.033772856 0.0033927632 -0.05065758
0.091890894 -0.030655712 0.027856793 -0.043652743 -0.016317269 -0.076476805 -0.033387564 -0.026460335
0.04893232 -0.022931289 -0.040834997 0.0078149615 0.031233223 -0.0011546959 0.06589053 0.04368144
-0.05008907 -0.073211595 0.0340948 0.019994348 0.083091475 0.05491868 -0.06345903 -0.017943759
-0.0921088 -0.002115244 -0.09548079 0.008759442 -0.1027378 7.235117e-05 0.008496932 -0.026705801
0.035735432 -0.0077727726 -0.015003803 -0.030350374 -0.06519632 -0.07677281 -0.0061202855 -0.09162851
0.0549136 -0.050680764 0.07139714 -0.0068164687 0.045885883 0.05908812 -0.051064048 -0.053275306
-0.010193699 0.066689424 0.068685696 0.12888685 -0.028813792 -0.089315854 0.009498546 -0.0632467
0.054016493 -0.08827316 0.056420263 -0.07596407 -0.00211625 -0.09087804 0.08031019 -0.06639582
0.029710462 0.02899807 0.0019690797 -0.07461905 -0.01120384 -0.029202642 -0.07769553 0.009184264
-0.031390473 0.06319151 0.08056414 0.0385512 0.026938582 0.050957795 -0.05015282 -0.08796795
-0.004515654 0.02822299 -0.065670505 -0.04182026 -0.066655 0.024656346 0.08689575 -0.00269262
-0.070207685 -0.092045784 0.0051732827 -0.015952257 0.0022998094 -0.06447196 -0.010361496 -0.019819358
0.06534446 -0.005635194 -0.03712935 -0.0015485997 -0.09715321 0.036095172 -0.0013254719 -0.034849253
0.05708591 -0.066361904 0.039681587 -0.06710021 -0.038504306 -0.073325686 -0.06720367 0.06457407

network_body.linear_encoder.seq_layers.0.weight f4 [128, 12]
00000000: c09a 04bd 4fff 22bf b633 8d3d 8054 fb3e
00000010: 92e1 3d3f 1d1e 29bd ab2c 83bd e4be d8be
00000020: 865c f1bc 839c 983e 2efc 22be f5f3 30be
00000030: 4dcb db3d b60e 9ebe 824f f5bd 1ea6 20be
00000040: 5431 6fbe fdd5 8ebe a852 2fbe 719d c2be
00000050: 1701 953d 242e 8c3e 5844 eabe c06d 83be
00000060: 6285 0ebf b153 503e 0165 51bd 4a4c 5dbe
00000070: b10b 6d3e e294 8d3c a217 1abf 6ec2 b2be
00000080: 19dc 833e da94 a9be db35 51be c227 0f3e
00000090: aa85 c7bd 7610 ec3e 37c9 8ebe 3aec ba3e
000000a0: 270a b3be 376f 91be f033 15be f3b4 93be
000000b0: 6f40 213f d6d3 9dbe 5b9c 803e 574c c4bd
000000c0: dac3 3a3e a3c5 5ebe 8b5a aebe 0a6e fe3d
000000d0: f0b3 66be e024 5abe 6eb0 7a3e 612f 263e
000000e0: acc9 cbbd d603 053f fe0d 8a3e 7be3 aa3d
000000f0: aa4c 813e 4f82 22bf 3371 b2bd 5f03 60be
00000100: 176e 0d3f c0b3 403e d4b0 bc3c c88f ccbd
00000110: 44b2 f43d 64c6 583e e8a8 113f 32d1 33bd
00000120: 1742 a63d e93a 01be 8d79 9cbd 87d8 2dbe
00000130: 562d 733e 58f3 1ebe 9a12 c13e f692 b3be
00000140: 2c69 0f3d ec9f 16bb 40cf 07be 1d6f b0be
00000150: 39ea 263e 34d7 0b3e 2dd4 fabe b488 7e3d
00000160: 510b f93d c820 5ebe c5e8 3fbd 45e0 5fbe
00000170: 45b3 86be 97bc 11be a1f9 433f 25c3 acbe
00000180: a387 94bb 2f95 203f c078 a63d 7b93 d13e
00000190: f637 1dbc c2c7 f83e d8b7 4fbd 49e8 d33e
000001a0: 69d5 0c3c 79ef 2bbe ef1f 47be 74d3 343d
000001b0: 0cdc 573e 1649 d0be d5bc 95be d34b ce3e
000001c0: cd0c 8fbe 1e84 f4be 0353 06be f490 263d
000001d0: 2a02 c2be 696c 52be 65e1 cc3e cade a23e
000001e0: 640f 01bf eaaf 32bd 9a0c 6abd 555a c43d
000001f0: 166c 2cbe 4208 22bf 6d48 1fbd f6b7 993e
00000200: f9f0 2fbe b2bc 893e b842 ce3d b039 143f
00000210: 6746 93be d6e8 d03d 151e 68be 0afa 2d3d
00000220: c2ff e03e 9fb4 abbe cbd3 023f 9fd2 d93e
00000230: b919 103e dee5 97bc 11ee 4d3e 69bf 673e
00000240: 0a82 3abd 8dc1 9c3e e441 9f3e 9ee6 f23e
00000250: 56bd 30bf da41 64be 72b8 78bd 8b36 6fbe
00000260: c876 923e 3735 22bf ff00 0abe 71c2 e8bd
00000270: 7536 23bd 6bef 603e 1ed1 a6bd e050 683c
00000280: 11bd 3b3e a740 1e3f 8a3a 0e3e 9a0b 953e
00000290: 18dc 2dbf 9dec c1bd 5bf4 bf3e 6543 793e
000002a0: d128 a43e 51ed 7bbe 965f d53e c872 e1be
000002b0: 476c 5c3d 1fad 3a3d eb1f b0bc 3b2d dc3b
000002c0: e346 9e3e 5870 1ebe 3803 d7bd 17b2 36be
000002d0: c9cc 0f3e 8608 7f3e 683f 16bf a6c4 ce3d
000002e0: f3fa 983e 2ca5 29be b1f3 03bf 44ef f63e
000002f0: 1c33 e2bd dc00 c03e f601 b13d e1aa 91be
00000300: 1589 a1bd aede 84be 16d2 9fbe f7b9 9b3e
00000310: c695 4d3f 2311 903e 0881 04bf ddae 0ebf
00000320: 62c1 133f e0aa 73bd ef59 b7be d2f7 cc3d
00000330: 0853 8b3d 2132 14bf 55ef 223e c790 ecbd
00000340: 0623 bb3e f311 123e bf26 503e 5bef 7fbe
00000350: 9bec 9d3e f328 0e3e dde2 723e eed1 01bf
00000360: dde3 25be 2d1e a13e f822 cbbc 418c 063e
00000370: e885 973e afb8 34bd 5cf3 3c3e 351d 6a3e
00000380: 2e8b 9b3c 8d30 edbd 1d4e 853d 5ff0 a23d
00000390: c0c9 0bbd 85a7 8bbd 252b 0d3f babb 943c
000003a0: a48d b53d 6c77 bebe 6acc 333d c255 09bd
000003b0: 377e debe 59b7 9b3e 7d8c 00be 9771 77be
000003c0: b8b9 14bf ce56 1b3f f833 82be 6e9e d6bd
000003d0: ba1b 843d 328d 753e f5aa 9c3d 06be 33be
000003e0: 3da8 273e bce7 093e 78cb 283e ba2c 823d
000003f0: c3c4 573e 6a25 1cbd 1d2c d73e ca8a a5bd
-0.032374144 -0.6367082 0.06894629 0.49087906 0.7417232 -0.041288484 -0.06405004 -0.42333138
-0.029463064 0.2980691 -0.15916511 -0.17280562 0.10732136 -0.308706 -0.119780555 -0.15688369
-0.23358661 -0.27897635 -0.17121375 -0.38010743 0.072755985 0.27378953 -0.45755267 -0.2566967
-0.55672276 0.20344426 -0.051121715 -0.21611133 0.23148991 0.017282907 -0.6019231 -0.34913963
0.2575386 -0.33121377 -0.204307 0.1398001 -0.09742291 0.4610631 -0.2788789 0.36508352
-0.34968683 -0.28405163 -0.14570594 -0.2884899 0.6298894 -0.3082568 0.2511929 -0.09584873
0.18238774 -0.2175508 -0.34053454 0.12423332 -0.22529578 -0.21303129 0.24481365 0.16229011
-0.09950575 0.5195898 0.269638 0.0834417 0.25253803 -0.63480085 -0.08712997 -0.21876286
0.5524611 0.18818569 0.023033537 -0.099883616 0.11948064 0.2116943 0.56898355 -0.043900676
0.081180744 -0.12620129 -0.076403715 -0.1697713 0.23747763 -0.15522516 0.37709504 -0.3507306
0.03501241 -0.0022983504 -0.13262653 -0.34459773 0.16300286 0.13656312 -0.48990002 0.06214209
0.121603616 -0.21692193 -0.046852846 -0.21862896 -0.26308647 -0.14232098 0.7655278 -0.33742633
-0.0045327707 0.62727636 0.081285 0.4093283 -0.009595862 0.48589903 -0.050712436 0.41388157
0.008595803 -0.1679057 -0.19445775 0.04414697 0.21080035 -0.4068076 -0.2924563 0.40292224
-0.27939454 -0.47757047 -0.13117604 0.04066558 -0.37892276 -0.20549168 0.40015712 0.318106
-0.5041411 -0.043624796 -0.057140924 0.09587542 -0.16838107 -0.6329385 -0.03888743 0.30023164
-0.17181768 0.26901776 0.10071319 0.57900524 -0.2876465 0.1020066 -0.22667725 0.042474784
0.43945128 -0.3353624 0.5110442 0.42543504 0.14072312 -0.018542226 0.20110346 0.22631611
-0.04553417 0.30616418 0.31104958 0.47441572 -0.69038904 -0.22290745 -0.060722776 -0.2336065
0.28606248 -0.6336245 -0.13476942 -0.11365212 -0.039846856 0.2196633 -0.08145355 0.014179438
0.18333842 0.618174 0.13889518 0.29110414 -0.6791396 -0.094689585 0.37491116 0.24342115
0.3206239 -0.24602248 0.4167449 -0.44032884 0.0538142 0.045575257 -0.021499595 0.006719259
0.30913457 -0.15472543 -0.10498661 -0.17841373 0.14042963 0.24905595 -0.586905 0.100961015
0.2987896 -0.16566914 -0.5154372 0.4822942 -0.110449046 0.37500656 0.08642952 -0.28450683
-0.078874744 -0.2595114 -0.3121497 0.30415317 0.8030666 0.28138074 -0.51759386 -0.5573557
0.57716954 -0.05948913 -0.358108 0.100082055 0.06802946 -0.5788899 0.1591161 -0.115510516
0.36550158 0.1426466 0.2032728 -0.2499365 0.30844578 0.13882808 0.23719354 -0.5071095
-0.16200204 0.31468335 -0.024796948 0.1313944 0.2959435 -0.04412144 0.18452209 0.22862704
0.018987264 -0.11581526 0.065090396 0.079560034 -0.03412795 -0.06819061 0.5514396 0.018155921
0.088649064 -0.37200487 0.043896116 -0.03352905 -0.4345567 0.3041332 -0.12553592 -0.24164425
-0.58095884 0.6067933 -0.25430274 -0.10479437 0.06450601 0.23979643 0.07649795 -0.17552957
0.16372772 0.13467306 0.16483867 0.06356187 0.21071152 -0.03812162 0.42025843 -0.080831125

network_body.linear_encoder.seq_layers.2.bias f4 [128]
00000000: 66b9 913d 1945 f03c 67a2 823c 3b6b 733d
00000010: 2ba6 35bd 7e63 1c3d 10d8 d3bd 1cb5 7dbb
00000020: feaf 283c 7e66 a6bd 9621 853d f076 5cbd
00000030: 5d1a e63b 7493 cdbd 28b2 96bd 6e40 96bd
00000040: b0d1 ad3d 4c39 06bd b0f1 1c3d 3b88 73bb
00000050: bb5c e2bd 784d 82bd a0b2 bf3d a6e3 25ba
00000060: eb84 073d ff9c afbd ad08 ccbd 0c86 dd3c
00000070: 0c1e ad3b 27fe 7a3b 16eb e5bc 2832 583c
00000080: 8622 3cbb ead8 15bd 7f82 733d 13ac cdbc
00000090: 482c e43b 0a27 ab3c 6b3a a13d 2316 1fbc
000000a0: 5c53 903d 7960 05bd 776c 363d 1997 113d
000000b0: 7636 5d3d db00 c9bc c6fc 9bbd 9225 1cbd
000000c0: dbd8 983c f2d8 383d 99f0 fd3b 9be1 6d3d
000000d0: 1259 1a3d 0d20 b1bd b6b6 7f3d 4af6 2fbc
000000e0: 368c 173c 86ab 4cbc 41a3 64bd 1e7d 75bd
000000f0: b968 a6bd 8acc 03bd 0265 81bd 8aae aa3d
00000100: 01e3 bc3d 8f83 623c 989b 92bd 6b55 99bd
00000110: 35e3 593d d50d 7cbd 54ed 223d b9b8 4c3d
00000120: 3e89 e8bd 905e 28bd c8dd 1e3d ba39 273d
00000130: 3d74 233c 8959 b93d 1085 2c3c 335c c4bd
00000140: e2c1 d2bd f827 6e3d 0a08 0b3c 3c49 d43c
00000150: eab0 96bd 4283 30bc a86b 57bd 7833 d23c
00000160: 17b4 97bd e903 cc3b 5ce0 96bd f5b7 67bd
00000170: 9c0f 7f3c 2667 1abd a2ad 9dbd d3de e5bb
00000180: f623 db3d f902 58bd 180d c6bc 8024 9fbd
00000190: ea55 53bd 5077 25bd 8b19 24bd 911d f03b
000001a0: 3db9 50bd 1ed8 40bd 909c 9b3d 1fd0 5c3d
000001b0: 673d a23b 6d77 bc3d 33e7 ebbc bb13 eebb
000001c0: 6479 9cbc 6f9d 5b3d aa5a 043d fdcf 52bd
000001d0: 2619 91bd 95b2 653d a86b fd3c 88b4 1ebd
000001e0: 6177 563d c86f 51bc 473a 8bbc 9649 eabc
000001f0: 4d2f adbd ae18 46bd fa75 4f3d 3fba d33c
0.0711544 0.029329823 0.01594658 0.059428435 -0.044347923 0.03818082 -0.10343945 -0.0038712686
0.010295866 -0.081250176 0.06500547 -0.053824365 0.0070221857 -0.1003789 -0.07358199 -0.07336508
0.0848726 -0.032769486 0.03831643 -0.0037160057 -0.11052843 -0.06362432 0.09360242 -0.0006328173
0.033085745 -0.085748665 -0.09962592 0.027041458 0.005283123 0.003829846 -0.0280662 0.013195552
-0.00287071 -0.03658382 0.059450623 -0.025106465 0.0069632865 0.020892639 0.078724705 -0.009709868
0.070471495 -0.032562707 0.044537034 0.03554449 0.054007016 -0.02453654 -0.07616572 -0.038121767
0.018658092 0.04512877 0.0077496287 0.058076482 0.0376826 -0.08648691 0.062430106 -0.010739872
0.0092497375 -0.012492066 -0.055819754 -0.059933774 -0.08125443 -0.032177486 -0.06318094 0.08334072
0.09222985 0.013825311 -0.071585834 -0.07486995 0.053195197 -0.06153663 0.039777115 0.049980853
-0.11354302 -0.041105807 0.038785726 0.040826537 0.009976444 0.090502806 0.010529771 -0.09587898
-0.102908865 0.058143586 0.008485803 0.025913827 -0.073579624 -0.010773482 -0.052592903 0.025659308
-0.07407396 0.006226052 -0.07367012 -0.05657192 0.015567686 -0.037696026 -0.076991335 -0.007015088
0.107002184 -0.05273721 -0.024176165 -0.07770634 -0.051595606 -0.04039699 -0.040063422 0.0073277433
-0.050957907 -0.047081105 0.07598221 0.053909417 0.0049511674 0.09202466 -0.028796768 -0.0072655356
-0.019100852 0.053616937 0.032313026 -0.051467884 -0.07084875 0.056078512 0.030935124 -0.038746387
0.052359942 -0.012782998 -0.016995562 -0.028599542 -0.084562875 -0.04836338 0.05064962 0.025845645

network_body.linear_encoder.seq_layers.2.weight f4 [128, 128]
00000000: 5c21 abbd 8ea3 edbb 26ec c4bd c08c ef3c
00000010: 3bdd d6bd 5b6b cf3d 23ad aabd 40a5 af3d
00000020: 496d 213d 35e4 bbbc 2001 14be 1fb7 dc3c
00000030: 2662 3fbe bb57 bc3d f1f3 8abe 221e 3bbd
00000040: fb5b 553d a6d1 83bd baf5 213e a595 20be
00000050: 4f81 ee3d 9c40 d13d eab7 8c3c 3cf3 07bd
00000060: ded1 2a3d 16ba ce3d ab2f c93d f798 8f3d
00000070: 820a 993b 6e64 a33d 19ce 4ebe bc74 13be
00000080: ff8f 623d 5322 fbbd b112 5d3c de0b 5fbe
00000090: 20e9 343d cfe8 15be 843c 533e f3c0 3b3c
000000a0: 20c3 bc3b 53ff 9fbc 3877 0dbe 9c90 d13b
000000b0: 30a8 60ba 3dd7 023e 256f 1d3c 788e c33d
000000c0: 23e8 b33b 3d76 c03d b840 1d3e bd17 8c3d
000000d0: 1838 11bc 48db 133e 3bdf e9bd 8655 fcbc
000000e0: fcc2 26bc e026 c7bd f7dc 1b3e 72ad bb3d
000000f0: edc5 8d3d 15df a2bc 9690 f9bd d906 88bd
00000100: b75a fcbc 5710 af3d fc2d 343d 3e78 0abe
00000110: 169a 07be 8dad a7bd f68d 72bd 64f9 2bbe
00000120: c506 17bd ff30 98bd c7aa 00be d8a2 0a3d
00000130: 06dc 903c 4ec3 06be c37b 883d 2033 b63d
00000140: 8bd5 7ebd 4daa 423d a202 fd3d 7187 f2bd
00000150: 12f5 b63d 3cc6 413c e762 2a3d a851 90bc
00000160: b83a 15be c694 bbbc b293 e5bd 8488 f83c
00000170: 8546 db3b 7dfe be3c 748e a23b e7ad 8dbd
00000180: ed40 76bc a43f bdbe 331a e2bd 0e9b 34be
00000190: e25d 1abe 042e c5bd 9ced dbbc 49f2 02be
000001a0: 8dbc 7bbd cd3a 12bd 7217 45bb c750 eabc
000001b0: dab5 31bd a1ef 6e3c 9e1f 963c 106c 033e
000001c0: 9b71 723d 3366 073c 2e82 1c3e 59ea a13c
000001d0: 8e99 97bd 1cca 0f3e 03b2 783d f426 2b3e
000001e0: 75d5 6e3d 95c9 6dbd 5f7b 18bd 2800 afbd
000001f0: 37c4 123e 85e7 133e a471 b83b dce3 af3c
00000200: c468 1dbe 934f c53d 5b0c 3dbe b270 a03b
00000210: 0f18 05be 85f0 a2bc 9cd9 a5bd eb99 6e3d
00000220: c58d 8b3d 6a14 7fbd 0d80 e8bd 05e1 c1bd
00000230: 388e 45be bf84 65bc 3107 87bd dfb7 a5bd
00000240: 7b1e 96bd 9be9 00be 31ef 433d e76e f0bc
00000250: 840d 5a3c 245c e2bd 59d4 713d 87c2 9abc
00000260: f4ca 513d 039e 02bd c80d 903c d398 d23d
00000270: d13c 74bd 9643 913d a96e 3ebd 4f18 cebc
00000280: b6ff ffbd 9189 eebd 010a fe3d 2ccd 9e3d
00000290: d6ba d9bd ad24 6b3d ef58 8bbd 5b84 d6bb
000002a0: 9e03 2bbd 6f51 173e de3f 4b3e 29eb cfbd
000002b0: 2788 95bd 10fa 42bb e119 c13b ede4 8bbd
000002c0: 228c 313e b864 bcbd 5b22 9ebd 814d af3d
000002d0: b206 a03c 20b6 123d 3fc7 a2bd c8f7 93bd
000002e0: fd2b 9e3d 01a2 3a3d 1ceb 82bb abd3 37be
000002f0: 4cf5 0a3e 2e67 733c 4977 77be 174a c5bc
00000300: bb87 e5bb 678d 48bd 5502 df3c d378 5c3d
00000310: 053b 193e e7a1 a13d 1414 10be 02e2 62bd
00000320: fb77 8ebc 5c1e a2bd e3d4 063b d193 803b
00000330: cc88 80be ebde d1bc 6a7c 8dbc 51cb ca3b
00000340: bbcb 7b3b d7ea 79ba f61d 9c3b ea75 22be
00000350: 1e47 db3d 08fb 1ebd 1556 0cbe 1605 b1bd
00000360: 3cdf f9bd 70e9 0e3d b07e 2bbc 1995 98ba
00000370: 2608 25bc 8721 c83d 3bed 153d a35d 17bd
00000380: 14d8 8dbd 76d8 763d 826d a7bd 0293 c13e
00000390: cdae 7e3c d1e7 283d 1390 993c 9626 71be
000003a0: f73d fcbd 2a11 9c3d 7826 9dbc 7404 31be
000003b0: 5f89 31bc 62e2 c53c b049 023e 22de c0bd
000003c0: 3d6c 21bd 1470 91bd 4fa1 1ebe 6e0b 18bd
000003d0: 6469 143d 77d1 0fbe 7a87 d7bc 1316 ad3d
000003e0: 5129 92bc a27c cfbd 36c3 8a3d d458 15bd
000003f0: 0803 713d 1bf6 b5bd 537a 7dbe f8cf e7bd
-0.08355972 -0.0072521633 -0.09615354 0.02924192 -0.10491415 0.10127898 -0.083338045 0.08576441
0.039410863 -0.022935966 -0.14453554 0.026942788 -0.18689784 0.09196421 -0.27139238 -0.045683034
0.052089673 -0.06436472 0.15816393 -0.15682085 0.116457574 0.102174014 0.01717754 -0.03319095
0.04170405 0.10094087 0.09823545 0.070115976 0.004670442 0.0797814 -0.20195808 -0.144
0.055313107 -0.12262406 0.013493226 -0.2178187 0.044167638 -0.1463959 0.20628554 0.011459577
0.0057605654 -0.019530928 -0.1381501 0.0063954126 -0.0008569984 0.1277742 0.009609018 0.09548658
0.0054903193 0.09397552 0.1535672 0.06840465 -0.008863471 0.14439118 -0.11419531 -0.0308025
-0.010178324 -0.09724212 0.1522101 0.091639414 0.06922517 -0.019881764 -0.12185781 -0.06641931
-0.030804975 0.085480385 0.043989167 -0.13522431 -0.13242373 -0.08187399 -0.059217416 -0.16794354
-0.03687169 -0.0743122 -0.12565146 0.033846706 0.01768304 -0.1316044 0.06664231 0.0889647
-0.06221537 0.047525693 0.12354018 -0.1184224 0.08933462 0.011827048 0.041598227 -0.017617062
-0.1457318 -0.02289809 -0.11209811 0.030338533 0.006691756 0.023314709 0.0049608294 -0.06917935
-0.015030128 -0.36962616 -0.11040153 -0.17637274 -0.15074876 -0.096279174 -0.0268467 -0.12787737
-0.061459113 -0.035700608 -0.003007379 -0.02860297 -0.043386318 0.014583499 0.018325623 0.12834191
0.059190374 0.008264112 0.15284035 0.019765066 -0.07402335 0.14041942 0.06071664 0.16714078
0.058309037 -0.05805357 -0.03722703 -0.08544952 0.14332663 0.14443786 0.0056287814 0.021470957
-0.15371996 0.09634318 -0.18461744 0.004896247 -0.12997459 -0.01989008 -0.08098146 0.058252256
0.0681415 -0.062275328 -0.11352549 -0.09466747 -0.19292533 -0.0140087 -0.065931685 -0.08091711
-0.073300324 -0.12589113 0.047835533 -0.029349757 0.013308886 -0.11052731 0.0590404 -0.018891586
0.05121894 -0.031888973 0.017584696 0.10283055 -0.05962831 0.07092969 -0.046492252 -0.025158076
-0.12499945 -0.116473325 0.12404252 0.07753977 -0.10631339 0.057408024 -0.06804072 -0.0065465397
-0.041751496 0.14777158 0.19848582 -0.10152275 -0.073013596 -0.00297511 0.0058929776 -0.068307735
0.17338613 -0.09198898 -0.077213965 0.085597046 0.019534443 0.03581822 -0.079481594 -0.07224995
0.07723234 0.045564655 -0.0039953124 -0.17951839 0.13570136 0.014856143 -0.24166597 -0.02408318
-0.0070047057 -0.048962977 0.027222792 0.053826164 0.1496392 0.078922085 -0.14070159 -0.05539132
-0.017391196 -0.07915947 0.0020573668 0.003923871 -0.25104368 -0.02561899 -0.01727124 0.006188788
0.0038420993 -0.000953359 0.004764314 -0.15865293 0.10706924 -0.03881362 -0.13704713 -0.08643548
-0.12200782 0.034890592 -0.010467216 -0.0011641114 -0.0100727435 0.0977202 0.036603194 -0.036954533
-0.06925979 0.060265027 -0.08175184 0.3780747 0.015544605 0.041236702 0.018745458 -0.23549876
-0.12316506 0.07620461 -0.019183382 -0.17286855 -0.0108359745 0.0241558 0.12723422 -0.094173685
-0.039409865 -0.07101455 -0.15491222 -0.037120275 0.03623332 -0.14044748 -0.026309717 0.08451476
-0.017841967 -0.10131194 0.06775515 -0.036461666 0.05884078 -0.088848315 -0.24753694 -0.11318964

network_body.vector_processors.0.normalizer.running_mean f4 [12]
00000000: 8a72 dfbe 85c8 023f 4859 04c0 36fe 1fbf
00000010: 08e5 d63e 71f7 cdbf 8aec 99bb 4ced c9be
00000020: 3233 b7bf 4c35 b7be eeed 39bf 8056 d0bf
-0.43642074 0.5108722 -2.0679493 -0.6249727 0.41971612 -1.6091138 -0.004697387 -0.39438856
-1.4312499 -0.3578285 -0.72628677 -1.6276398
